p1_navigation/checkpoint.pth (torch_old, 28391 bytes, 6 tensors)

fc1.weight f4 [64, 37]
-0.09473179 -0.108073115 -0.0027087524 -0.30531654 -0.053206787 -0.12937172 0.049831837 0.21913646
-0.4061575 0.034026086 -0.012526336 -0.15768969 -0.087943904 -0.2714151 -0.27866867 -0.17319249
0.01985019 0.10057217 -0.065811306 -0.008819147 -0.16932507 0.08347945 0.36604327 -0.4879007
-0.1790853 -0.008376408 0.10723556 -0.11484344 -0.26310742 0.10006368 -0.24111275 0.10842922
0.07381096 -0.37542042 -0.2531708 -0.0035612648 -0.05055294 0.06416259 0.14886919 0.11647069
-0.052124143 -0.1644147 0.108776234 0.021615604 -0.18712886 -0.29892796 -1.1886134 0.061555658
-0.03677589 0.018587025 0.20263559 0.2707283 0.09554602 0.07154597 0.0023714087 -0.08659729
-0.07428303 -0.08920319 -0.18988204 0.0027608643 -0.051934138 0.07156784 -0.1988246 0.0675215
0.23067807 0.14439735 0.2556206 0.12918615 0.026699893 0.048093136 0.1195886 0.23362043
-0.0035053482 0.0052353856 0.1364779 0.24276158 0.09447137 0.10249668 -0.0366951 -0.21440324
0.1980951 0.17039716 0.18864521 0.17914672 -0.008174847 0.027690187 0.122707136 0.11077048
0.113340996 -0.05860119 0.078223884 0.12781368 0.174164 0.5781954 -0.15778276 0.056192737
0.15948433 -0.0396725 0.13365704 0.029203586 0.12704822 0.13753729 0.017901864 -0.33074906
-0.03154699 -0.019770125 -0.08787863 0.086967945 -0.0076914956 0.050880443 -0.011808021 0.104253955
-0.13796304 0.22384039 -0.10416637 -0.24162875 -0.27110195 -0.14729898 0.3600858 -0.0280719
-0.46090052 -0.018290276 -0.14061397 0.1704575 -0.08040659 -0.09275874 -0.0160536 -0.052195434
-0.044803414 -0.37344697 -0.12329269 0.07270348 0.14617004 -0.07958353 -0.009328541 -0.04132846
0.032899305 0.065651014 -0.03279593 -0.04143563 -0.120274015 0.076108746 0.18063577 0.17654687
-0.40371063 -0.5855967 0.052559868 0.02493108 -0.15161888 -0.13789761 -0.16533065 -0.4981727
0.21381336 0.024971245 0.022884216 -0.29721662 -0.059831455 -0.3505397 -0.010072308 -0.3343893
-0.06233907 -0.24134162 -0.53598 -0.0471285 -0.16873662 -0.26925388 -0.15165128 0.2593021
-0.12177102 -0.13753147 -0.21160394 0.092095755 -0.3539523 -0.022364112 -0.16929746 0.0044624084
-0.013973561 -0.23215438 0.1340237 -0.4024427 -0.042128507 -0.081274554 -0.07278296 0.14772858
0.030767918 0.05630599 -0.041499473 0.013155269 -0.08166134 0.17664985 0.14833762 0.15606774
-0.09486934 -0.0020603738 -0.9403107 -0.03139064 0.11599224 -0.11235735 -0.16458112 -0.20944111
0.11732893 0.042532805 -0.15171361 0.022864176 -0.09248052 0.009724926 0.21860625 0.14768428
-0.087751664 -0.25281483 -0.24073166 -0.036629304 0.21137053 0.2491416 0.047598578 -0.059485175
0.2187575 -0.073715255 0.048914187 -0.6241989 0.012871488 0.007983775 -0.093400136 0.0010091404
0.06896259 -0.05634088 -0.15701862 -0.18298577 0.043645054 0.058354028 -0.24137942 0.45782033
0.037475113 -0.08231746 0.20520206 -0.06588602 0.23302512 -0.18657781 -0.24803771 0.117282994
0.018230587 0.23927954 -0.19631925 0.011589186 0.09417432 0.00939956 0.035515133 -0.3125592
-0.14139962 0.13368277 -0.108731285 0.119984016 0.06414093 -0.049173776 -0.1563195 0.0016604079
00000000: be02 c2bd 7055 ddbd 5385 31bb 7352 9cbe
00000010: 5cef 59bd 057a 04be 781c 4c3d 4f65 603e
00000020: e0f3 cfbe f05e 0b3d 433b 4dbc 6879 21be
00000030: ef1b b4bd ecf6 8abe a9ad 8ebe 5f59 31be
00000040: de9c a23c c8f8 cd3d 14c8 86bd 2f7e 10bc
00000050: 8d63 2dbe 46f7 aa3d 066a bb3e 1fce f9be
00000060: 2362 37be 343d 09bc 519e db3d 0a33 ebbd
00000070: 04b6 86be 30ee cc3d 43e6 76be 2410 de3d
00000080: 332a 973d 1b37 c0be 9a9f 81be 1c64 69bb
00000090: 9a10 4fbd ad67 833d 2a71 183e 2f88 ee3d
000000a0: 2080 55bd 545c 28be 13c6 de3d 3513 b13c
000000b0: b59e 3fbe 160d 99be 7c24 98bf c921 7c3d
000000c0: 51a2 16bd d143 983c b47f 4f3e e69c 8a3e
000000d0: a2ad c33d b286 923d a369 1b3b ec59 b1bd
000000e0: b421 98bd 29b0 b6bd 7070 42be 9eef 343b
000000f0: e4b8 54bd 2992 923d ad98 4bbe b648 8a3d
00000100: df36 6c3e e6dc 133e b4e0 823e 6049 043e
00000110: bcb9 da3c 4ffd 443d deea f43d 323a 6f3e
00000120: fcb9 65bb 998d ab3b ddc0 0b3e 7e96 783e
00000130: 357a c13d c8e9 d13d 9a4d 16bd 868c 5bbe
00000140: 71d9 4a3e 987c 2e3e 362c 413e 3d72 373e
00000150: cbef 05bc 88d6 e23c e14d fb3d a2db e23d
00000160: 531f e83d cd07 70bd d833 a03d 97e1 023e
00000170: 0c58 323e 9d04 143f ce91 21be 5b2a 663d
00000180: dc4f 233e a27f 22bd 64dd 083e 5c3c ef3c
00000190: ee18 023e 93d6 0c3e eea6 923c f157 a9be
000001a0: 6b37 01bd f5f4 a1bc b6f9 b3bd 401c b23d
000001b0: f108 fcbb 0368 503d 6e76 41bc 1983 d53d
000001c0: 2f46 0dbe 6a36 653e 2e55 d5bd 876d 77be
000001d0: e0cd 8abe 8bd5 16be 2a5d b83e 0bf7 e5bc
000001e0: 27fb ebbe 7dd5 95bc 1cfd 0fbe 698c 2e3e
000001f0: 36ac a4bd 4bf8 bdbd d782 83bc e1ca 55bd
00000200: c983 37bd 7134 bfbe e180 fcbd 90e5 943d
00000210: 99ad 153e b1fc a2bd bdd6 18bc 0848 29bd
00000220: 6cc1 063d 0a74 863d 0655 06bd 68b8 29bd
00000230: 3952 f6bd e7de 9b3d 95f8 383e b4c8 343e
00000240: 29b3 cebe aae9 15bf 0449 573d 443c cc3c
00000250: fb41 1bbe 0835 0dbe 704c 29be 7e10 ffbe
00000260: e4f1 5a3e 7f90 cc3c ae77 bb3c c72c 98be
00000270: d411 75bd f179 b3be 5206 25bc 1335 abbe
00000280: 4157 7fbd 4222 77be fc35 09bf d009 41bd
00000290: 4bc9 2cbe a5db 89be 794a 1bbe 3fc3 843e
000002a0: 1663 f9bd 0dd5 0cbe b4ae 58be b39c bc3d
000002b0: 3c39 b5be f134 b7bc 505c 2dbe 6539 923b
000002c0: 5df1 64bc e1b9 6dbe 823d 093e f80c cebe
000002d0: f18e 2cbd 4673 a6bd 3c0f 95bd 2946 173e
000002e0: 000d fc3c 1ca1 663d 5afb 29bd 3389 573c
000002f0: 103e a7bd b3e3 343e d1e5 173e 39d0 1f3e
00000300: db4a c2bd 5607 07bb 34b8 70bf 7993 00bd
00000310: 578d ed3d 9c1b e6bd f487 28be bb77 56be
00000320: 264a f03d e136 2e3d d05a 1bbe a74d bb3c
00000330: 6d66 bdbd 4c55 1f3c 51da 5f3e 8c3a 173e
00000340: 25b7 b3bd f270 81be 5c82 76be 9c08 16bd
00000350: 8471 583e fa1e 7f3e baf6 423d baa6 73bd
00000360: f701 603e 06f8 96bd 3e5a 483d 80cb 1fbf
00000370: efe2 523c 61ce 023c 9248 bfbd 2245 843a
00000380: 423c 8d3d b2c5 66bd 7dc9 20be 9f60 3bbe
00000390: 28c5 323d a204 6f3d 2b2c 77be 6d67 ea3e
000003a0: 817f 193d 0e96 a8bd 7d20 523e 40ef 86bd
000003b0: 239e 6e3e 410e 3fbe 99fd 7dbe 1132 f03d
000003c0: 5058 953c b205 753e ea07 49be 92e0 3d3c
000003d0: 77de c03d 9d00 1a3c 5178 113d c207 a0be
000003e0: 10cb 10be 23e4 083e 82ae debd 2eba f53d
000003f0: 525c 833d 716a 49bd 3812 20be 0ba2 d93a

fc1.bias f4 [64]
0.06502929 -0.04083017 -0.06515484 -0.087576725 0.061266072 0.013033466 -0.101292975 0.09425799
-0.017344365 -0.2614253 0.19110371 0.18229541 0.18621582 0.3013855 0.09511544 -0.059619028
-0.04186779 0.031679414 0.0010139393 -0.17911506 -0.044282176 0.05220441 0.0063506262 -0.047539074
-0.15027635 0.006180927 -0.2081352 -0.23396397 0.14120492 0.14512004 -0.13354996 -0.16683088
0.11670475 0.00858548 -0.12027153 0.01105413 -0.061101634 0.04341057 -0.014453654 -0.15203334
-0.08652747 -0.014833166 -0.13366444 0.11859876 -0.014023886 -0.055729482 0.12390344 -0.18825512
-0.19362143 0.014923823 -0.19667129 0.0720401 -0.06064034 -0.028901119 -0.22397056 0.0013720997
0.13113914 -0.14394201 -0.13010174 -0.06897057 0.010677886 0.06582298 0.15158607 0.12258647
00000000: 142e 853d 893d 27bd e76f 85bd 6d5b b3bd
00000010: 22f2 7a3d 528a 553c b172 cfbd 550a c13d
00000020: c515 8ebc 89d9 85be b1b0 433e a6ab 3a3e
00000030: 5caf 3e3e 334f 9a3e e2cb c23d 1533 74bd
00000040: 8f7d 2bbd 46c2 013d 28e6 843a f069 37be
00000050: 3a61 35bd 4bd4 553d ea18 d03b 55b8 42bd
00000060: 0be2 19be 6089 ca3b 6521 55be 4094 6fbe
00000070: 0698 103e 599a 143e 52c1 08be b7d5 2abe
00000080: e602 ef3d 1daa 0c3c eb50 f6bd 621c 353c
00000090: b545 7abd 48cf 313d 05cf 6cbc a1ae 1bbe
000000a0: 5035 b1bd cf06 73bc 55df 08be e8e3 f23d
000000b0: 71c4 65bc 9944 64bd 16c1 fd3d f3c5 40be
000000c0: b244 46be 0d83 743c 3364 49be c389 933d
000000d0: 0162 78bd 0ac2 ecbc 8a58 65be 07d8 b33a
000000e0: 5749 063e 8965 13be 6439 05be 7140 8dbd
000000f0: 4df2 2e3c 33ce 863d 6139 1b3e 9d0e fb3d

fc2.weight f4 [64, 64]
-0.028721591 0.17811793 -0.200127 0.23044063 0.118092984 -0.0069532054 0.08545275 -0.043182943
-0.04218002 0.09581382 -0.06300125 0.27118307 -0.117037065 0.11470484 -0.17422232 -0.24347723
-0.037423506 -0.11248228 -0.11975933 0.056823283 0.17445774 -0.07818941 -0.121749826 -0.24743132
-0.06076569 -0.1257571 0.1544187 -0.0072643743 0.17403848 0.12832431 0.15242027 0.11603195
0.22905336 0.29173627 -0.023185233 -0.016688008 -0.1174828 0.37194407 -0.124980025 -0.19547965
-0.36895984 0.08966084 0.35165566 -0.1021409 0.01857697 -0.10747483 -0.17150635 0.017758781
0.04065333 0.15172228 -0.115645096 0.13433087 -0.1823564 -0.58779204 -0.017858585 -0.11234473
-0.19358557 0.021503005 0.05985324 -0.059718363 -0.1777866 0.1500156 -0.1009834 -0.11026102
0.26067713 0.17226733 -0.17107718 0.1420428 -0.019105142 0.10652427 -0.29333854 -0.05078177
-0.09709543 -0.13328817 -0.12765111 0.36400554 -0.15391545 0.0071411366 -0.2236 0.10984104
-0.095510095 -0.20219216 0.083730556 -0.18824358 0.22786832 -0.116766244 -0.17546682 0.029874085
-0.031760227 -0.11857555 -0.08985328 0.0656808 0.3183705 -0.19911358 -0.07543952 -0.11469208
-0.30584958 0.010376919 -0.36732832 -0.17366987 0.015048601 0.37559745 -0.078205615 -0.14713898
-0.23610432 3.1072817e-05 0.23675251 -0.036085054 -0.028314775 0.001801135 -0.171769 -0.021162601
-0.035846952 0.2666645 -0.20682846 0.17346644 -0.012040584 -0.38891384 0.13498169 -0.015003752
-0.05344566 -0.06489952 0.09562593 0.0046523074 -0.38342047 0.04653879 0.20888087 -0.041019622
-0.101776995 0.08410993 0.01824446 -0.14953649 -0.12401673 0.00077831745 -0.098671414 0.28395668
-0.015289288 -0.08988281 0.07606271 -0.25830677 -0.0533336 0.025042504 -0.020237789 -0.42126718
0.15435743 -0.03736958 -0.18560177 -0.37085125 -0.08603839 0.06300676 -0.37219474 -0.1607049
-0.38973635 -0.15534452 0.032677148 -0.030142503 -0.36365077 -0.41265485 0.07041674 0.047281127
-0.1323979 0.15602913 -0.07522849 0.0226943 0.194906 -0.14181107 0.19995917 -0.17433669
0.20457794 -0.032004748 -0.24430817 -0.0371258 -0.033767965 -0.08656002 0.017007308 0.13642251
-0.07440207 -0.000843588 -0.18910834 0.13393825 -0.049375493 -0.79989004 -0.08479245 -0.14027378
-0.22279401 -0.2607264 -0.0012860881 -0.08033556 0.5926239 -0.10140337 0.1995771 -0.13986115
0.0693159 -0.10908452 0.16545618 -0.0019296801 -0.27851745 0.0034588398 0.028925657 -0.30239922
0.13336436 -0.22722313 -0.1285611 0.05422313 0.101844646 -0.020447401 -0.23125127 0.004190919
-0.11928361 -0.05578686 0.17195886 -0.23549837 0.12642546 -0.13765039 0.10321833 -0.08987245
-0.004895384 0.065080516 0.12420998 -0.3200297 0.17851059 0.251401 0.3785711 -0.14212734
0.0464273 0.01387978 -0.039020278 0.2600497 -0.09397723 -0.009987389 0.22488843 0.19121891
-0.3097012 -0.13615294 -0.10669527 -0.48091587 -0.019552069 -0.2368899 -0.040749367 0.17090434
0.031046087 0.26748782 -0.16069311 -0.03637601 0.27982697 0.12876906 -0.07761848 0.103372864
-0.23201455 0.0058173374 0.13954005 0.047369804 -0.5302745 0.093417384 -0.15847301 -0.0074144513
00000000: 8b49 ebbc 8c64 363e 18ee 4cbe a1f8 6b3e
00000010: bcda f13d b7d7 e3bb da01 af3d 99e0 30bd
00000020: f5c4 2cbd 093a c43d cd06 81bd 82d8 8a3e
00000030: 21b1 efbd 5fea ea3d 5667 32be 1852 79be
00000040: 6449 19bd 1c5d e6bd 6144 f5bd 88bf 683d
00000050: 0da5 323e c521 a0bd f957 f9bd a35e 7dbe
00000060: 72e5 78bd 78c6 00be f01f 1e3e fd09 eebb
00000070: 2537 323e 7367 033e 0f14 1c3e 29a2 ed3d
00000080: f78c 6a3e 755e 953e f5ee bdbc 4ab5 88bc
00000090: d29a f0bd 746f be3e 87f5 ffbd d12b 48be
000000a0: 4ee8 bcbe 1aa0 b73d 360c b43e 402f d1bd
000000b0: bb2e 983c c31b dcbd 5c9f 2fbe dd7a 913c
000000c0: 1b84 263d 165d 1b3e 56d7 ecbd 088e 093e
000000d0: a3bb 3abe 8a79 16bf 2b4c 92bc fe14 e6bd
000000e0: 4c3b 46be 1227 b03c ac28 753d 3e9b 74bd
000000f0: b10d 36be b09d 193e 63d0 cebd 88d0 e1bd
00000100: 7977 853e d966 303e db2e 2fbe ab73 113e
00000110: 6382 9cbc 6529 da3d 7830 96be 8c00 50bd
00000120: f8d9 c6bd b27c 08be f9b6 02be ef5e ba3e
00000130: 039c 1dbe 3200 ea3b 66f7 64be 57f4 e03d
00000140: cc9a c3bd 760b 4fbe ed7a ab3d edc2 40be
00000150: 5056 693e 2423 efbd 93ad 33be 7fba f43c
00000160: 0317 02bd bdd7 f2bd ff04 b8bd a883 863d
00000170: 7501 a33e 6ee4 4bbe 0980 9abd aee3 eabd
00000180: 5198 9cbe f403 2a3c 7512 bcbe 84d6 31be
00000190: 688e 763c 4f4e c03e 442a a0bd 9aab 16be
000001a0: 55c5 71be 2f54 0238 406f 723e eccd 13bd
000001b0: 63f4 e7bc 1014 ec3a 36e4 2fbe 315d adbc
000001c0: 41d4 12bd 4088 883e d7ca 53be 30a1 313e
000001d0: df45 45bc b71f c7be a438 0a3e 4cd2 75bc
000001e0: d6e9 5abd 0aea 84bd 87d7 c33d 6272 983b
000001f0: b04f c4be 759f 3e3d dee4 553e 3104 28bd
00000200: 7570 d0bd d441 ac3d 6875 953c 1820 19be
00000210: 7cfc fdbd 0008 4c3a 3d14 cabd c562 913e
00000220: ec7f 7abc 7b14 b8bd c4c6 9b3d c940 84be
00000230: 5574 5abd f025 cd3c b8c9 a5bc 55b0 d7be
00000240: e00f 1e3e d810 19bd 640e 3ebe 37e0 bdbe
00000250: e534 b0bd b009 813d 4f90 bebe d38f 24be
00000260: 868b c7be a212 1fbe 79d8 053d 69ed f6bc
00000270: 6f30 babe 7f47 d3be a736 903d dba9 413d
00000280: 5193 07be 1ac6 1f3e 6511 9abd 66e9 b93c
00000290: 7095 473e ec36 11be 19c2 4c3e 5185 32be
000002a0: e17c 513e 6917 03bd ec2b 7abe 3911 18bd
000002b0: 4750 0abd 6146 b1bd e952 8b3c 58b2 0b3e
000002c0: 1d60 98bd 3b24 5dba 9ea5 41be 1c27 093e
000002d0: f53d 4abd 98c5 4cbf aaa7 adbd eea3 0fbe
000002e0: 1d24 64be ee7d 85be f591 a8ba f886 a4bd
000002f0: 33b6 173f 92ac cfbd f05d 4c3e c337 0fbe
00000300: 7ff5 8d3d b467 dfbd 586d 293e 52ed fcba
00000310: d799 8ebe b4ad 623b 80f5 ec3c 12d4 9abe
00000320: ab90 083e 2ead 68be 85a5 03be 1319 5e3d
00000330: ed93 d03d 4f81 a7bc 22cd 6cbe fa53 893b
00000340: f74a f4bd c380 64bd fc15 303e 7c26 71be
00000350: ad75 013e 39f4 0cbe 2264 d33d 0c0f b8bd
00000360: 7569 a0bb ef48 853d cd61 fe3d efda a3be
00000370: 7bcb 363e a2b7 803e 12d4 c13e d489 11be
00000380: 8d2a 3e3d 0468 633c bad3 1fbd 3c25 853e
00000390: 2277 c0bd 25a2 23bc 2749 663e e4ce 433e
000003a0: 2891 9ebe ad6b 0bbe 0d83 dabd 9b3a f6be
000003b0: a92b a0bc 4493 72be cfe8 26bd 8c01 2f3e
000003c0: 5d54 fe3c 2af4 883e bc8c 24be 03ff 14bd
000003d0: 7b45 8f3e 09dc 033e 70f6 9ebd 27b5 d33d
000003e0: 3995 6dbe 5d9f be3b 96e3 0e3e d706 423d
000003f0: 12c0 07bf 9d51 bf3d c046 22be edf4 f2bb

fc2.bias f4 [64]
0.023313705 -0.085610665 0.05920588 0.07809902 0.49302432 -0.21766381 0.08737525 0.0026854575
0.38268867 0.5528568 -0.13311051 0.20618488 0.08051131 -0.116792694 0.038556498 0.11360364
0.1985831 -0.03465125 -0.1632808 0.20820993 0.40724894 0.63848835 -0.20632394 -0.149406
-0.02506715 -0.182671 -0.021324923 -0.054467883 -0.068853304 0.05151349 0.048976243 0.07928326
-0.03561686 0.033000883 0.05909259 -0.09680093 -0.074424036 -0.17604226 0.014937023 -0.012916554
-0.0085532535 0.59537303 0.5036613 -0.025634345 0.124448635 -0.064887546 0.4328468 -0.14436038
0.028577723 0.026947023 -0.05238185 0.53769517 0.11259477 -0.11262117 0.33361188 -0.06345986
-0.24237466 -0.19032566 0.019440623 0.020535566 0.09811905 0.43389952 0.00043887843 0.049115147
00000000: 62fc be3c a554 afbd dd81 723d 61f2 9f3d
00000010: af6d fc3e 43e3 5ebe ccf1 b23d 80fe 2f3b
00000020: c5ef c33e 0688 0d3f 1f4e 08be 2122 533e
00000030: 1de3 a43d 0231 efbd 6bed 1d3d 06a9 e83d
00000040: 5e59 4b3e 78ee 0dbd 1533 27be fc34 553e
00000050: ef82 d03e f973 233f 9546 53be e3fd 18be
00000060: a059 cdbc 1b0e 3bbe 9bb1 aebc b719 5fbd
00000070: f602 8dbd cfff 523d 509b 483d 435f a23d
00000080: fce2 11bd ef2b 073d 120b 723d 913f c6bd
00000090: a16b 98bd 6c44 34be 6aba 743c f49f 53bc
000000a0: f222 0cbc 5e6a 183f f2ef 003f 1eff d1bc
000000b0: edde fe3d c3e3 84bd 199e dd3e 35d3 13be
000000c0: d41b ea3c 01c0 dc3c 5a8e 56bd 64a6 093f
000000d0: 1698 e63d eea5 e6bd 2dcf aa3e 3ef7 81bd
000000e0: 1031 78be bbe4 42be f141 9f3c 343a a83c
000000f0: a4f2 c83d 1428 de3e 4419 e639 f72c 493d

fc3.weight f4 [4, 64]
0.3016222 0.092663795 0.39746222 0.07555278 0.22166073 -0.093416624 0.3328664 -0.39867777
0.19033456 0.17527646 -0.050602376 0.12664974 0.2685029 0.07392145 0.08974781 0.036248386
0.101815 -0.27145696 -0.2373045 0.12539846 0.09420168 0.19772238 -0.2547289 -0.17633015
0.20501396 -0.30050367 -0.26185778 0.38284004 0.3999843 0.028722582 -0.4125149 0.031847123
0.18967077 0.16983108 0.034856185 -0.00016740216 0.07771307 -0.19638805 0.2449803 0.43325284
0.3298797 0.2050324 0.168098 -0.12465674 0.2347941 0.14499237 0.22679847 0.36210147
-0.06328479 0.13565065 0.17391843 0.16402379 0.2480354 -0.021713505 0.12214639 -0.04491392
-0.08659657 -0.35919967 -0.20495875 0.11119396 -0.052640975 0.20605847 0.01178204 0.3221535
0.2900465 -0.005444473 0.5346683 0.047236606 0.16915143 -0.30521435 0.26632172 -0.12988764
0.16600722 0.19801489 0.15101336 0.30388355 0.40636316 0.09825126 0.12990218 -0.03442399
0.17603444 -0.035443645 -0.099936984 0.12489393 0.1481669 0.28082514 -0.064848594 -0.11206058
0.21036641 -0.38036743 -0.14990926 0.57361937 0.18378402 -0.08498009 -0.065798044 0.16253956
0.26434642 0.29693142 0.16317308 -0.05947222 0.17059645 -0.08117209 -0.06514118 0.4358074
0.45563078 0.1909103 0.1164256 0.062468752 0.32102573 -0.23387381 0.20275395 0.682738
-0.008690434 0.1590622 0.20354065 0.06459645 0.17474967 0.15363784 0.20245837 -0.022217078
-0.1410485 -0.08184871 -0.13833351 0.16651863 0.13437364 0.1140871 -0.090879604 0.39771137
-0.0077017043 0.5591161 0.2429732 0.18122378 0.23519012 0.15238793 0.1859967 -0.048492197
0.15340559 0.14241783 -0.08780215 0.59709865 0.42617336 -0.3989452 0.11487555 0.23839276
0.16552979 0.043024544 -0.10580389 0.07604155 0.12654068 0.26114354 -0.26717347 0.08732697
0.38042942 -0.04411001 -0.099588685 -0.2953022 0.28112996 -0.06644319 -0.30903456 0.04978928
0.046332035 0.09154711 0.35290557 0.08517107 0.46799952 -0.28814664 0.16902515 0.17512271
-0.06628525 0.19297048 0.18067716 -0.60767454 0.30831087 0.028409345 0.18071598 0.58393717
0.13772132 0.21537389 0.18085173 0.23442729 0.09988968 0.31995097 0.14495464 0.057829775
-0.26351243 -0.52164596 0.044761803 0.075816095 -0.7117983 0.17301406 -0.3310634 0.2526486
0.05908756 0.84752727 0.11368035 -0.1884711 0.085880265 0.093934074 0.20528103 0.031033468
0.22031395 0.21807513 0.09790237 -0.087766856 0.41192117 0.06154165 0.2312749 0.028998608
0.28004706 -0.28253153 -0.024830053 0.1391539 0.09886927 0.27512133 -0.0759642 0.19526492
0.15061466 -0.3632578 -0.08899212 0.6501623 0.33716905 -0.24601647 -0.2842505 0.15137565
-0.14982334 0.4771536 0.071617894 0.01553345 0.10197527 -0.10062289 0.22257255 0.28616807
-0.13998611 0.17938562 0.19231823 -0.5833402 0.39886266 -0.16749166 0.16546479 -0.33412397
0.024231104 0.112803005 0.40024096 0.19428122 0.091473415 -0.09121562 0.20050065 0.20265253
-0.3379441 -0.123227015 -0.2881061 0.18184398 0.12920175 0.14257678 -0.061412834 0.34040716
00000000: 3a6e 9a3e 84c6 bd3d 2b80 cb3e 6abb 9a3d
00000010: 08fb 623e 3751 bfbd 776d aa3e 7e1f ccbe
00000020: 10e7 423e ac7b 333e 7044 4fbd 78b0 013e
00000030: 3679 893e 2164 973d b3cd b73d 3079 143d
00000040: 6284 d03d 68fc 8abe f3ff 72be 7468 003e
00000050: cfec c03d bc77 4a3e d46b 82be e48f 34be
00000060: 2eef 513e 9edb 99be 3912 86be 9c03 c43e
00000070: beca cc3e 9f4b eb3c 2735 d3be 2172 023d
00000080: 0e39 423e 33e8 2d3e 5cc5 0e3d ad88 2fb9
00000090: 0828 9f3d f319 49be 1edc 7a3e 51d3 dd3e
000000a0: fee5 a83e 03f4 513e e221 2c3e 084c ffbd
000000b0: dd6d 703e e178 143e dc3d 683e 5d65 b93e
000000c0: 759b 81bd 01e8 0a3e ac17 323e daf5 273e
000000d0: fefc 7d3e 85e0 b1bc e327 fa3d a9f7 37bd
000000e0: 8b59 b1bd 05e9 b7be b5e0 51be a9b9 e33d
000000f0: 109e 57bd fe00 533e 7509 413c 4ef1 a43e
00000100: fa80 943e 8d67 b2bb 06e0 083f 2c7b 413d
00000110: 0836 2d3e 0e45 9cbe 525b 883e 4401 05be
00000120: ccfd 293e 6ac4 4a3e 3fa3 1a3e a096 9b3e
00000130: d50e d03e f537 c93d 1405 053e 2b00 0dbd
00000140: 5f42 343e 5b2d 11bd c3ab ccbd 64c8 ff3d
00000150: 10b9 173e 50c8 8f3e 57cf 84bd 0480 e5bd
00000160: 4b6a 573e 85bf c2be d081 19be b8d8 123f
00000170: e131 3c3e 0b0a aebd 20c1 86bd c570 263e
00000180: 6a58 873e 6507 983e d816 273e 2499 73bd
00000190: d6b0 2e3e 8d3d a6bd bd68 85bd 2622 df3e
000001a0: 7048 e93e fd7d 433e 8c70 ee3d 3cdf 7f3d
000001b0: 7c5d a43e 9e7c 6fbe bb9e 4f3e ebc7 2e3f
000001c0: 5262 0ebc 34e1 223e f66c 503e 254b 843d
000001d0: 94f1 323e 3d53 1d3e 3f51 4f3e 9700 b6bc
000001e0: 056f 10be 4ca0 a7bd 4da7 0dbe dc83 2a3e
000001f0: 3e99 093e 7fa6 e93d 161f babd d3a0 cb3e
00000200: 945e fcbb 3c22 0f3f f7cd 783e ba92 393e
00000210: aed5 703e 950b 1c3e eb75 3e3e c19f 46bd
00000220: 5b16 1d3e fbd5 113e 9dd1 b3bd 75db 183f
00000230: 6533 da3e 8c42 ccbe df43 eb3d 3b1d 743e
00000240: a480 293e 813a 303d b6af d8bd acbb 9b3d
00000250: e193 013e 9bb4 853e f6ca 88be 7cd8 b23d
00000260: a5c7 c23e b3ac 34bd 27f5 cbbd da31 97be
00000270: 44f0 8f3e 5e13 88bd c739 9ebe d8ef 4b3d
00000280: a9c6 3d3d 0d7d bb3d 0ab0 b43e 2c6e ae3d
00000290: a29d ef3e f587 93be ee14 2d3e 5e53 333e
000002a0: 90c0 87bd 0e9a 453e 6f03 393e 8f90 1bbf
000002b0: ecda 9d3e b7ba e83c 9c0d 393e e87c 153f
000002c0: d106 0d3e f98a 5c3e 3231 393e b50d 703e
000002d0: f692 cc3d 9dd0 a33e fd6e 143e eade 6c3d
000002e0: 1aeb 86be 978a 05bf 2758 373d 7845 9b3d
000002f0: 6a38 36bf 992a 313e 2481 a9be 285b 813e
00000300: cc05 723d 8cf7 583f 3ed1 e83d 91fe 40be
00000310: fee1 af3d 8260 c03d 3135 523e e639 fe3c
00000320: fb99 613e 164f 5f3e 0a81 c83d 1cbf b3bd
00000330: 55e7 d23e 1913 7c3d 54d3 6c3e 7d8e ed3c
00000340: 5462 8f3e f9a7 90be 6568 cbbc 5c7e 0e3e
00000350: f97b ca3d b4dc 8c3e 1e93 9bbd 87f3 473e
00000360: bb3a 1a3e edfc b9be 8041 b6bd 0971 263f
00000370: 6ca1 ac3e beeb 7bbe 4889 91be 3802 1b3e
00000380: 4a6b 19be 7a4d f43e 67ac 923d 0380 7e3c
00000390: 69d8 d03d 6013 cebd 0fea 633e 9f84 923e
000003a0: 8558 0fbe ddb0 373e 12ef 443e c955 15bf
000003b0: ba37 cc3e ef82 2bbe 9a6f 293e 4c12 abbe
000003c0: 4f80 c63c 4305 e73d 62ec cc3e a8f1 463e
000003d0: 6a56 bb3d 41cf babd 0b50 4d3e 2584 4f3e
000003e0: 0207 adbe 725e fcbd a582 93be 4f35 3a3e
000003f0: 774d 043e a6ff 113e 068c 7bbd d949 ae3e

fc3.bias f4 [4]
0.44671157 0.32345095 0.23384602 0.28326282
00000000: 61b7 e43e 5d9b a53e 5575 6f3e d307 913e
