p3_collab-compet/checkpoint_actor.pth (torch_old, 296362 bytes, 10 tensors)

fc1.weight f4 [256, 24]
00000000: 1cf3 9dbd adbc 453e 054a 433c ea75 3fbd
00000010: 573e 383e 6ee6 27bd ecb4 9dbc aaa8 f53c
00000020: 94c7 713d 99f2 203e 87c4 26bd f319 abbb
00000030: 600f b43d 49b1 b0bd ffd1 113d 8361 263c
00000040: f03f d63d a89b 163e e7e5 0c3d 6a6e 3039
00000050: 192b 26be dc5d 70bb 5bd6 a73b 3b08 94bc
00000060: 582d 933d cc22 fabb b648 14bd 5667 0c3d
00000070: 78d0 64bd bd5a 76bb d822 763d 6cad b53d
00000080: d416 193c 02af 37bb 4e29 6f3d f783 ec3d
00000090: 877d eabd b355 66bc 737b 263c b27f 393d
000000a0: dfa6 0b3d 5960 6abd 9144 fe3c d061 eebc
000000b0: b28b 1ebe 5fc0 4cbd e8b8 34bd 24df c4bd
000000c0: e20f 08bd ff0c c83d 8f0b 2cbc ce16 fb3d
000000d0: 2fac debc b7b9 e23b ed21 bcbc 0c52 673d
000000e0: 08ac d93d 9c7d 613d 04e9 2cbd cc57 963d
000000f0: f861 79bc 7911 a3bc 5048 91bc 012c ab3c
00000100: 3a97 993d b1bf 8e3d fdf0 9bbd 3c5e d93b
00000110: 29c8 8c3d 3774 933d 6fae 5bbd f226 e63d
00000120: 5562 0cbd f608 473d 0a91 ac3d 0036 81bd
00000130: 418a 04bd fd81 6abd d0f1 8d3d 93ab 34bd
00000140: bb59 04bd 0aa4 383d 87a6 d8bc 9030 de39
00000150: f8be ae3b 6b9b 5cbd 42d9 02bd f680 a7bb
00000160: c1be debd 319c 40bd 369a 11bd 4f78 5fbc
00000170: 581e 9d3d 6174 19bd f07b cebd 4557 0fbd
00000180: 1b8d 91bc 3523 893e 447b 9c3c 28e9 de3d
00000190: 297a 1abd e896 e2bd 5f13 d9bc 1092 fc3c
000001a0: 963d 08bd 3800 413e c1ab 6c3c 7688 cebd
000001b0: 0e6d a93c a6a4 b0bd d577 b73c 3eef a5bd
000001c0: ce7d 2cbd fe21 4d3e 4a4e 67bc e927 edbd
000001d0: aa3a e2bb 9771 1bbe 822e 48bb 5d42 efbc
000001e0: 863d 98bd 3cc4 06be d9d3 c23b d2ee f13c
000001f0: 7076 41be 263f 6ebd 5d53 12bc 6a5c 67bd
00000200: 1b2b 433d cfd8 f8bd 02a2 25bd 6566 c4bd
00000210: 7bea 82be 35e5 1ebd 4c4f eb3c b14b 45bd
00000220: f9b7 6c3d 0846 ebbd ef18 8fbb 5172 0f3d
00000230: c499 7cbe a807 8abd 7eac bb3b 6ac6 17bb
00000240: d84e 9fba 23fd 8d3e a3b2 783c b92b 193d
00000250: 3951 e9bd dcfd 65bd 00c5 f7bc 0de4 e93b
00000260: d072 ff3d 9db1 853e 33a4 70bc e160 56bd
00000270: c30c 47bc 4859 dabc 8704 923a e8b4 8c3c
00000280: 6201 293e 0782 033e 80b4 143d 8a93 5bbc
00000290: 6f2d c6bd ad88 a6bd 266a 16bd 1dd6 b63a
000002a0: d3d7 c83c da1c a4bd 46fe e8bc e8af fd3c
000002b0: 1117 503c 93de 46bc ac39 36bd 8722 253d
000002c0: 598c 423c 83c1 b0bd 5a6b 6abd 7b98 0e3e
000002d0: e1e1 e9ba 3227 1cbb 8aca 4dbd aa1b 683e
000002e0: 0827 ea3d 5f97 0dbd 15a9 ae3c 17a3 d43c
000002f0: 45eb b2bd c137 a63d 58d3 fcbc 8b18 4ebc
00000300: cd6e cbbd 0711 f8bc 021d cb3b 44f7 20bd
00000310: 2836 c23d c895 0fbe a179 ce3a 9de9 51bd
00000320: 7b2a b1bb 6890 d6bd d4f2 8ebd c354 69bd
00000330: d346 4f3d 0e1f b6bd 438b 82bd adba b9bc
00000340: 2a3d d6bd 3c00 d2bd 1126 33bd e12f 0f3d
00000350: 65ad a63c 4285 03bc 8a15 abbc 560f 0d3d
00000360: c954 023e 7c58 663e f461 ad3c be4b c23d
00000370: 198c db3c 0ad2 0fbd e19f dbbc de72 d2ba
00000380: ed7f 893c c10d 223e c2ed 47bc 57b9 8b3d
00000390: aed9 e33d 6cf7 8ebd c89b 9b3c 38ca ae3c
000003a0: 61c5 c63c f509 033e 573f 0d3d 383a d7bd
000003b0: 8447 303e 52f8 6c3d a60a 63bc d6e1 81bd
000003c0: e2bd edbc 6f62 acbd 93a8 c73c 82a0 0ebc
000003d0: 5715 613e 9f0f 92bc 0b80 89bd 17e1 ef3c
000003e0: 20cc 3bbd 65f2 e1bd 944f 00bd f33b fa3c
000003f0: 5981 253e 646f f93c 814e 61bc 06cc 823d
-0.07712385 0.19310255 0.011919503 -0.04674331 0.17992531 -0.04099124 -0.01925131 0.029987652
0.059028223 0.15717544 -0.040714767 -0.0052215992 0.08791995 -0.086275645 0.03560066 0.010155085
0.10461414 0.14707816 0.03439894 0.000168258 -0.16227378 -0.0036677038 0.0051219887 -0.01807033
0.07186383 -0.0076335426 -0.036202155 0.034278236 -0.055862874 -0.0037590705 0.060091823 0.08870968
0.009343822 -0.0028027897 0.058389 0.11548608 -0.11449724 -0.014058518 0.0101612685 0.045287795
0.034094688 -0.05722079 0.031038554 -0.029099375 -0.15482977 -0.049988147 -0.044121653 -0.09612873
-0.033218272 0.09768104 -0.010500803 0.12260209 -0.027181713 0.0069191116 -0.022965396 0.05647473
0.106285155 0.05505143 -0.04221441 0.07340965 -0.0152211115 -0.019905793 -0.017734677 0.020895006
0.07499547 0.06970156 -0.07614324 0.006633548 0.06874115 0.071999006 -0.05363315 0.11237897
-0.034273464 0.04859253 0.084261015 -0.06309128 -0.03235841 -0.057252873 0.06930888 -0.04410894
-0.032312136 0.045078315 -0.026446594 0.00042379322 0.005332824 -0.053859156 -0.031945474 -0.005111809
-0.10876227 -0.047023956 -0.035547458 -0.013639524 0.07671803 -0.037464503 -0.10082233 -0.034995336
-0.01776748 0.26784673 0.019101746 0.10884315 -0.037714157 -0.11063939 -0.026498495 0.030831367
-0.033261858 0.1884774 0.014445246 -0.100846216 0.020681884 -0.08625154 0.022396008 -0.081022725
-0.042112164 0.20032498 -0.014117787 -0.11579878 -0.006903966 -0.1518005 -0.00305453 -0.02920645
-0.0743361 -0.13160795 0.0059456644 0.029532824 -0.18892837 -0.05816569 -0.008931008 -0.056484617
0.04764853 -0.12150728 -0.040437706 -0.09589843 -0.2556952 -0.038792808 0.028724335 -0.048167888
0.057792637 -0.11487967 -0.004366986 0.03502113 -0.24668032 -0.067397416 0.00572735 -0.0023159035
-0.0012154235 0.2773219 0.015179309 0.037395213 -0.11392445 -0.056150302 -0.030245304 0.0071377815
0.124730706 0.2611207 -0.014687586 -0.052338485 -0.012149039 -0.0266539 0.0011140265 0.017176107
0.16504434 0.1284257 0.03630495 -0.013401875 -0.096766345 -0.081315376 -0.036722325 0.0013949309
0.024516976 -0.080133155 -0.02844156 0.030967668 0.012700812 -0.012138027 -0.044488594 0.04031613
0.011874282 -0.086306594 -0.057231285 0.13925354 -0.0017843806 -0.0023827073 -0.050241984 0.22666803
0.11433226 -0.034568187 0.021320859 0.025956674 -0.0873628 0.08116103 -0.030862495 -0.012579094
-0.09933243 -0.030281557 0.0061985264 -0.03929831 0.09482986 -0.14021981 0.0015752801 -0.05124818
-0.0054066754 -0.10476762 -0.069799095 -0.0569656 0.050604653 -0.08892642 -0.06374218 -0.022672022
-0.10460885 -0.10253951 -0.043737475 0.03495777 0.020346353 -0.008027377 -0.020884294 0.034438454
0.12727655 0.22494692 0.021164872 0.09487103 0.026800202 -0.03511242 -0.026809635 -0.0016055962
0.016784633 0.15825559 -0.012202682 0.0682246 0.111255035 -0.06980786 0.01899518 0.02133666
0.02426404 0.12796767 0.034484234 -0.10509151 0.17214781 0.057854004 -0.013857519 -0.06341903
-0.029021207 -0.08417212 0.024372375 -0.00870526 0.21980797 -0.017829714 -0.067138754 0.029282136
-0.045848966 -0.11032561 -0.03132589 0.030546164 0.16162623 0.030448623 -0.013751627 0.06386571

fc1.bias f4 [256]
00000000: 643a a6bc fbec 63be 80af e33c c438 0cbe
00000010: b91c b33d a27f bf3c 1314 0fbd 9f3c 85be
00000020: 2744 c2bd cdef 4b3b 88e0 22be 8e4e ddba
00000030: 9942 36be 3146 19be 9f26 8dbd 8920 cbbd
00000040: 2d5d 113e b96f 96be f595 aabe f130 4abd
00000050: 4101 2abd 7a6d 61be affa 25be decb d0be
00000060: 0641 b2bd a389 26bd 23fa b53d 3fad a13d
00000070: c9e1 a2be 01b6 cb3a b248 d2bd 891a 91be
00000080: 7fcd efbd 5487 173e b2cf 1fbe fc98 0cbe
00000090: f487 60be 07c9 993c dc81 2cbd 53ad 87be
000000a0: b77e a2bc b1ce 68bd 4fa4 b3be 61a2 743d
000000b0: f7b3 f9bd 48df 3cbe 7f1a 12be 178c e53d
000000c0: 7fc5 053d 2a3b 32bd e8c2 abbc 7f9b 18bd
000000d0: c99d a5bd c00f 9ebd d0d4 a03b 090b 0b3d
000000e0: 8273 ffbd 301b 8abe 4e2c 0dbe 61c4 91bd
000000f0: 8e8b 40be bce4 5e3d a9df 01be 6109 21be
00000100: 68ab bbbd 06f7 f8bd 57fb 52be 0508 a23c
00000110: 7132 a2be 0f79 44be 33cf 30be 00a6 64be
00000120: 486c 3cbe 2a6e ecbe d233 8cbe a0b8 46bd
00000130: b118 88bc 6f8f 85be a2c5 17be 11f2 a13d
00000140: 069d 56be dec0 1b3b 04d3 e2bd ff90 82bd
00000150: 5461 1fbd babc 47be 6539 94be b5b8 0b3e
00000160: 0d47 753c efa2 c73d 03ef 023e 1f2f a83d
00000170: a485 5dbe 4a7c 25bd abf7 393d 47ab 79bd
00000180: 0238 98be ca1c 67be d9e3 06be 3ec0 1abd
00000190: a678 afbc d582 df3b d997 84be e992 78bd
000001a0: eaeb 993d 5a6f 6a3d 99bb e9bd 4787 5fbd
000001b0: ee11 d1b9 d69d c5bd bd51 38be 113a 51be
000001c0: b193 a3bd 2b56 62be 09a9 94be e347 b13d
000001d0: 483a 3ebd 41cd 993d b35d 0dbe b5f7 85be
000001e0: 29fe 72bd f70b 9d3c 48d5 76bd 731e ba3d
000001f0: c1d2 04be c864 17be 3dec 8e3d 2b92 14be
00000200: 2198 2e3d c072 3dbe c54b 863d b985 86be
00000210: 94ed 4a3d 9a26 3bbe 314d 873d d8d6 cd3d
00000220: e993 35be 1f64 afbe e929 8ebc 980b 743c
00000230: 1cbd 77be 0ecb c33d 28c2 2abe ca4c 293d
00000240: 07a1 1dbd 40ad a9be 5a29 65bd ae1d 2bbc
00000250: 1ca1 97bd 89cb f1bd 11dd 653e da1d 6dbd
00000260: eab4 e03d 3a4c 9fbe 71b8 793d dc00 1cbe
00000270: 2630 1bbe 1baa 00be fdb6 8fbe 8761 ed3d
00000280: 2953 dbbd 33d0 463e 94c6 91be c4b3 2bbe
00000290: 3deb 54be 68a8 f7be 9598 aa3c 3e21 c7bd
000002a0: 896c bfbd 79a8 36be 602b 84bb 962c 93bc
000002b0: d4f0 15bd a123 96be 07a6 12bc 6286 1bbe
000002c0: e9e9 5dbd 1ac1 16be 9049 dbbd fab0 fa3b
000002d0: f6ca af3d 4fe0 11bd a236 50bd 08b7 42be
000002e0: 7340 983d 47e3 873c 614f 5b3c 72df 86be
000002f0: b6f1 1dba f236 1a3d 4458 453d c399 4ebe
00000300: 90e7 c6bd 79ad 24bc 0961 ba3d e4a2 17be
00000310: 6f07 51be 7d3f 41bd 7fd5 49be 14b5 a7be
00000320: 83d2 493e 9993 0ebe 01e5 7b3d e823 fdbd
00000330: 6ab4 12bf 880e 92bd 67d4 be3c bcbc febd
00000340: 2218 f1bc 34ed f2bd 52fd 97be bc55 cd3d
00000350: be8d 44bc a512 41be 9776 a8bd 120b 9d3c
00000360: fdd1 babc 5974 07be d7c6 613c c20b b93d
00000370: 05bc 7b3c b3ec 3bbe 8766 89bd e194 59bd
00000380: 0d37 17be 0e8e cc3c b984 01be 4f2b 7cbe
00000390: d6e3 70be 6293 263e 580f 8ebe fe03 3f3e
000003a0: 9fb1 97bd e867 61bd 0b6f 6abd 2d02 f0bd
000003b0: 0996 c5be ba38 90be e29c fc3c 88f0 2d3d
000003c0: 1d7b d6ba 93c7 3abe 88bc 0cbe 3c9f aabe
000003d0: 7148 4dbe 1733 353d 92a0 7d3c 98f3 43be
000003e0: fb55 603d cf66 823c 45d3 fdbd 7776 1ebe
000003f0: 46a0 463d 4b77 9cbd f0aa 313d 8509 ddbd
-0.020291515 -0.2225837 0.027793646 -0.1369353 0.08745713 0.02337629 -0.034931254 -0.26022813
-0.09485655 0.0031118274 -0.15905964 -0.0016884373 -0.17798842 -0.14968182 -0.06892132 -0.09918315
0.141957 -0.29382113 -0.33317533 -0.04936308 -0.041505102 -0.22014418 -0.1620891 -0.40780538
-0.087038085 -0.040658604 0.088856004 0.07894372 -0.31812885 0.0015541912 -0.10267772 -0.28340557
-0.11709117 0.14797717 -0.15606573 -0.13730234 -0.21926862 0.018772615 -0.04211603 -0.26499423
-0.019835813 -0.05683774 -0.35086295 0.05972517 -0.12192529 -0.1844455 -0.1426792 0.11208361
0.03265905 -0.043513454 -0.020966962 -0.037257668 -0.08086736 -0.07717848 0.0049081817 0.03394607
-0.12473203 -0.26973867 -0.13786432 -0.071175344 -0.18803236 0.054417357 -0.12682976 -0.15726234
-0.091635525 -0.12156491 -0.20603691 0.019779215 -0.3167911 -0.19186805 -0.1726654 -0.22328949
-0.18400681 -0.46177799 -0.27383286 -0.048515916 -0.016613336 -0.26085994 -0.14821485 0.07907499
-0.20958337 0.002376608 -0.11075404 -0.06375312 -0.03891118 -0.19505587 -0.2895004 0.13644679
0.014970553 0.09747874 0.12786488 0.08212113 -0.21633011 -0.040401734 0.04540221 -0.06095436
-0.2973023 -0.22569576 -0.13172854 -0.037780993 -0.021419834 0.0068210163 -0.258971 -0.06068698
0.075157 0.0572351 -0.114127345 -0.05457237 -0.00039876945 -0.096492454 -0.1799993 -0.20432307
-0.07987154 -0.22103183 -0.29035214 0.086562894 -0.0464423 0.07509852 -0.13805275 -0.26165548
-0.059324417 0.019170744 -0.060261995 0.09087839 -0.12971021 -0.14784539 0.069786526 -0.14508884
0.04262555 -0.18500805 0.06557421 -0.26273897 0.04954298 -0.18276444 0.0660652 0.10050744
-0.17732204 -0.34256074 -0.017353969 0.014895342 -0.24193233 0.09560214 -0.16675627 0.041332997
-0.038483646 -0.33139992 -0.05594764 -0.010444088 -0.07403776 -0.118063994 0.22447611 -0.057889797
0.109720066 -0.31112844 0.060966913 -0.15234703 -0.15155086 -0.1256489 -0.28069296 0.115908675
-0.10709221 0.19415359 -0.28471816 -0.16767794 -0.20792861 -0.4837067 0.02082471 -0.09723137
-0.09346873 -0.17837705 -0.004033491 -0.017965596 -0.036606625 -0.29324058 -0.008950717 -0.15187982
-0.054178152 -0.147221 -0.1070739 0.007650492 0.085836336 -0.035614308 -0.050833352 -0.19015133
0.07434168 0.016587866 0.013385625 -0.2634235 -0.00060250924 0.037650056 0.04817988 -0.20175843
-0.09712136 -0.010051125 0.09100539 -0.14808232 -0.20412992 -0.047179688 -0.19710349 -0.3275534
0.1970921 -0.13923492 0.061497692 -0.12360364 -0.5730654 -0.07131678 0.02329464 -0.12438342
-0.029430453 -0.11861649 -0.29685456 0.10026118 -0.011996685 -0.18854769 -0.08225744 0.019170318
-0.022805208 -0.13227977 0.013780317 0.09035446 0.015364652 -0.18352012 -0.06709009 -0.053120498
-0.14767094 0.02497008 -0.12648286 -0.24625896 -0.23524413 0.1626716 -0.2774608 0.18653867
-0.074069254 -0.055030733 -0.057234805 -0.11719165 -0.3859103 -0.2816828 0.030836526 0.042465717
-0.0016363595 -0.18240194 -0.13743794 -0.3332461 -0.20047165 0.044238176 0.0154801775 -0.19135892
0.054769497 0.015918164 -0.12393812 -0.15474878 0.048492692 -0.07639941 0.04337591 -0.10792831

fc2.weight f4 [256, 256]
00000000: 311e 3dbe 2ef9 113d 576c e33d a595 06bd
00000010: dbb2 1ebd 8498 07be 9662 113d 0b02 e23d
00000020: 50b7 433d 4f6f 49be 0d56 8e3c a38f 34bb
00000030: c472 9cbd df42 02be 551b 09be 3dd6 f13a
00000040: 4a29 eebd b2a6 fcbd 6dc4 7b3d 413b 533d
00000050: 8219 f83d 63d5 90bd 77f1 f73d c5d5 86bd
00000060: 8371 35bd ad66 133d 0655 44bd 8215 793d
00000070: f6ef 923d 31ea 0ebe d3aa 97bd 6034 1b3b
00000080: 982e 9f3d d6d0 94bc 70e3 d3bc 3c59 8abc
00000090: 4f02 463c d461 98bd 83c2 e9bc f344 913d
000000a0: 650c 56be 4703 36be 6326 d3bc 27d7 433e
000000b0: 7e52 d1bb 957b f1bd 8d88 613d f405 373e
000000c0: 3ba5 223d 3474 8d3d 991e 0abe 098f 00bd
000000d0: 6523 21bd 8d05 65be 88da 8d3d 1852 d0bc
000000e0: 8b0b b7bc 2cd2 6bbc aad5 163c 4745 3fbc
000000f0: 2322 9ebd 5add 833d 854a 2ebd eb7b af3d
00000100: 337e 77bc 17f3 05be abd9 78bd 4e37 89bd
00000110: 04ee 83bd 77b1 02bd d5e6 adbc 0ef7 423d
00000120: 9d4c cbbd 4fd7 d9bd ad35 84bd bc0f b93d
00000130: 82c6 a9bd d7ba 1a3d 3b18 883d 168b 0d3d
00000140: 39aa 22bd fb91 3ebc f1d1 43bd 73dd 81ba
00000150: 7082 283d 3ffa 043d bc86 90bd d35c d1bc
00000160: db35 ddbd 1196 8f3d 76dd 8b3d 08f2 713d
00000170: 84f0 81bc 9814 80bd 1f32 f43c fb86 43bd
00000180: 0bf3 6dba 0250 19be 9367 74bd 794d ecbd
00000190: 1395 353b 55b7 b2bd 3a5d ffbc 644d 00bd
000001a0: 267a a1bd 2333 1d3d fb42 753d 2137 29be
000001b0: 67d4 d9b9 6d64 d3bd d358 adbd 2c2d 783d
000001c0: bd8f 42bc 65d7 07be c5ee 333d ecf6 dbbd
000001d0: 2919 c93d 0bfc 25bd 3ae2 23be b203 64bd
000001e0: d311 97bd fd9b bcbb 1b04 73bd 67d7 11ba
000001f0: c261 933c efa7 18bc 867c febd 1788 c6bc
00000200: 670f 05be 6b83 84bc 5c18 c53d 5403 8bbd
00000210: 8d2a 9f3d 5e2f 00be 0e73 1ebe f7af 0a3c
00000220: 0a96 d63d 2819 393e e885 48bd 6123 6dbc
00000230: 6f3c a7bd a9aa 46bd 3d61 02be 01fa e73c
00000240: fff2 9b3c e4e4 f53d 99ef 2d3e 81a0 9a3d
00000250: 2074 c5bc 8af4 09bc 215c 713e d170 8cbc
00000260: 5361 c1bd aaa8 dcbd 6de3 ef3b 2574 d6bc
00000270: 5b65 17be 81cb 00bd de23 303c 6665 8d3c
00000280: cd02 273d 6433 983c 975d 0d3c 887f 2cbe
00000290: 399e a83d 7332 28be ec6a 06bc 156a b9bd
000002a0: 7f94 f8bc 7f2c 4bbe d01a dabd cc4f e7bc
000002b0: 23c3 663c b4a9 20bd 958a 1cbe 9b55 3abd
000002c0: c5b7 b3bc 494d 00bd 06d6 32be a75f 873d
000002d0: bfec a1bd e6b6 f1bc e8b2 adbd 8da7 8cbd
000002e0: 2ed7 cbbc 92b6 ccbc 258a 9bbc f04a 5ebd
000002f0: c203 d4bd 304d 0fbd ed39 dbbc 8d61 483c
00000300: 1cd1 83bd 979f 87bd 03bf aebd 3956 15bd
00000310: 2f43 6f3b 99f9 20bd 2585 05bb 3074 893d
00000320: 86a1 d93c d214 4cbe b08b 8f3b f534 be3d
00000330: e26b 25be 96d1 d2bd c1bc 7abc 612a 35bc
00000340: b095 d0bd 661c e3bd cef5 05be b0be a7bb
00000350: bb85 04bc 98f5 37bd 98da d2bc 1264 973c
00000360: 9306 38be 7bd2 0abd 195c fbbd 3cdd 62bd
00000370: 3dea 1dbe 2863 ab3d 9a51 e1bd 2820 2cbe
00000380: 6906 06bd c341 27bd 63e7 51bd 765b 9a3d
00000390: 4dba b2bd d414 9fbd 30fa cabd a096 69ba
000003a0: ccb6 cd3b c39e babd dac6 523d ab9f 24bd
000003b0: e9b8 ebbd c291 1d3d 3ada 5abe 8cd8 6abd
000003c0: b326 46bc e338 51b9 7037 0abe 31c0 56bd
000003d0: cefd 15be cce6 f2bc 8793 37bc 7bdd d53d
000003e0: 31e4 6fbd 02e8 2f3d 1a35 ffbc ccb6 bb3d
000003f0: 027e 66bd 8619 483d 4498 f93c 97c1 efb9
-0.18468548 0.035638027 0.111046486 -0.032857556 -0.03874479 -0.13241774 0.03549441 0.11035546
0.047782242 -0.19671367 0.017375017 -0.0027551434 -0.07639077 -0.12720822 -0.13389333 0.0018450689
-0.11628969 -0.12336482 0.061466623 0.05157018 0.1211424 -0.0707195 0.12106603 -0.06583742
-0.044297706 0.03598659 -0.047932647 0.060811527 0.07174675 -0.13956524 -0.07405629 0.002368234
0.07772559 -0.018165987 -0.025865287 -0.016888253 0.012085511 -0.07440534 -0.028535133 0.07093229
-0.20903166 -0.17774688 -0.02577514 0.19125043 -0.0063880077 -0.117911495 0.055061866 0.17873365
0.039708357 0.069069296 -0.13488235 -0.03138641 -0.039340395 -0.22365399 0.06926447 -0.02542977
-0.022344371 -0.014393371 0.009206215 -0.011674232 -0.07721355 0.06438704 -0.042551536 0.08568557
-0.015105772 -0.13081013 -0.06075446 -0.06700002 -0.06441882 -0.031907525 -0.021228233 0.04759889
-0.09926722 -0.1063677 -0.0645555 0.09036204 -0.082898155 0.03777584 0.066452466 0.03455647
-0.03971312 -0.011631484 -0.047807638 -0.0009907916 0.04114002 0.032465216 -0.070569485 -0.025556957
-0.10801288 0.07011045 0.0682935 0.05906871 -0.015861757 -0.06253928 0.029809056 -0.04773615
-0.0009077049 -0.14971927 -0.05966909 -0.11538214 0.0027707263 -0.08726374 -0.031172384 -0.031323805
-0.07884626 0.038378846 0.05987833 -0.16524936 -0.00041547717 -0.10321889 -0.084642075 0.060589954
-0.01187509 -0.1326576 0.04392888 -0.10740456 0.09819252 -0.04052357 -0.16004267 -0.055667587
-0.073764466 -0.0057559 -0.059330087 -0.00055634085 0.01799095 -0.009317382 -0.12426095 -0.024234815
-0.12994157 -0.016175946 0.09623787 -0.06787744 0.07771788 -0.12518069 -0.15473577 0.008464805
0.104778364 0.18076003 -0.048955828 -0.014473767 -0.08165824 -0.048502598 -0.12732406 0.028317453
0.019036768 0.12006548 0.1698593 0.07550145 -0.024103224 -0.008420119 0.235703 -0.017143639
-0.09442391 -0.107743576 0.0073208124 -0.026178429 -0.14784758 -0.031444076 0.010750739 0.017260265
0.040774155 0.018579192 0.008628271 -0.16845524 0.082333036 -0.16425495 -0.008204203 -0.09053437
-0.030344246 -0.19841193 -0.10649645 -0.028236292 0.01408461 -0.03922434 -0.1528724 -0.045491796
-0.021938214 -0.031323705 -0.17464456 0.06610041 -0.07906484 -0.029506158 -0.08481389 -0.06867895
-0.02488288 -0.0249894 -0.01898677 -0.054270685 -0.10352279 -0.03498572 -0.02676102 0.012230289
-0.06436369 -0.06622236 -0.08532526 -0.03645918 0.003650855 -0.039300535 -0.002037355 0.06711614
0.026566278 -0.19929817 0.0043806657 0.092874445 -0.16154435 -0.102938816 -0.0153037915 -0.011057467
-0.101848006 -0.11089401 -0.13082048 -0.0051191673 -0.008088524 -0.04491195 -0.025739 0.018480334
-0.17971258 -0.033892136 -0.122734256 -0.055386767 -0.15421386 0.08368522 -0.110018924 -0.16809142
-0.032720957 -0.0408342 -0.05124606 0.07536976 -0.0872694 -0.077676445 -0.09911001 -0.00089106895
0.0062778946 -0.09112313 0.05145917 -0.040191334 -0.11509878 0.038469084 -0.2137231 -0.05733542
-0.012094188 -0.00019952985 -0.1349771 -0.05242938 -0.146476 -0.029651068 -0.011204607 0.10442635
-0.05856723 0.04294587 -0.03115325 0.09165725 -0.056272514 0.048852466 0.030468114 -0.00045729868

fc2.bias f4 [256]
00000000: 6cb6 9a3d 00c9 503d ec84 a7bc 239f edbd
00000010: 9bf4 4ebc 8d08 18bd 9374 b4bd e886 343e
00000020: 016a 023d 6fc2 893d c847 cebb 535a ba3c
00000030: e208 283b 123e 52bd 8a08 b8bd 711b c33d
00000040: 659f 08bd 1637 e9bc cc10 653d 1ab0 1dbd
00000050: dbda 6cbd a1eb 493c b38e f13c b236 c13d
00000060: 027a 24bd f381 acbc dcbc 04be b697 1d3c
00000070: 0099 373d d029 b6bc fbad 273c 5a30 a33c
00000080: d4e1 803d 5d7f df3c 57fc 033d 1e69 de3c
00000090: d523 023e e691 19bd 4976 c33b 7761 8abc
000000a0: 2c4d 4b3b 3490 ad3d 374c 9bbd 6188 c2bc
000000b0: e12d 423d d21a f13c 826e f2bc bded a7bc
000000c0: ada1 013d b506 823d 10f1 b4bb 9dbd 39bc
000000d0: 0c07 9e3b c771 9f3c 876c 783c 62cb 40bc
000000e0: 6298 2abd f7a9 f63c 3511 85bd 6cc3 4fbd
000000f0: 9db6 babc 3c82 2abd 502d 65bd de19 c4bd
00000100: 08a7 01be 1d2a 93bd 1c51 90bd d8cc e0bd
00000110: 5a67 1cbc abed 723c f9fd 3fbd 32d1 53bc
00000120: 1087 42bc 1264 0f3d b8ae 6f3d db25 7bbd
00000130: cc76 8b3d 9998 a63b e50a aabd 77fc 3bbb
00000140: c8cd 29bc b741 c33c d8ee bebc b39b 303c
00000150: dc09 c43c c82b 573d c85c 46bc dc49 fb3c
00000160: 0723 a8bd 31e6 7abd 95c4 90bb 4d50 78bd
00000170: 09b5 ec3d 03f9 ebbc b9ee e13c 56ef 913d
00000180: 6b51 91bc d05d 67bd 168f 9f3c df7c 8dbd
00000190: ccba 5ebd e934 ddbd a6dd a03c b319 24be
000001a0: 8d04 17bd c2d2 423c 5de1 ec3d ba5a b8bc
000001b0: e128 12bd a802 d3bc ec6e 98bc 59b0 20bd
000001c0: 3236 19bd 5f91 a43d 99cd 71bd 04ee 5cbc
000001d0: ba72 753a dddd 32bc 2035 8abc 74fa b93d
000001e0: faa5 80bc f503 093c 60e4 193b edb0 e23d
000001f0: 5b25 95bd ec9c ce3d 2146 933d ab82 33be
00000200: 9729 d4bc f27c 9e3d a8e0 80bd ab57 183d
00000210: 9015 6abd 4047 6bbc 0638 98bc aae8 0ebc
00000220: 40a0 353d 7f3d a2bd eec6 4bbd a6f2 4c3d
00000230: 0bcc 9a3b 88e5 913d 217d 78bd 482d b0bd
00000240: 3a26 eb3d 9e3c a3bd ac73 f7bd e67a 3c3d
00000250: da13 2cbd 8814 e13c c52f 47be f06a 243d
00000260: ec23 8f3c 3321 dcb9 d42b 573c 94a5 3e3d
00000270: 428e 0cbd b23f f83c 3f96 45bc 671d f03c
00000280: 9a43 9139 36c3 02bc a855 7f3b 86d3 823d
00000290: ca6d f53c 7ef3 8b3c 4923 343d 0030 a3bc
000002a0: 55c0 2dbc deee 42bb 2f6d a33c b613 59bd
000002b0: cbab 0b3c 3505 c0bc e493 90bd 1085 81bd
000002c0: def8 43be b4d0 dc3c 7554 033c 791b 4fbc
000002d0: 0834 023c 9617 f23c 0b11 e33d 4023 403c
000002e0: b262 51bd e68c 8abd daed 8bbb eb6d 73bc
000002f0: f5b1 eebd c3f8 98bc 8438 e73d 5b87 bf3c
00000300: 2485 b33c b326 4d3d f09f e7bd cb46 9cbd
00000310: 7f2c a9bd e594 a8bd a5a0 a13c 1556 833b
00000320: c748 c83d 4a90 d63c 60dc 9bbc 4692 8c3c
00000330: 06ba e4bc 6e4d 253d f982 d6bd dfa1 bf3c
00000340: 7b60 8abc ffd7 7cbd 487d acbd 473b 02bd
00000350: 60a9 013d c593 2ebe 138d 3fbd 4974 e23b
00000360: c913 bcbb d2dd 66bd 15b9 f2bc a598 2f3d
00000370: 76a2 8abc 258b 86bc 408a 703d 5925 5fbd
00000380: dd8d 233d 972a 4f3d 78e5 8abc 3842 963d
00000390: 95a3 cdbd 8fcc 56bd eb36 0ebb edd5 883d
000003a0: 959b fd3d 6f89 1bbd 4004 09bd b776 90bd
000003b0: 681f d8bc 30d9 443c 9ffa 8a3b df67 37bd
000003c0: 80c3 fbbd 898d 413d 0fe9 133d d704 06bc
000003d0: c2fc 61bd 2eb5 353d 84b7 103d 30e1 c9bc
000003e0: 58bc 9b3c f9b3 cdbc f90f 0ebd 8614 3abd
000003f0: 512d b73c f5bc 333d 2279 babc 5a8c 013d
0.075543255 0.05097294 -0.020449124 -0.116026185 -0.012631561 -0.03711753 -0.08811297 0.17629588
0.031839374 0.067265384 -0.006295178 0.022748148 0.002564006 -0.051328726 -0.08986004 0.095267184
-0.033355135 -0.02846865 0.055924222 -0.03849802 -0.057825904 0.012324245 0.02948699 0.094342604
-0.04015542 -0.021058058 -0.12962669 0.00961869 0.044823647 -0.022236735 0.010234351 0.019920517
0.06293073 0.027282411 0.032223072 0.027149733 0.12708981 -0.037492655 0.0059650284 -0.016892178
0.003102134 0.0847477 -0.07582896 -0.023746671 0.047407035 0.029431734 -0.02959371 -0.020499105
0.031648327 0.063489355 -0.005521901 -0.011336711 0.0048226174 0.019463433 0.015162594 -0.01176724
-0.04164923 0.030110342 -0.064974226 -0.05072348 -0.022792155 -0.041628107 -0.055951416 -0.09575246
-0.12661374 -0.07185767 -0.070467204 -0.10976571 -0.009546125 0.014827172 -0.046873067 -0.012928294
-0.011873022 0.035007544 0.058516234 -0.0613154 0.06809768 0.005084109 -0.08302859 -0.0028684416
-0.0103640035 0.023835046 -0.023307249 0.010779309 0.023930483 0.052531987 -0.012107082 0.030674867
-0.08209806 -0.061254684 -0.0044179657 -0.060623456 0.11557967 -0.028805261 0.027579652 0.07125728
-0.017739018 -0.05648595 0.019477408 -0.06908583 -0.054377362 -0.108011074 0.01963694 -0.16025428
-0.036869574 0.011891069 0.11566422 -0.0225042 -0.035683516 -0.025758103 -0.01860758 -0.03923068
-0.0374052 0.0803554 -0.059033964 -0.013484482 0.0009363104 -0.010917154 -0.016871035 0.09080973
-0.015704144 0.00836276 0.002348207 0.11068902 -0.072825156 0.10088524 0.071911104 -0.17530315
-0.025898738 0.07738675 -0.0629285 0.03719298 -0.05714947 -0.014360249 -0.018581402 -0.008722464
0.04434228 -0.07921886 -0.04975026 0.050036095 0.004724031 0.07123858 -0.060666207 -0.08602387
0.114819005 -0.07970546 -0.120826095 0.046015643 -0.04201112 0.02747561 -0.19451816 0.040141046
0.017473184 -0.00041986405 0.013133008 0.046544626 -0.034315355 0.03030381 -0.012059747 0.029310895
0.00027706922 -0.007981112 0.0038960967 0.06388001 0.029959578 0.01708388 0.043978963 -0.01992035
-0.010604938 -0.0029744427 0.019949524 -0.052997313 0.008524845 -0.023439983 -0.07059458 -0.06324208
-0.19137904 0.026954986 0.008015742 -0.012640827 0.0079469755 0.029552262 0.11087235 0.011727154
-0.051119514 -0.067651555 -0.0042702975 -0.014857749 -0.11655036 -0.018673306 0.112900764 0.023379972
0.021914072 0.050085735 -0.113098025 -0.0763069 -0.0826044 -0.082315244 0.019729922 0.0040080645
0.09779506 0.02619185 -0.019025981 0.017159592 -0.027920734 0.040357046 -0.104742 0.023392616
-0.016891709 -0.061729427 -0.08422333 -0.031794813 0.03165567 -0.17048557 -0.0467654 0.006910835
-0.0057396633 -0.056363888 -0.02962927 0.042870183 -0.01692317 -0.016423771 0.058725595 -0.054478977
0.039930213 0.050577726 -0.016955122 0.07336849 -0.100409664 -0.052441176 -0.0021700214 0.06681428
0.123831905 -0.037972864 -0.03345132 -0.07053893 -0.026382163 0.012014672 0.004241302 -0.044776794
-0.12293148 0.04725412 0.036110934 -0.008179865 -0.05517269 0.04436224 0.035331264 -0.02464351
0.019010708 -0.025110232 -0.0346832 -0.04542973 0.022360476 0.043881375 -0.022762839 0.03162799

fc3.weight f4 [2, 256]
00000000: b882 753e 176c 1cbe 195d 46bd 68f3 8c3e
00000010: 6d82 3b3e 1fae a33e d01a dd3e d0ac 99bd
00000020: 1138 953d 193b 0cbe a4e3 87be 02bb 13be
00000030: bda9 903d ff38 df3e 93d0 5dbd a776 dbbb
00000040: 2fd5 003e 9d8d 253d 4f43 9a3e 6864 2cbe
00000050: a6e1 3cbd b170 bd3e 1de2 b73c d7f2 a13d
00000060: 4ecd 06be df2b 403e c8e6 383e 9e12 35be
00000070: 37f9 5b3e 9986 863e e174 0e3e 2438 5e3e
00000080: f5c2 cc3d 2dc5 0fbe fb86 51be c6cb c33d
00000090: 69f8 f0be 43b1 733e b832 053f 7c92 8e3e
000000a0: 38ba c8bd bb5f 94bd 0fcf fd3e d28a e53e
000000b0: 6a5b 24be 8a93 30be 553c 73be 9e08 27bd
000000c0: 2d01 2b3e 225c 81be 0a26 87be 8d21 9d3d
000000d0: a13c cc3d 4af1 253e 02de 37be 2ecd 063e
000000e0: 2a5b ca3e a3b0 883e b5bd fcbd 91a1 2f3f
000000f0: ae1f d0bd ef37 a83c c742 2fbd 1750 3d3e
00000100: c0df ee3e 65b6 52bd 356f 47bd db26 9e3e
00000110: 532a 5a3d a982 193e 2ae5 d43e 4501 80be
00000120: c4e7 be3d 2921 bd3e 5284 28be eb9b fbbd
00000130: 848a 09be f8c6 babc 62a1 6d3d 07db 633e
00000140: 78bb 193e 1af6 503e f0ee d53e 1e6c fd3d
00000150: d9cc 9e3e 4697 16be 04d5 8b3e a6e8 e8bd
00000160: e274 d2bd b926 4dbe 4458 823e 76e0 193f
00000170: 6c53 03be cdc2 c5bd e45f cc3d 64d6 4abe
00000180: c27b 733f 77a4 e13d ab30 903e 516b e03e
00000190: 361c 423e 1831 173f 3c9e f2bd d864 6c3e
000001a0: a1c9 553e 4816 79be ca19 6bbd 0573 8dbc
000001b0: 1dd2 243f 2f45 0c3e 3e43 aa3e 4474 193f
000001c0: 270a 593e 33bc 31be f88c 893e d55d 7e3e
000001d0: 0ff0 03be 041d 383e 65c3 afbd fc7d e6bd
000001e0: 229d 773e bacb 37be 08ab 733e e855 b73a
000001f0: 133f 9b3f f3a1 29be 8a5c 36be 63cc da3e
00000200: b39a 833e 3b9c 78be b53c ae3d 5ec2 93bc
00000210: afe6 413f 9ff6 be3e 5dc3 953d ff0b 2fbe
00000220: 1f47 c63d 8aa1 b23e 35f3 18be f42d a23e
00000230: c314 203e 8605 4b3e 1e3a 823e 79c7 88bc
00000240: f80a c5bd 9925 943e ed6d 773e 44b9 0bbe
00000250: 1615 043f 33b3 8b3c 4d59 8d3f c326 073f
00000260: dac7 2f3e 6115 163e 734c dfbd 9558 4a3e
00000270: f14f 1a3f 7383 bbbd 0727 823e 13f8 46be
00000280: 0792 d43e ad0d a63e ff61 543e 4c95 9abe
00000290: dc2b f6bb a3a6 173d f374 89be 4443 243f
000002a0: 8d20 13be 5c9b 383c 9881 423d 3999 c83c
000002b0: fedc 043e 2006 5a3d a6df c43e 4d36 56be
000002c0: 96ea 8cbe bdd5 89bd bf33 11be d25e 0ebe
000002d0: ff13 363e f7da e93d d8c3 5fbe 05e4 98bd
000002e0: 0b27 603e 5713 ff3d 876a ce3d 94aa ebbd
000002f0: a1ae 763f fdff 563e b047 4cbe 3d76 23be
00000300: 0906 a3bd 3010 a63e a736 533f 8d57 9d3e
00000310: 4a08 7f3e 4c5d fb3e 947b b13d 07f0 223e
00000320: d559 133e cbbd ac3d 82b5 efbd bd97 65be
00000330: ecda 01be 1b22 173e 94f4 883e 8952 9b3e
00000340: 3f0d ab3e 8395 9e3e d9d2 863d face 583e
00000350: 3810 babd 6fe4 2e3f c308 cb3e 39e3 753c
00000360: 2b70 4d3e 8aa4 563b 387a bf3d 18fd c03d
00000370: f991 bc3d 59da c3bc d5e2 93bd d91a ee3d
00000380: fcbd 01be e646 f23d 15a7 233e cdbf 6dbd
00000390: 1bfc a43e 4b02 8d3d 5962 25be ac23 d7bd
000003a0: 07b3 31be 9313 28be b8c9 203e df4a 14be
000003b0: d8d1 833e b3c0 153e 4e46 5a3e 0477 12be
000003c0: 0f9a 2a3f 6f12 16bd c8c7 5abe ed6b eabd
000003d0: 02df 583f df19 4bbe 6af2 1abe b31b 913e
000003e0: 8d7c 7cbe 839e 583e e044 e93e 4ccd 7e3e
000003f0: 6960 9d3e db7a ff3d b498 e93e d8de 13be
0.23975646 -0.15275608 -0.04842863 0.27529454 0.18311472 0.3196878 0.4318452 -0.075036645
0.072860844 -0.13694419 -0.26540864 -0.14426807 0.07063625 0.43598172 -0.05415399 -0.006697494
0.12581323 0.040418256 0.30129477 -0.16835177 -0.046113633 0.3700004 0.022446686 0.07907646
-0.13164255 0.18766735 0.18056786 -0.17682883 0.21481787 0.26274565 0.13911773 0.21701103
0.099981226 -0.1404006 -0.20461647 0.09560351 -0.47064522 0.23798089 0.52030516 0.27846134
-0.098011434 -0.07244822 0.49572036 0.44832474 -0.16050497 -0.17243782 -0.23753484 -0.040779702
0.16699667 -0.25265604 -0.2639621 0.07672415 0.099725015 0.16205326 -0.17955783 0.13164207
0.39522678 0.26697263 -0.12340871 0.68605906 -0.101622924 0.020534484 -0.042788293 0.18487583
0.46655083 -0.051443476 -0.04869004 0.3088902 0.05326302 0.14991249 0.41581088 -0.2500097
0.093215495 0.36939362 -0.16456726 -0.12285598 -0.13431746 -0.022799954 0.058015235 0.22251521
0.1501292 0.2040638 0.41783857 0.12374137 0.3101566 -0.14706144 0.27310956 -0.11372499
-0.102762 -0.20034303 0.25457966 0.60108125 -0.12824792 -0.09656296 0.09979227 -0.19808346
0.95110714 0.11017697 0.2816213 0.43831876 0.18956074 0.59059286 -0.11846587 0.23085344
0.20877697 -0.24324906 -0.05739764 -0.01726676 0.6438311 0.13698266 0.33254427 0.5994303
0.21195279 -0.17356949 0.26865363 0.24840482 -0.12884544 0.17979819 -0.085821904 -0.11254498
0.24181035 -0.1794881 0.23795712 0.0013987394 1.2128624 -0.16565685 -0.17808738 0.4273406
0.25703964 -0.24278347 0.08507673 -0.018037017 0.7574262 0.37297532 0.07312653 -0.1709442
0.09681534 0.3488887 -0.14936526 0.31675684 0.1563292 0.19826326 0.25434965 -0.016696678
-0.09621233 0.28934935 0.24163027 -0.13644892 0.51594675 0.017053222 1.1042877 0.5279352
0.17166081 0.14656593 -0.109032534 0.19760354 0.6027823 -0.09155931 0.254204 -0.1943057
0.4151766 0.3243231 0.20740508 -0.3019203 -0.0075125527 0.03702415 -0.26847038 0.6416514
-0.14367886 0.011267509 0.04748687 0.024487125 0.12974927 0.053228498 0.3845188 -0.20919152
-0.27522725 -0.067302205 -0.14179896 -0.13903359 0.17781065 0.11418717 -0.21852052 -0.07465366
0.21889894 0.12454861 0.10078912 -0.115071446 0.9636021 0.2099609 -0.19949222 -0.15963073
-0.079601355 0.32434225 0.8250527 0.30730858 0.24905506 0.49094617 0.08666149 0.15911876
0.14389737 0.08434638 -0.11704542 -0.22421165 -0.12681168 0.14759104 0.26749098 0.30336407
0.33408543 0.30973443 0.06583185 0.21172705 -0.09085125 0.6831731 0.39655122 0.015007787
0.2006232 0.0032751882 0.09349483 0.09423274 0.092075296 -0.023907827 -0.07220999 0.116262145
-0.1267013 0.11829929 0.15981705 -0.058044244 0.3222359 0.06885203 -0.16150798 -0.10504851
-0.1735345 -0.16413717 0.1570195 -0.14481686 0.25746036 0.1462429 0.21315882 -0.14303213
0.66641325 -0.036638673 -0.21365273 -0.114463665 0.8471528 -0.19834088 -0.15131536 0.28341445
-0.24656887 0.21154217 0.4556036 0.24883002 0.30737618 0.12474605 0.45624316 -0.14440477

fc3.bias f4 [2]
00000000: 5b91 dabd 13df 86bd
-0.106722556 -0.06585517

bn1.weight f4 [256]
00000000: f179 303f 05ae 7b3f 6ffa 023f a0b7 ab3e
00000010: 256e db3e 3130 633f a64f 443f e23e f03e
00000020: 2ebc 213f 0fd1 873e 02a2 1e3f 6447 623f
00000030: 93a0 1c3f 48d5 753f 6844 833e 7ecb 683f
00000040: 1032 143f 3bf8 753e e1a1 a03e ab1e 873f
00000050: fdfa 0f3f 1a72 f53e 3591 0b3f c9ba 1f3f
00000060: b295 173f fd45 233f 71b6 143f 0639 1e3f
00000070: 8ea7 9d3e 9def 593f 7c73 ae3e e6e5 313f
00000080: 858a 533f 23f1 463f 8cdf 6c3f a4c3 253f
00000090: 640b a23f fc59 e43e fcd6 6a3f 5e81 c43e
000000a0: 99d1 d13e b8e7 dc3e 3402 423f f308 e33e
000000b0: 1d13 c23e b259 243f 3950 483f bae8 4e3f
000000c0: 9f84 ce3e 7674 533f c88d d23e 2116 ab3e
000000d0: 83e9 5e3f 460d 233f 165b 4f3f 0eab 563f
000000e0: 7c4f 663f dfad 393f 64b8 3d3f 8989 6b3f
000000f0: 6751 173f 08fb d23e 6a4b d23e 9803 483f
00000100: 2c71 5a3f 66d2 953e d54a 203f bbf2 8a3f
00000110: 89fc 823f 4d44 343f cd12 453f d741 923e
00000120: 1d42 6b3f 214c e43e bb56 863f bd69 223f
00000130: 733a 073f a1ab 523f ec0e 1e3f aae5 9b3f
00000140: 9b55 663f 0ae9 653f 78e4 623f 71ba 173f
00000150: 03e1 b93e 623d 893f 7545 773f 2ab7 723f
00000160: cdc1 793f c30d 9c3e 5abb eb3e f478 d33e
00000170: 6e99 873e 2520 2f3f 0e7d 1a3f 14f5 e23e
00000180: 4523 d13e 43d6 4f3f 20b6 893f acc2 893f
00000190: a985 563f 8aba af3e e945 c63e 7a2e c03e
000001a0: 569f 993e 7ba4 9c3f 8ee1 0b3f bb57 6e3f
000001b0: 8237 053f 4f42 903f 4060 2e3f e4b6 7c3f
000001c0: 3f3b 7f3f 2aec 263f c27d 8a3e f549 2c3f
000001d0: 80bd f13e 5fef 4d3f b31f a43e b03a 313f
000001e0: db07 853e 4f8a 223f f4a8 3e3f 426d ee3e
000001f0: ca09 893f 6300 bc3e 7498 283f 4ba1 473f
00000200: e3ea cf3e 14c2 993f a350 da3e 1e68 5f3f
00000210: aaa8 d73e 7320 0d3f 71f8 143f 1528 123f
00000220: 177a 813f 598f 9a3e f8aa 2c3f 6418 983e
00000230: 3a34 6d3f 509e d73e f38a 893f 4aa6 7a3f
00000240: e82a 843f e26e 3c3f 15e3 8b3f 7c48 3c3f
00000250: a10b 5c3f a068 5b3f 483a ab3e 877e 6f3f
00000260: a13e 213f ef7b 223f 0bb9 903e 9376 0a3f
00000270: 5f11 603f 30d3 733f 96c2 4f3f b72b bf3e
00000280: 02bb 953f d07f 843f 4bd3 453f 475a 503f
00000290: 4620 713f 17da 253f 3079 cd3e 0e18 283f
000002a0: 3754 633f a71c ef3e 8528 773f 0acd 933f
000002b0: bf04 833f 29c0 403f 6046 183f bcae ff3e
000002c0: 1906 023f 4709 053f b242 4c3f f2ac 823f
000002d0: 208c 4e3f b41b 633f dfd9 8c3f 36fc 813f
000002e0: 940b 96be d504 f33e beef 903f 19f5 dc3e
000002f0: 2863 873f 0fbd 633f 4810 693f 0eea 483f
00000300: e435 e13e 0b23 633f d57a cd3e 031d f73e
00000310: 5eeb b03e 6551 0f3f 05c8 0f3f 567e a73e
00000320: c1ab 043f a2dc 3b3f 19a2 ef3e 9165 353f
00000330: cabd e23e bb4d b03e 589b 4c3f 2344 643f
00000340: 7a51 903e 0c8d 9a3e d419 293f d9a7 8a3f
00000350: cbb6 7e3f d622 063f 6c83 ae3e 5f72 523f
00000360: 683d 313f b769 353f 0b9e ff3e 50e3 b13f
00000370: 1732 633f eada 653f 6770 103f 73ab f93e
00000380: 2082 323f e281 e63e b824 2f3f 181f c63e
00000390: daea 833e 3a05 703f de95 043f ab36 203f
000003a0: 5931 393f 152b 093f 6733 b73e 4064 783f
000003b0: a6cc 193f ad2e 613f 6150 2b3f 76e7 5a3f
000003c0: 0a6b 863f 4491 d03e f85d 2d3f dde3 5f3f
000003d0: cc5d bd3e 0dbc 103f c338 f93e 3ceb 883f
000003e0: 789a 573f 9112 2c3e 5ef5 413f 06c1 2a3f
000003f0: f49d a73e df31 5f3e c57e 603f 15b8 963f
0.6893607 0.9831241 0.5116338 0.33538532 0.4285747 0.8874541 0.76684034 0.46922976
0.63177764 0.26526687 0.61965954 0.88390183 0.61182517 0.96028566 0.25638127 0.90935504
0.5788889 0.24020474 0.31373504 1.0556234 0.5624235 0.47938615 0.54518443 0.62394387
0.5921279 0.6377867 0.58090883 0.6180576 0.30791897 0.85131246 0.34072483 0.6949142
0.8263324 0.77711695 0.92528605 0.6475165 1.2659726 0.44599903 0.9173429 0.3837995
0.40980223 0.43145537 0.7578461 0.44342765 0.37905207 0.64199364 0.7824741 0.8082386
0.40335557 0.8259958 0.41123796 0.3341532 0.8707506 0.6369213 0.8099836 0.8385476
0.89965034 0.7253093 0.7410948 0.92006737 0.59108585 0.41207147 0.4107316 0.78130484
0.85328937 0.29262084 0.62614185 1.0855325 1.0233318 0.7041672 0.7698181 0.28565857
0.91897756 0.44589332 1.0495218 0.63442594 0.5282356 0.82293135 0.6174152 1.2179463
0.89974374 0.89808714 0.88629866 0.5926886 0.36304483 1.0721858 0.9659036 0.94810736
0.9756134 0.3047925 0.46041375 0.41303217 0.26484245 0.68408424 0.6034707 0.44327605
0.4084722 0.8118631 1.0758705 1.0762534 0.837977 0.34322006 0.38725212 0.3753546
0.30004376 1.2237695 0.54641044 0.93102616 0.52037823 1.1270236 0.68115616 0.9871657
0.9969978 0.6520411 0.2704907 0.6730035 0.4721489 0.80443376 0.32055435 0.69230175
0.25982556 0.6349229 0.7447655 0.46567732 1.0706112 0.36719045 0.65857625 0.7798049
0.40608892 1.2012353 0.42639646 0.87268245 0.42120868 0.5512764 0.5819159 0.5709241
1.0115384 0.3018749 0.6744838 0.2970611 0.92657816 0.4211297 1.0745529 0.97909987
1.0325594 0.73606694 1.0928675 0.735481 0.85955244 0.8570652 0.33442903 0.9355244
0.6298619 0.6347036 0.28266177 0.5408718 0.87526506 0.9524412 0.8115629 0.3733804
1.1697695 1.0351505 0.7727553 0.8138775 0.9418987 0.64785904 0.4013152 0.65661705
0.88800377 0.46701548 0.965462 1.1546948 1.0235823 0.75293213 0.59482384 0.49938
0.50790554 0.5196728 0.7978927 1.0209029 0.80682564 0.88714147 1.1003989 1.0155094
-0.29305708 0.47464624 1.1323164 0.43155745 1.0577135 0.88960356 0.9104047 0.7848214
0.43986428 0.88725346 0.40132776 0.48264322 0.3455457 0.55983573 0.5616458 0.32713574
0.51824576 0.73383534 0.46803358 0.70858103 0.44285423 0.34434304 0.79924536 0.8916647
0.28187162 0.30185735 0.66055036 1.0832473 0.9949767 0.52396905 0.34084642 0.82205766
0.69234324 0.70864433 0.49925265 1.3897495 0.88748306 0.8978716 0.5642151 0.48763618
0.69729805 0.45020968 0.68415403 0.38695598 0.25765115 0.93757975 0.5179118 0.62583417
0.72340924 0.5358136 0.35781404 0.9702797 0.60077894 0.87961847 0.66919523 0.8550943
1.0501416 0.4073583 0.6772151 0.87457067 0.36985624 0.5653694 0.48676118 1.0696788
0.84220076 0.16803958 0.75765026 0.6670078 0.32737696 0.21796368 0.87693435 1.1774927

bn1.bias f4 [256]
00000000: 29b4 a43d 68b7 65bd b439 2fbe 811b de3d
00000010: f4ba 8e3d 7667 e63d 418c 853d 1b2c b9bd
00000020: 4e5b c3bd bc8c 0f3d ee59 b8bd 2ac5 a4bd
00000030: 5b27 bf3d b842 acbc 67c5 703d 5dee ec3d
00000040: 164d 1639 28ae 103e 672e 33bb 1781 a8bd
00000050: bdc7 0fbe cac8 a93d 5eec b5bb dd03 a03d
00000060: 08f7 0c3d ccd2 a1bd cd11 ea3a f889 563d
00000070: 5801 b4bd 8434 8a3d c294 8cbd 1a6b 96bd
00000080: b7f5 233e 50f2 373d 7f9b cbbc dbd1 cdbd
00000090: c773 7e3d b5d4 b13d 034b a03d c291 9ebd
000000a0: 852d ab3d a348 9d3d 14d1 7cbc 503d 41be
000000b0: 77e4 17bb e5be 0a3e 4685 8a3d c4f2 14b9
000000c0: 4549 553e a196 70bd 59b5 9f3d bc7d d93c
000000d0: 25b8 373d 3e90 0d3e 221d e43c 54a7 833d
000000e0: ae27 dc3d 5f0c 33bd 103c c13a 437c 413d
000000f0: f445 b33d a9c0 8fbd 2eff 6c3c 415c 0fbe
00000100: 79bd f5bc 21a8 a03d f976 493d a7de f63d
00000110: 0811 c93d c31f cd3c 97e3 683c bab1 e9bd
00000120: 65cb 7b3d 4f56 04be 4c08 283d ac5b 4fbd
00000130: 3044 31bd fb64 583d 9da4 b63b 9455 fc3c
00000140: e411 97bc 7c5d 16bd 21a9 f73c 92ed 9a3c
00000150: 0c7d f8bd 05a5 a6bc f6e5 be3d 3bcd 8abd
00000160: 56f6 9b3d c384 f0bd 6405 8dbd 289f c139
00000170: 762f 013d 0d90 10bd 1a20 963c 7b6e de3c
00000180: a952 47bc e1e3 ba3d 2a03 aa3d c7d4 473e
00000190: 6ce2 02be dbf5 043e 13d3 22bc 71a3 a1bc
000001a0: 893b 053e b35b f73c d830 bf3d 0f6e 053e
000001b0: 9050 423d cf86 b8bb 1b44 b83d ebbc 953d
000001c0: d5d7 c0bd 444c 873c 7f69 4ebd c076 c83d
000001d0: 8d15 f2bc 868e 78bd d4d4 a2bc 3e0d f13d
000001e0: 5e94 333d 7972 f8bc c38d 22bc a2b1 93bd
000001f0: 3bfb 28bd 4189 3f3d 4363 e03d a6d9 a9bd
00000200: e4a6 a53d c5b3 50bc ab9f ec3d b07c 8fbd
00000210: 2be2 a8bc 0a3d a7bb d524 c23d 2cc2 583d
00000220: 44c9 033e f5d1 c8bd 10f8 013e 90c6 1bbd
00000230: d7aa e53d de48 d53d 3543 143e 8f20 4cbd
00000240: a2e0 c9bd da37 49be e7e9 d5bd bd71 1cbe
00000250: 5c9c 103e 962b 6d3d 8f85 86bd fcb6 213d
00000260: 177d d23d 2445 853c 4936 1a3d a8bd 9ebd
00000270: 7570 ac3d 2f6f 06bd 144c 143d 4ccb 9a3d
00000280: f455 0f3d 4672 fc3d 503f 1abd 204c d13c
00000290: bdc8 76bd b6c0 ca3d 78c8 ec3c 6928 bcbd
000002a0: 07fc 9a3d c8fe 843d f9d7 f7bc 06f7 a13d
000002b0: 8af0 a03d c49f 0bbd 42ef 1bbd ef92 c83d
000002c0: 4566 173d 0965 743d 4d74 433d b9eb 51bd
000002d0: 4f72 ac3d a0b9 cf3d 787f 8fbc a1de 873d
000002e0: 76dc cf3d 49d6 883d 9a75 8f3b 6ccd 2e3c
000002f0: 6a96 be3d 7de3 ff3d d85b 4bbc 3e73 00be
00000300: 405d 283d 8a39 c73c e112 d63d aaf3 3c3d
00000310: 7ef9 22bd 8765 003d 753d 19be c3b3 a83c
00000320: e620 2f3d d3d3 2bbc 9343 8bbd 1f38 b5bd
00000330: 98c9 d6bc f561 bdba a8cf a63d 9c41 8c3d
00000340: c1a3 9a3d ba47 3c3e 0e88 123d 576c 7a3d
00000350: f5c5 643d 082f 473c c671 a83c f0a1 93bd
00000360: c5e1 f33c 4ef2 f1bd 1f59 ab3d 6edf c53c
00000370: f6a8 923d 5ecc ddbc 249b 013d fa2d f53a
00000380: 2c07 5c3d 4c75 033d 4778 a13d a61d edbd
00000390: 2f38 973d 45fe 9e3d 281a ad3d 1d30 0abc
000003a0: bfd7 52bd 8fe5 da3a 5229 32bd ff16 6f3d
000003b0: 4b03 b93d 037e e0bd 35a3 103e 40c8 bd3c
000003c0: 3f08 163e 4715 13be a928 1d3d 3e1a 8fbb
000003d0: 3c28 8d3d 47c0 f6bd 73d1 8fbc dedf fe3c
000003e0: f8ab a2bd acf0 3dbe 8868 bfbb ca2e 073e
000003f0: a910 463e 5518 29be 0be5 a4bb 1220 10bd
0.08042175 -0.056083113 -0.17111856 0.1084509 0.06969252 0.11250202 0.06520892 -0.090416156
-0.09538899 0.035046324 -0.09001528 -0.080454186 0.09333678 -0.021027908 0.058782008 0.11568902
0.00014333831 0.14128935 -0.002734089 -0.08227747 -0.14041038 0.082902506 -0.005551859 0.07813237
0.034415275 -0.079015344 0.0017858088 0.05237767 -0.08789319 0.06748298 -0.06864311 -0.07344647
0.16011702 0.04490882 -0.02485442 -0.100497924 0.062122133 0.08683149 0.07826807 -0.07742645
0.083582915 0.0767987 -0.0154307075 -0.18871045 -0.0023176947 0.13549383 0.06763701 -0.00014204817
0.20828731 -0.0587374 0.07798261 0.026549213 0.04485335 0.13824555 0.027845923 0.064284
0.10749756 -0.04371297 0.0014742631 0.047237646 0.08753577 -0.07019169 0.014465136 -0.14000036
-0.029997574 0.07844568 0.049185727 0.12054186 0.098177016 0.02503956 0.014214418 -0.11410852
0.06147327 -0.12923549 0.041023538 -0.050624534 -0.04327792 0.052830677 0.0055738227 0.030802526
-0.018441148 -0.036710247 0.030232014 0.01891211 -0.12133226 -0.02034236 0.09321205 -0.06777426
0.07615344 -0.11744072 -0.06885794 0.0003693041 0.031539403 -0.035293628 0.018325854 0.02715229
-0.012165704 0.09125496 0.08301385 0.19514762 -0.12781686 0.12984411 -0.009938019 -0.019731255
0.13010992 0.030195093 0.09335488 0.13030265 0.04744011 -0.005631305 0.08997365 0.07311424
-0.09416167 0.016515858 -0.050393578 0.09788275 -0.029551292 -0.060682796 -0.019876875 0.11770104
0.043842666 -0.030328022 -0.009921494 -0.07211615 -0.041255217 0.046761755 0.10956433 -0.08293466
0.080884725 -0.012738173 0.11553892 -0.07006204 -0.020615658 -0.005103712 0.094796814 0.05291955
0.12869745 -0.09805671 0.12692285 -0.03803116 0.11214226 0.10414289 0.14478762 -0.049835738
-0.098572984 -0.19650212 -0.10445004 -0.15277763 0.14122146 0.057902895 -0.06568443 0.039481148
0.10277765 0.01626832 0.037649427 -0.07751018 0.08419887 -0.032820877 0.036205366 0.07558307
0.03499408 0.123264834 -0.037658036 0.025548995 -0.060250033 0.09900038 0.028904185 -0.09187395
0.07567602 0.06493908 -0.030254351 0.07908444 0.07858379 -0.03408791 -0.03806997 0.0979365
0.036962766 0.059666667 0.047718335 -0.051250193 0.0842024 0.10142827 -0.017516837 0.0663426
0.101494715 0.06681497 0.004378033 0.010669094 0.09306033 0.12494562 -0.012412034 -0.12543961
0.041104555 0.024319429 0.104528196 0.046130814 -0.039788716 0.031346824 -0.1496485 0.02059353
0.042755984 -0.010487515 -0.06799998 -0.08848595 -0.026219174 -0.0014448749 0.08145076 0.068484515
0.07550765 0.18386737 0.035774283 0.061138477 0.05585285 0.012157209 0.020562064 -0.072086215
0.029770741 -0.11813794 0.08366608 0.024154391 0.07161133 -0.027074989 0.031642094 0.0018705719
0.053717777 0.032094285 0.07884269 -0.115779206 0.07383763 0.07763342 0.084522545 -0.008434323
-0.051475283 0.0016700494 -0.043496437 0.05837154 0.09033831 -0.10961535 0.14124759 0.023166776
0.14651583 -0.14363585 0.038368855 -0.004367142 0.0689244 -0.12048393 -0.017555928 0.031112608
-0.07942957 -0.1854884 -0.0058413185 0.13201442 0.19342293 -0.16513188 -0.005032187 -0.035186835

bn1.running_mean f4 [256]
00000000: 81a9 d43d e75e 0d3f 12fe 0e3f 33ba d63f
00000010: 78bd ba3e fa4f ae3f 52ad 703c 73ce 0c3f
00000020: dcc5 b43f 94c2 9d3e 549c ae3f bcd5 4b38
00000030: e65a 3c3f 499d 353d d40c 0440 f0ab 773f
00000040: 0f67 a13f f247 583d be2d 0d40 f5b0 9b3f
00000050: ad52 813f 844f ec3d e597 513f c4fd 893d
00000060: df3a 2140 3700 0d3f 6cc9 ee3e 4e76 223f
00000070: ce29 513e b7df e23f 5470 ea3d 0400 0000
00000080: c68f 8a3e 4f57 c63f 420a cf3e 630a 4c3f
00000090: 9f06 c93d 7ad4 0a3f 2e07 823f 8a4e 6c3d
000000a0: b987 123f 943c a83e 1abb bb3d dbdd dc3e
000000b0: e858 203f 284b 893e ad40 2b3f 270a 883f
000000c0: 8df4 9e3f 1ff1 b33e 2f71 153e d20d a73e
000000d0: a8d2 9b3f f3ae c73f 2943 633b 007d 383e
000000e0: 3920 8e3f 10a0 1a3f 7349 a63d 26bf 273e
000000f0: 80c4 d73c 3213 a03d d751 c73e ec57 b33f
00000100: 5803 ab3e af3f 2040 c27c fc3e a478 673e
00000110: 37b1 933f 6077 7d3f 6294 d83f ecd8 ca3e
00000120: 9bb4 a03e 8c5a a63f 09f4 d33e a070 823f
00000130: 011b 8d3e 0d35 b33f 6daf 2540 005a 5d3d
00000140: c944 f73e 8e39 8e3e 0a3a e73f 8bab 3c3e
00000150: 9e91 dc3e b3b7 523a a27f ab3f fa6a 6040
00000160: c560 6f3e a2f1 b83f 5d4b b43e 0400 0000
00000170: 5233 523f 34c4 033e cc22 d43f 035c 973f
00000180: c2ea 183f 9354 eb3e aa2e 613e 0cbb 9f3e
00000190: 9484 843e 96f8 c23e 3dda 413e 3460 a63d
000001a0: 0799 bd3e f25b 983e bc17 5c3f 2a37 373f
000001b0: 1b06 1140 af47 183d 5a92 803f defc 983a
000001c0: 13fc ce3f e7f1 903e 742d c23e 4ff8 cf3e
000001d0: 455f 2b3f fdcf 683e e068 653e 2755 cb3e
000001e0: 52bc 4d3f 59e8 3e3f 0ef9 b93f 3a08 413d
000001f0: 4b2a 983f a9c9 e03d 16ff ef3e 07ba bb3d
00000200: 1282 193f cde6 5e3f 6809 123e ae7b 4f40
00000210: 8fa1 bc3f 81d7 3c3e ec38 d73e 6540 cf3e
00000220: 37ea a93c 609c 953c befd 6c3f f6d9 983e
00000230: 119a bf3f 45e0 2a3f 68cc 2b3f ef15 3b33
00000240: 5c8e cf3f 1a04 8e3e 0400 0000 c5d9 ba3f
00000250: 176d 503f 0bde 793f a3cb a43f 18ea 2140
00000260: de90 8a3f cb44 fc3f cc96 653f 6d66 223f
00000270: d4ec 5e3f 7221 813f 1953 283f a10d de3f
00000280: 0f5a b43e 9289 1b40 1732 6e3f b688 a13f
00000290: 80cc cf3f 7678 823e 6083 243f 4e37 7b3f
000002a0: ea29 973f 426b 003f a44f 0040 a5b3 b73f
000002b0: 0400 0000 5c5a 7f3e c0a3 133f 2f54 843d
000002c0: 4ce6 583f f9f3 b93e b9fb e93d f84b cb3f
000002d0: cd3f a73f 01d2 883e 2968 103f cc38 b73d
000002e0: 4393 973e e09f 893f 198c 133e a6ea a23e
000002f0: 0400 0000 7223 db3f 861f fa3e 41df 4f3d
00000300: 9465 603e 5aff 3f3e 7947 c33e 5cd0 143d
00000310: 2d62 3d3f 85a6 013f 440e 0a40 63ec cc3e
00000320: 8471 3b3f 5f61 aa3f 9178 9d3f 169d a13e
00000330: a6a8 443f 91a1 e63e b6f8 ba3f fbef 7640
00000340: 5b02 073f 657d 733f 8dd5 683f 281b 9a3f
00000350: 618b af3e 62d3 883f 2414 c03e d4e3 843e
00000360: e0bd 4f3e 5141 b93f 94f7 253f 6508 8f3d
00000370: 8c77 403f 8ab2 493e a7fa ce3e 5d32 b33e
00000380: 5500 433a b02c bb3f 7952 8a3d 0400 0000
00000390: 9084 5c3f 4c02 023f 14e0 e33e 0cfd b53f
000003a0: 4096 2240 0c2b 253f 8f8a b13f 773e a63e
000003b0: e002 d43e a06e 293f 952a cf3f 2c22 893f
000003c0: cf0a 903e ad55 0e3e f390 d43f d10d 1a3e
000003d0: 2c01 6d3f cb80 a33e 934f 9f3f 083f 533c
000003e0: ed1b b33e bfcf c73f dc41 ff3f 2bb9 223d
000003f0: bd99 0b3f 27f3 c13e e2db c73f b33b 2d3e
0.10383893 0.55222934 0.5585643 1.6775573 0.36472678 1.3618157 0.01468976 0.55002517
1.4122882 0.30812514 1.3641458 4.8598027e-05 0.735762 0.044339452 2.063283 0.9674673
1.2609576 0.052802987 2.205917 1.2163378 1.0103356 0.11538604 0.818724 0.06737855
2.5192182 0.5507845 0.46638048 0.6346177 0.20426103 1.7724522 0.11447206 6e-45
0.27062815 1.5495394 0.40437514 0.7970335 0.09815716 0.54230464 1.0158441 0.05769209
0.57238346 0.32858717 0.09166546 0.43138012 0.6263566 0.26815152 0.6689556 1.0628098
1.2418381 0.35144898 0.14593957 0.32627732 1.2173662 1.5600265 0.0034677482 0.18016434
1.1103584 0.60400486 0.08119478 0.16381511 0.026338816 0.07816161 0.38929626 1.4011207
0.3340099 2.503887 0.49313933 0.22604614 1.1538457 0.99010277 1.6920283 0.39618623
0.3138779 1.2996383 0.41397122 1.019062 0.27559665 1.4000565 2.5888321 0.05404091
0.48294666 0.27778286 1.8064587 0.18424813 0.43079847 0.00080382376 1.3398325 3.5065293
0.23376758 1.444874 0.35213748 6e-45 0.8210956 0.12867814 1.6573119 1.1824955
0.5973321 0.45962963 0.21990457 0.31197393 0.258824 0.3808028 0.18930908 0.08123818
0.37030813 0.2975765 0.85973716 0.7156855 2.2659976 0.037177738 1.0044663 0.001167204
1.6170677 0.28309557 0.37925303 0.40619132 0.66942245 0.22735591 0.22403288 0.39713404
0.8036548 0.74573284 1.452913 0.047126986 1.1887907 0.109759636 0.46874303 0.09166341
0.59964097 0.87070924 0.142614 3.2419238 1.4736804 0.18441583 0.42035615 0.40478817
0.020741565 0.018263042 0.9257468 0.2985379 1.4968892 0.6674846 0.67108774 4.355928e-08
1.621532 0.27737504 6e-45 1.4597708 0.8141646 0.97604436 1.2874645 2.529913
1.082546 1.9708494 0.8968322 0.6343754 0.8708012 1.0088332 0.65751797 1.7347909
0.3522496 2.4302716 0.9304518 1.2619846 1.6234283 0.2548253 0.6426296 0.98131263
1.1809666 0.5016366 2.0048609 1.4351698 6e-45 0.24936813 0.5767174 0.06461369
0.84726405 0.3631895 0.114249654 1.5882559 1.3066345 0.2672272 0.56408936 0.0894638
0.2960454 1.0751915 0.14408912 0.31819648 6e-45 1.7120192 0.48852175 0.05075002
0.21913749 0.18749753 0.38140467 0.03633152 0.7397793 0.50644714 2.1571207 0.400241
0.73220086 1.3310965 1.2302419 0.3156516 0.7681984 0.4504514 1.460715 3.8583972
0.5273797 0.9511321 0.9095085 1.2039537 0.34286025 1.0689509 0.37515366 0.2595507
0.20287275 1.4473058 0.648309 0.06984023 0.75182414 0.19697013 0.40425608 0.34999362
0.0007438709 1.4623013 0.06754012 6e-45 0.86139774 0.50784755 0.44506896 1.4217849
2.5404205 0.6451881 1.387041 0.32469532 0.41408443 0.66184425 1.618487 1.0713553
0.28133246 0.1389987 1.6606735 0.15044333 0.92579913 0.319342 1.2446159 0.012893446
0.34982243 1.5610274 1.9941974 0.03972737 0.5453146 0.37880823 1.5613978 0.16917305
