p3_collab-compet/checkpoint_critic.pth (torch_old, 297409 bytes, 9 tensors)

fcs1.weight f4 [256, 24]
000000 6f ae cc 3a a0 a9 c1 3d 08 62 9c 3c 77 5c c4 bc
       0.001561595 0.094561815 0.019089714 -0.023969872
000010 61 a3 38 3c 3f f7 87 3c 21 a1 2c bd 10 4e 01 bd
       0.011269421 0.016597388 -0.042145852 -0.031568587
000020 ad 3a 87 bd ab 6f d2 3d aa 5f 53 bd 01 a1 19 bc
       -0.066029884 0.10275205 -0.051604904 -0.009376765
000030 e7 58 cd bd 67 37 7c bd ec 72 13 3d e4 73 9c 3a
       -0.100267224 -0.061576273 0.03599827 0.0011936394
000040 c3 af 2a bd 7e c1 cc 3c 9b 56 67 bd 98 fc ab bc
       -0.041671526 0.024994608 -0.056479078 -0.02099447
000050 a1 da c8 bd a5 2b 3a be c9 6b 0c bd 62 63 8e 3c
       -0.09807325 -0.18180712 -0.03428248 0.017381374
000060 32 e0 cd 3c 6d d8 62 3b 38 93 bb 3b ec 0e 01 3e
       0.025131319 0.0034613863 0.005724337 0.12603348
000070 0a d3 9f bd c0 e8 a4 3c 9a 38 62 bc 3c 61 90 3d
       -0.078039244 0.020130515 -0.01380744 0.07049796
000080 bb 4c ce ba e6 50 76 3d 17 dc 06 bd 54 b5 6b 3b
       -0.001573942 0.060135745 -0.032924738 0.0035966234
000090 a7 92 83 bd 49 a6 8a 3d ca be 0c bc 39 8d 74 bb
       -0.06424456 0.067699976 -0.0085904095 -0.003731562
0000a0 77 94 81 bd 56 0f 0f 3d 76 12 43 3c 74 98 ef 3c
       -0.063271455 0.034926735 0.011906257 0.0292475
0000b0 2a 59 ff bc ee 45 ca bd 3f 5d 95 3d 1f 22 4b 3d
       -0.031170446 -0.09876619 0.07293176 0.049593087
0000c0 7c 19 ba 3c 75 68 1c be 06 fe 1d bd ea 0f cb 3c
       0.02271723 -0.15274222 -0.038572334 0.024787862
0000d0 fc bb a3 bd 4e 09 b3 bd 56 5e b2 bc db 14 08 bc
       -0.079948395 -0.08742009 -0.021773499 -0.008305754
0000e0 52 0e b7 bc d0 98 19 3b be cb aa 3d 9b 1a 28 3c
       -0.022345696 0.002343703 0.08339642 0.0102602495
0000f0 ab 1b 87 bd f3 54 7e 3d 3f 71 b2 3d 5c a2 36 3d
       -0.06597074 0.062092733 0.08713006 0.04458843
000100 8c 29 97 3d ca d7 75 bd 3f 3a 4f bd b5 20 4b 3d
       0.07380971 -0.060020246 -0.050592657 0.04959174
000110 e6 02 e3 3b 08 c5 f4 3c a0 ec c7 bc 84 4d a0 3d
       0.0069278358 0.029879108 -0.024404824 0.07827285
000120 14 f0 bc 3b d2 64 49 3d da 1c 6a 3c b3 cc 29 3d
       0.005765924 0.049168415 0.014289105 0.041454982
000130 1f e0 f9 3d e7 d6 c2 bc 73 9d 8d bc f9 11 19 bd
       0.12200951 -0.023784114 -0.017286992 -0.037370656
000140 58 66 08 3d 08 81 b2 bc c7 a9 36 3d 62 96 84 3c
       0.033300728 -0.021790043 0.044595506 0.01618499
000150 74 50 46 3e c3 e8 11 bb 3b 41 42 bd 26 5c 53 3c
       0.19366628 -0.002226398 -0.04742549 0.012900388
000160 49 5f 42 bc 67 e0 07 bd 6f ce 93 3c 11 38 93 3c
       -0.011863538 -0.03317299 0.018042771 0.01797107
000170 ed c1 63 3e ea 75 06 3d 51 8a 75 bc bd 20 54 bd
       0.22241946 0.032827295 -0.0149865905 -0.051789034
000180 ff 69 b1 bd b0 53 21 3d 2d 3e 0d bc a2 23 c8 3d
       -0.08662795 0.03938645 -0.008620781 0.097724214
000190 c6 20 39 bd 9c 46 80 bd f8 73 81 bc b5 63 cd 3d
       -0.04519727 -0.06263468 -0.015802369 0.10028783
0001a0 36 f2 e0 bb fa f8 93 3c 05 5e 31 bc 1d 27 a3 3b
       -0.0068648113 0.018063057 -0.010825639 0.004979028
0001b0 47 78 5d 3d a0 7b 97 bd e4 b4 2d 3d 1a 88 12 bd
       0.054069784 -0.073966265 0.04240884 -0.035774328
0001c0 60 13 e3 3b 7d 76 3a 3d e2 63 09 bd 9d e8 0d be
       0.0069298 0.045523155 -0.03354252 -0.13858266
0001d0 14 5f e5 3d 10 d2 64 3d 64 e5 ab bc 61 06 fd bd
       0.11199775 0.055864394 -0.020983405 -0.12354732
0001e0 65 77 92 3d 36 9d 6a 3c 53 b3 55 bd a4 92 9e 3b
       0.07151679 0.014319709 -0.05217297 0.0048392583
0001f0 70 b9 eb bc aa 6f 2b be 15 59 f5 3c ba 9f 3a 3c
       -0.028774947 -0.16741815 0.029949704 0.011390621
000200 fa 3e 27 3d 6d 12 58 bb 03 64 d1 bc 8b a7 1d bc
       0.040831544 -0.0032969967 -0.025560385 -0.009622465
000210 77 50 0a be e6 26 0c be e4 91 74 3d 0b 43 87 bd
       -0.13507257 -0.13686714 0.059709445 -0.06604584
000220 16 66 ae 3c 50 46 c3 3c c3 8c 54 bc 5b 92 05 3e
       0.021288913 0.023837239 -0.012973013 0.13044111
000230 3a a4 56 bd 8f cb fc bd 4e 5a 81 bb 70 25 dc 3c
       -0.052402712 -0.12343513 -0.0039475327 0.02687332
000240 83 3f e3 3d ff 80 2e 3c cb 65 e7 3b 43 ba 19 bc
       0.11096098 0.010650872 0.007061695 -0.009382787
000250 9b 92 ab 3d 8f 08 fa 3c e5 d0 19 3c 55 52 53 3d
       0.08377572 0.03052166 0.009388183 0.05159219
000260 1f 7f 43 3d 55 d6 2c bd 5d 36 5e 3d c1 66 69 bc
       0.047728654 -0.04219659 0.054251064 -0.01424569
000270 ff 80 09 3e fa 6a 11 bd 59 87 2e 3d 05 4f 14 bd
       0.13428114 -0.03550241 0.042609546 -0.03620817
000280 74 47 cb 3d 80 e9 c2 3c 14 f0 18 3d 42 7e 52 3d
       0.09925738 0.023792982 0.03733833 0.05138994
000290 94 d3 49 3d 8e 83 a0 3b 75 9a ca bc 43 1b 1d 3d
       0.049274042 0.004898495 -0.024731854 0.038356077
0002a0 4c 8f 00 bd e0 ba 85 3d 6c 43 88 3a f7 de ec 3c
       -0.03138666 0.06529784 0.001039607 0.028914912
0002b0 00 ba 92 3d 6c 85 6f bd 48 42 ca 39 34 df f2 bc
       0.07164383 -0.05847685 0.00038577826 -0.029647447
0002c0 8d f5 c3 bc 5a 5c 25 bd b7 6d 61 bd 24 03 16 3d
       -0.023920799 -0.040371276 -0.055036273 0.03662409
0002d0 70 36 15 3e 0b 42 d4 3b bd b8 65 3d 91 8c a8 3c
       0.14571548 0.0064775995 0.056084383 0.02057484
0002e0 e8 27 04 3d 05 ea 0f 3d 0c 20 75 bc be db 80 bb
       0.03226462 0.035135288 -0.014961254 -0.0039324453
0002f0 e9 53 57 3e 58 1c 3a 3e 55 02 1d 3c a1 22 67 bd
       0.21028103 0.18174875 0.0095830755 -0.05642951
000300 1f 6f d0 ba ad b4 08 bd 1a 66 bf 3b 7c b5 14 3d
       -0.0015902257 -0.03337543 0.005841029 0.03630589
000310 e7 2b c4 bb de 61 e7 3d 00 a5 e3 bb 90 fc fa bc
       -0.005986679 0.112979636 -0.0069471598 -0.03063801
000320 39 24 ab bc 33 80 18 3d 20 08 c1 3c c5 d2 d2 3c
       -0.020891296 0.037231635 0.023563445 0.025735268
000330 22 3e 28 be 99 7e a0 3c 2c de a8 bc 63 1f 02 bd
       -0.16429952 0.019591616 -0.020613752 -0.031768214
000340 06 9b b9 3c 33 56 d2 bd b1 b0 1d bd c0 c3 53 3c
       0.022656929 -0.102703474 -0.038498584 0.012925088
000350 2f ef 29 be 52 6a 4e be 45 65 1b 3d db a3 82 bc
       -0.16595148 -0.20157745 0.037938375 -0.015947273
000360 fe 2f 11 bd 0c 7a ed 3d c0 b3 a9 3c 95 42 22 bd
       -0.03544616 0.11595544 0.020715594 -0.03961428
000370 39 74 04 3e a3 49 d2 3d 2e 70 63 bb 4b 3c 09 bb
       0.1293496 0.10267951 -0.0034704315 -0.0020940478
000380 8a 03 b5 3c 5a c0 b8 3d 30 24 90 3c 53 e0 05 bd
       0.022096414 0.09021063 0.01759538 -0.032684635
000390 5a d4 df 3d ee e3 02 3c b3 3d 16 3d d6 14 29 bd
       0.10929175 0.007988913 0.036679935 -0.041279636
0003a0 84 5b 65 bd 98 48 77 3d 4c 0a c2 3c 8e 2b 1a 3d
       -0.05599548 0.060371965 0.02368655 0.037639193
0003b0 be 16 03 be a6 be 05 be 09 a4 b7 3c e7 68 39 bb
       -0.12801644 -0.13061008 0.022417085 -0.0028291286
0003c0 76 c7 f7 3c 36 96 ae bd 46 1d 45 3d ee b8 b9 bd
       0.030246478 -0.08524744 0.04812362 -0.09068476
0003d0 b3 38 f2 3d f8 dd 46 3d ad 0d 30 bd 1f 4e d3 bc
       0.11827221 0.04855153 -0.042981792 -0.025794087
0003e0 16 3e a2 3c a6 52 b4 bd 78 54 20 bd aa 90 95 3d
       0.019804996 -0.088048264 -0.039143056 0.07302983
0003f0 a8 82 1d 3d 42 8b 12 bd 7e c7 e9 3c ac b1 ce 3c
       0.03845468 -0.035777338 0.028537508 0.025231205

fcs1.bias f4 [256]
000000 4f cf fd 3d 8a 62 d4 bd a4 33 19 3e 2e 0c 32 be
       0.123930566 -0.10370357 0.14961106 -0.17387459
000010 3e 8f 2b 3e 6c 1b fd 3d b9 86 f9 3c a9 52 59 be
       0.16753861 0.12358746 0.030459749 -0.21222939
000020 88 a2 93 be 45 ee 47 3d b2 98 51 be 59 00 f4 3d
       -0.2883494 0.048811216 -0.20468405 0.11914129
000030 ab 72 e8 bb 0f 55 54 be da 88 23 be f9 ab c3 3c
       -0.0070937476 -0.20735572 -0.15970173 0.023885714
000040 be 3e 47 3e ce 6e 13 bd fa 81 44 be 51 bd bb bd
       0.19457528 -0.035994343 -0.19190207 -0.091669686
000050 9d 96 f0 3b a2 e4 0c be 04 bb 3c be 69 83 99 bd
       0.0073421733 -0.13759091 -0.18430716 -0.074957676
000060 08 e0 48 3d d2 d2 60 3c a1 63 ee 3d c8 92 1c 3e
       0.049041778 0.0137221385 0.116400965 0.15290368
000070 10 2f 3b be 3f 41 b7 3d 36 37 ce be 2a 43 f4 bd
       -0.18279672 0.089479916 -0.40276498 -0.11926873
000080 75 1e 06 be e1 03 79 3d 43 c5 c4 bb a2 74 04 be
       -0.13097556 0.060794715 -0.0060049607 -0.12935117
000090 2f 82 81 be 19 a9 3f 3e 16 5a 17 3e d8 6a 39 be
       -0.25294635 0.1871685 0.14780459 -0.18107164
0000a0 54 cc 60 3d f6 b5 da 3d a6 55 36 be 98 ba ae 3d
       0.054882362 0.106792375 -0.1780611 0.08531684
0000b0 4e 36 9c 3c 60 ca ec bd de 0a a0 bd 1b 53 6d 3d
       0.019068863 -0.115620375 -0.07814573 0.057940584
0000c0 6b 38 7e 3d f3 e4 fb 3d ee c0 ce ba 20 f3 27 3e
       0.062065523 0.12299528 -0.001577405 0.16401339
0000d0 05 f4 df bd b6 74 7b bd e9 0a 09 3e 26 c3 b0 bc
       -0.10935215 -0.0613906 0.13383068 -0.021577429
0000e0 50 dd e1 3c 5f bb 99 bd 06 9d cb bd 20 69 a9 3c
       0.02757135 -0.07506441 -0.09942059 0.02068001
0000f0 af 5f 5c be df 07 b5 3d 63 7f 45 be 2c ac 72 be
       -0.21520875 0.08839392 -0.19286875 -0.23698491
000100 54 c6 94 3b 93 70 fc bd 58 95 6e be 5c eb 47 3e
       0.004540244 -0.12326159 -0.23299158 0.19523376
000110 13 f1 0b be 42 4a c6 bd fd 0f cf bd 9d 79 2b be
       -0.13666181 -0.09682132 -0.101104714 -0.1674561
000120 c4 a6 26 be 51 89 9d bd 0d 98 42 be a7 65 fa bc
       -0.16274554 -0.07692207 -0.19003315 -0.03056605
000130 89 81 6d 3c cf 30 8e bd d1 71 5f be 85 b4 a3 3d
       0.014496216 -0.06942903 -0.21820761 0.07993416
000140 c2 18 b1 bd 62 35 05 3d ac 3b 97 bd 14 ec 04 3d
       -0.086473 0.032521613 -0.073844284 0.032451704
000150 4f 87 63 3d a8 02 66 bb 80 41 2a be 9c 1a 24 3e
       0.055548962 -0.0035096798 -0.16626549 0.16025776
000160 89 6d 13 3d 10 ad 4e bd 59 18 2e 3e fe 1d 8d 3d
       0.035993133 -0.050458014 0.17001475 0.06890486
000170 b7 d1 f6 bd 26 35 6a 3d 32 12 da 3d bf e3 cc 3c
       -0.12051719 0.057179593 0.10648002 0.025010942
000180 b9 7f 2f be 42 0c a5 bd 80 b5 26 bd 5f 95 77 3c
       -0.17138566 -0.080589786 -0.040700436 0.015111296
000190 dd a3 2b 3e 86 2b f5 3d 68 6a 68 be 9d cc e9 3d
       0.16761728 0.11971192 -0.22696841 0.1141598
0001a0 72 e4 7a 3d 89 5a 21 3e b0 de e8 3c a4 c4 1f 3d
       0.06125302 0.15757193 0.028426498 0.03900589
0001b0 7a 29 fe 3d ed 58 a3 bd 65 15 5f be d8 91 0f bc
       0.12410255 -0.079759456 -0.21785505 -0.008762799
0001c0 1c 59 38 3b a7 0e 43 be 53 86 4f be 88 7b 20 3e
       0.0028129285 -0.19048558 -0.20266084 0.15672123
0001d0 d4 e6 b6 bc 14 61 ea 3d 19 9b f6 bd c2 35 05 bc
       -0.022326864 0.114442974 -0.12041301 -0.008130493
0001e0 3b e5 31 3d fb dc ec 3d 55 b4 60 bd d8 90 0b 3e
       0.0434315 0.11565586 -0.054859478 0.13629472
0001f0 00 da 28 be 52 e6 3e 3c 03 28 cd 3d 29 8e e1 bc
       -0.1648941 0.011651592 0.10017397 -0.027533608
000200 3f c6 b8 3d 8d 98 93 bd 7c 77 36 3e 53 87 7f be
       0.090221874 -0.07206831 0.17819017 -0.24953966
000210 85 39 fd 3d c6 10 96 be 61 c5 5c 3d f5 71 a2 bc
       0.123644866 -0.29309672 0.053899173 -0.01982973
000220 cd 89 30 be 0d a3 82 bd 37 b6 ac 3d c1 3a ad 3d
       -0.17240067 -0.06378756 0.08433192 0.08458472
000230 64 cb 5d be c5 10 d5 3d 85 ff 04 be 64 6d cc 3d
       -0.21659619 0.10403589 -0.12988098 0.09981802
000240 2b 5f 87 3d d6 fe 63 be 17 8a 61 3d 00 7f ec bd
       0.06609949 -0.22265181 0.055063333 -0.11547661
000250 73 34 e3 bc 91 2a 1d be c7 b7 52 3e 87 55 e5 bd
       -0.02773497 -0.15348269 0.20577918 -0.11197954
000260 1e f2 52 3e a8 9d 67 be 3c ad 25 3e 11 d0 4c be
       0.20600173 -0.22618735 0.16179365 -0.20001246
000270 50 b4 12 bc bb 6d b1 bd 64 5e 65 be a5 e0 84 bd
       -0.008954123 -0.086635076 -0.22399288 -0.0648816
000280 49 7c 4f 3d ae ab 90 3d 6d fb 1b be eb b2 94 bc
       0.050655637 0.07063995 -0.1523263 -0.018151721
000290 3b dd 95 bd 52 a6 64 be 06 6b 83 3c f4 61 d9 3d
       -0.07317587 -0.22329071 0.016042244 0.10614386
0002a0 ac ef ec bc ac 40 0b be ab 91 68 bc a0 9c ec 3c
       -0.028922878 -0.13598889 -0.014194886 0.028883278
0002b0 0d ea 17 bd b8 01 68 be 13 42 20 3e 96 dd cf 3d
       -0.037088443 -0.22656906 0.15650205 0.10149686
0002c0 b6 0e 13 be 35 e7 df bc b1 5b 77 bc b5 5d 45 3d
       -0.1436108 -0.027331928 -0.0150975445 0.04818507
0002d0 25 43 d4 3d f4 f4 6d 3e 9e f0 e6 3a e5 1a c8 bd
       0.10364369 0.23237973 0.0017619317 -0.09770755
0002e0 08 4a 0f 3e 6c f7 17 3e 7b a4 78 3d 9c 8b c9 bc
       0.13993084 0.14840478 0.060703736 -0.024602704
0002f0 50 d6 b4 3d 93 96 73 3d d4 8b 62 bb ad 79 16 bd
       0.08829939 0.05946977 -0.0034568207 -0.036737133
000300 8c a7 dd bd 2f 63 70 bc b4 be 17 3e 62 7d c8 3b
       -0.10822973 -0.014672085 0.14818841 0.0061184624
000310 86 1d 22 be 3b d4 07 bc 5a 91 6a be 66 67 d3 bd
       -0.15831575 -0.008290346 -0.2290701 -0.10322456
000320 8d 88 89 3e 56 46 20 be 57 2e f2 3d 20 30 23 be
       0.26861992 -0.15651831 0.11825245 -0.15936327
000330 8f f7 93 be f7 57 3c 3a da b3 b4 3c 92 2b 20 bc
       -0.2889981 0.00071847386 0.022058416 -0.009776013
000340 75 6a 5e bc c2 62 5a bd 94 93 51 be 4f c6 b3 bd
       -0.013575186 -0.05331684 -0.20466453 -0.08778059
000350 40 bf a4 3c 8d 65 12 bd bd 09 c5 bc 89 b5 54 bc
       0.020110726 -0.035741378 -0.024052495 -0.0129827345
000360 c2 43 69 bd 4c 89 f9 bd e8 9e 8f bd fa bc 3e 3c
       -0.056949385 -0.121843904 -0.07012731 0.011641735
000370 66 50 80 3d 78 07 fd ba 07 21 df 3d fd 30 b2 3d
       0.06265335 -0.0019304594 0.10894971 0.0870075
000380 4e ab 71 bd 4f 22 01 bd 82 9c 8f 3c 95 2a cd bd
       -0.05900126 -0.03152686 0.017530683 -0.100178875
000390 14 12 48 be e2 f2 fe 3d 89 50 1f be b7 bc 56 3d
       -0.19538146 0.1244867 -0.15558065 0.052426066
0003a0 9f 2a cf 3c 3e 82 ce 3d 9e d9 04 3d aa a3 70 bd
       0.025288878 0.100834355 0.0324341 -0.058749832
0003b0 94 98 f2 bd 2f ca 30 be 45 bd 32 bd 93 65 d5 3d
       -0.11845508 -0.17264627 -0.043637533 0.10419764
0003c0 57 0e 1e 3c 9e a1 51 bc 1e ae cc bd 0e 07 5a bd
       0.009646974 -0.01279488 -0.09994148 -0.053229384
0003d0 24 b8 8a bd 2b b0 ae 3d a0 01 b7 bb 74 a7 ba 3d
       -0.06773403 0.08529695 -0.0055849105 0.091139704
0003e0 26 e8 c2 3d 8b 2a af bd 92 cf 03 be 86 63 83 bb
       0.09516935 -0.08553036 -0.1287215 -0.004009667
0003f0 53 2a 29 3e 19 c5 98 bc 9a b8 08 3d 6c 9f 94 3d
       0.16520052 -0.018648671 0.033379175 0.0725697

fc2.weight f4 [256, 258]
000000 44 a5 b1 bb 74 d8 48 3d bc 31 86 3d 99 f0 8c 3d
       -0.0054213125 0.04903455 0.06552455 0.06881828
000010 1d 7f ed bc 37 bc ea bd a9 e2 0d bd 66 8a 21 3d
       -0.028991276 -0.114616804 -0.034639988 0.039438628
000020 39 e5 a6 3a c1 a4 83 3d 42 e6 95 3c 68 f3 e9 3c
       0.0012733109 0.06427909 0.018298272 0.028558448
000030 6e e4 33 3d 82 0c ab bd 0a 6b 63 3d 76 24 57 3d
       0.04391902 -0.08351995 0.055522002 0.052525006
000040 17 44 8b 3c d0 76 ab 3b 9c ce 8d 3d ec 3b fe 3c
       0.017000241 0.0052326694 0.06924173 0.031034432
000050 d7 0d e2 3d c8 46 9c 3b 3d 13 45 3c c5 be a2 bc
       0.11037796 0.00476918 0.012028513 -0.019866357
000060 93 90 f5 bd 70 2e 32 3c 40 13 4d bd 8f 58 db 3c
       -0.11990466 0.010875329 -0.050067186 0.026775626
000070 2b 8d 80 bd c8 96 b5 3c d9 ba 83 bc 7b 00 82 3d
       -0.06276926 0.022166625 -0.016080307 0.06347748
000080 23 5a be 3b f0 b8 4a 3d 22 d2 3f 3c 71 e4 aa 3d
       0.005809085 0.049492776 0.011707814 0.08344353
000090 cb 76 1a 3d a0 f0 e1 bc bf 2e 29 3d 01 13 a8 3d
       0.037710946 -0.02758056 0.041304346 0.0820675
0000a0 cf ac 2e 3c 41 ae cf 3c 87 98 2d 3d 8f 2e 0d ba
       0.010661318 0.025351645 0.04238179 -0.0005385661
0000b0 69 92 f3 3c 3e fc d7 3d 5d 63 9a 3d b2 e0 89 bd
       0.0297329 0.10546158 0.07538483 -0.0673231
0000c0 86 1a b5 bb 94 93 b9 bb b5 7d 3f bc d4 8a 21 bd
       -0.0055268435 -0.0056633446 -0.011687686 -0.039439037
0000d0 20 1d 81 3d 40 79 86 3c 80 c8 16 be 5b 32 83 3d
       0.06304383 0.016415238 -0.14724922 0.06406089
0000e0 07 e3 e8 3c c4 45 07 3d e6 57 bd 3c 81 f4 92 bc
       0.028428568 0.033025518 0.023113202 -0.017938854
0000f0 66 de 80 bd 6d 06 67 3c 6d d7 8c bd 6d bb f1 bb
       -0.06292419 0.014100653 -0.06877027 -0.007377079
000100 82 e8 6e bd ef 1d af 3d 9c f6 aa 3d b3 63 b0 3c
       -0.058327205 0.08550631 0.08347818 0.021531915
000110 91 a5 8e 3c 26 16 12 bd f2 b4 92 3c 13 03 41 bc
       0.017412933 -0.035665654 0.017908547 -0.011780518
000120 80 6b 22 bd 40 ea 2c 3d 08 06 0b bc 0c e4 79 3d
       -0.0396533 0.042215586 -0.008485325 0.061008498
000130 66 7d de bd 2e 05 03 bd de 7f be 3b e2 a0 ca 3c
       -0.108637616 -0.03198736 0.005813583 0.024734918
000140 61 98 02 bd ad ca a8 bd 05 7a bc bc 4a 1c 11 3c
       -0.0318836 -0.08241782 -0.023007402 0.008856842
000150 a7 92 33 3d 2b e8 85 bd c6 0a 3a 3d 0a 72 d2 3c
       0.04384103 -0.06538423 0.04542043 0.025689144
000160 9f 38 69 bd 5c 80 3d bd c1 1f 5a 3d 74 66 9c ba
       -0.056938764 -0.04626499 0.05325294 -0.0011932389
000170 5c 68 02 3d dc b1 85 3d 5f df 8f 3d 81 f6 97 bd
       0.031837806 0.065280646 0.070250265 -0.07420064
000180 da 91 08 bc 6a 8a 09 3d 82 74 f2 3b 94 8d aa 3d
       -0.008335555 0.033579268 0.0073991427 0.08327785
000190 e3 2f 78 3d 59 a2 cf 39 c0 16 32 bd f5 1f 8a 3d
       0.060592543 0.00039603075 -0.043478727 0.067443766
0001a0 6e e5 8c bd ab 5a d6 bc e9 ac a9 3d 5d 22 c6 3c
       -0.06879698 -0.02616628 0.08284933 0.024186308
0001b0 cf 0e 4c bc b1 cc c3 3c 51 9a 91 3d 3c 73 0b bd
       -0.0124547025 0.023901315 0.07109512 -0.034045443
0001c0 a7 17 6a bc ae 19 7d bd 4f 01 2e 3c 6b bc 0f bc
       -0.014287866 -0.06179207 0.010620429 -0.00877295
0001d0 59 6b 0c bc 94 62 22 3d 90 37 b2 bd 4e 4e 03 3c
       -0.008570516 0.039644793 -0.08702004 0.008014275
0001e0 b3 fb c0 bc 4e 81 6b 3d de 90 2c bc 63 26 81 3d
       -0.02355752 0.05749636 -0.010532586 0.0630615
0001f0 51 7b 01 3c 67 03 32 bd 96 34 cc bd 8c c3 6c bd
       0.007902936 -0.043460276 -0.099709675 -0.057803676
000200 1d ad 98 3c 76 dc 89 3c a0 e3 b3 39 31 ea 7c 3c
       0.018637234 0.016828757 0.00034311134 0.015436695
000210 dc d7 99 3c b3 c1 88 bc f5 4d 9d bd 92 65 00 3c
       0.018779688 -0.016693925 -0.07680885 0.007836716
000220 97 f0 67 3c 8b 21 97 bc 5e 3b 1d 3d ce fd 61 bc
       0.014156482 -0.018448612 0.038386695 -0.013793422
000230 60 fa b6 bd 0c 4f 92 bc 5d b1 ad 3c 30 bc de bd
       -0.08934474 -0.017859958 0.021202737 -0.10875738
000240 64 d8 e5 3c d2 0e d7 3d 1e 8c 67 3b 82 1f a9 3c
       0.028057285 0.105008736 0.003533132 0.020644907
000250 10 e5 ef bb 75 39 7b bd df 2a fc bb 5f 7a 26 3c
       -0.0073210075 -0.061334092 -0.0076955403 0.0101610115
000260 b5 fd 88 bd e7 4c 76 bd 79 03 1b bd da 08 72 bb
       -0.06689016 -0.060131934 -0.03784511 -0.0036931545
000270 f9 ef aa 3c 9e 79 32 3d d2 82 01 3d 4c 5f 96 bd
       0.020866381 0.043573014 0.0316189 -0.07342395
000280 28 35 11 bd 2c e6 13 bd 83 eb 0c b9 e6 cf 21 bc
       -0.035451084 -0.03610818 -0.00013439175 -0.009876227
000290 be ad 35 bb 5e a3 46 3d ad 59 54 bd d9 8d d4 3c
       -0.0027721967 0.048495643 -0.051843334 0.025946544
0002a0 d2 9b 90 bd e1 08 b4 3d c2 ee 97 3c 00 04 94 3c
       -0.0706097 0.08790756 0.018546466 0.018068314
0002b0 a7 2a 11 bd 15 ad 47 3d ba 98 01 3c e6 f9 97 bb
       -0.035441067 0.04874905 0.007909948 -0.0046379445
0002c0 77 9f 9b bb f5 6f 1c bc fb 2d ea 3c bb f1 75 bd
       -0.0047492343 -0.009548177 0.028586378 -0.060044985
0002d0 6b c7 ca bb e3 27 00 bc e6 69 3f 3d e5 0f d1 bb
       -0.0061883233 -0.00782201 0.046731852 -0.0063800686
0002e0 65 a6 4a 3d 44 f6 3f bd 16 d1 82 3d 13 7e ac bc
       0.049475092 -0.046865717 0.06387536 -0.02105621
0002f0 5b eb cd bc be 3b 12 3d 11 e6 3a bb 86 78 9d bc
       -0.02513664 0.035701506 -0.0028518478 -0.01922251
000300 af 1b 9a 3b b0 be 98 bc b0 4d ec 3c 0a fb fd ba
       0.004703007 -0.018645614 0.028845638 -0.0019377184
000310 e2 7e 3a 3c bc 25 cf bc 83 1f 2c bc 9b 19 4b 3c
       0.01138279 -0.025286548 -0.01050556 0.012396242
000320 5b a4 95 3c 42 4a 03 bd b2 2d 94 3d ea 8a 42 bd
       0.018266847 -0.03205324 0.07235278 -0.04749576
000330 57 53 a8 bc ce 86 77 3c 1c de fa bb 99 ab c8 bd
       -0.020547552 0.015107824 -0.007655872 -0.09798355
000340 99 71 d9 bd 6b 93 24 bc 86 31 a8 bc 66 b7 02 be
       -0.1061737 -0.010044913 -0.020531427 -0.12765273
000350 0a 3c d1 bc 29 2b f3 bc 0d 67 95 bd 23 b4 1f 3d
       -0.025541324 -0.029683666 -0.07295046 0.03899015
000360 b6 7b 20 3d 71 2a 31 bd 8c 85 12 3c ce dd 9a 3c
       0.03918048 -0.043253366 0.008942973 0.018904593
000370 f3 b8 fb bc 5b cb 5a 3c 67 2a 50 3c 9b 62 2c bc
       -0.03072784 0.013354148 0.012705422 -0.010521556
000380 9e 33 86 3d 43 ed a7 bc 54 25 45 bc 4d 07 cb bc
       0.06552814 -0.020498877 -0.0120328255 -0.024783755
000390 b3 d7 fe bc 0d 63 61 bd ba cd 13 bb ef c1 16 bd
       -0.031108713 -0.055026103 -0.0022553043 -0.036806043
0003a0 d2 b6 42 3d 64 ec 9e bc 79 5e 4e bc f6 bc 70 3b
       0.047537632 -0.01939983 -0.012595766 0.0036733723
0003b0 9a 3d 99 3d 2a a8 67 3d 0a 72 c6 bc 3f a3 41 bd
       0.07482453 0.056556858 -0.0242243 -0.047274824
0003c0 07 e0 c1 bc ec c2 cc bd 39 bd a5 bc f6 65 d3 bc
       -0.023666395 -0.09998116 -0.02023183 -0.025805455
0003d0 25 39 3f ba 2a 0c 7a 3d 0b 24 2f 3d ae 29 45 bd
       -0.0007294587 0.061046757 0.042758983 -0.048135452
0003e0 e3 73 df 3c fc e1 7d bd ca 13 8a 3a af 7a 36 3c
       0.027276939 -0.061983094 0.0010534462 0.0111376485
0003f0 fb 6b 0a bd de 08 8c bd 28 df e3 3c 0d ff 5d 3d
       -0.033794384 -0.06837629 0.02781637 0.054198314

fc2.bias f4 [256]
000000 e3 5b b2 bd 72 13 5d bb 1d 1e 64 bc e4 e1 6c bd
       -0.08708932 -0.0033733514 -0.013923195 -0.057832614
000010 75 19 46 bd eb be f4 bd 51 c8 63 bc f6 93 b7 bd
       -0.04836412 -0.11950477 -0.01390274 -0.08963768
000020 4b 0b 28 bd bd 4f d1 bc be 2e 11 bd b8 03 c1 bd
       -0.041026395 -0.025550717 -0.035444967 -0.094245374
000030 cd c7 3b 3c 5a 1e 74 bd a6 0b e4 bd 4c 14 7c bd
       0.01146121 -0.059599258 -0.11135034 -0.061542794
000040 b8 9d f0 bc 3e d5 d3 bc 92 f3 c5 bd bd c9 d3 bd
       -0.029372081 -0.025858518 -0.09665598 -0.10341213
000050 ac f2 c9 bb 89 68 4d bd f4 b6 20 be 14 43 b1 bc
       -0.006162962 -0.05014852 -0.15694791 -0.02163843
000060 86 8b f3 bc 52 67 b9 bd 10 dd 25 be 90 11 a3 bd
       -0.029729616 -0.0905291 -0.1619761 -0.07962334
000070 98 9c d0 bb eb 95 31 bc ac 40 15 bd 43 2d d9 bd
       -0.0063663237 -0.010838966 -0.03643863 -0.10604336
000080 20 b3 9f bd 38 27 37 bd 21 3c b2 bd 6d 16 a2 bd
       -0.07797837 -0.044715136 -0.08702875 -0.07914434
000090 49 73 23 3d e9 21 b9 bd a0 29 94 bd 57 78 87 bd
       0.039904866 -0.09039671 -0.07234502 -0.0661475
0000a0 76 cb fc bd 18 c1 26 bd cd 80 d6 bc ba bf 96 bd
       -0.123434946 -0.040711492 -0.026184464 -0.07360788
0000b0 3d 20 d1 bd f8 7f 0b be 83 f5 02 be ae 47 b5 bd
       -0.10211227 -0.13623035 -0.12788968 -0.088515624
0000c0 bc dc de bd 42 48 16 bc 5e e0 c2 bd 38 08 18 bd
       -0.108819455 -0.009172501 -0.09515451 -0.037117213
0000d0 09 47 d7 bd 22 67 30 bd bf 41 37 bd ef 30 18 bd
       -0.10511596 -0.043067105 -0.044740435 -0.03715604
0000e0 65 61 0a bd 79 8a d5 bd 8d 61 c8 bd 40 1e d8 bd
       -0.03378429 -0.10426802 -0.09784231 -0.10552645
0000f0 0b d6 4a bd 91 5c 9a bd dc 82 8d bb 0e 0a b6 bd
       -0.049520534 -0.07537187 -0.004318578 -0.088886365
000100 21 b8 3e bd ff 96 10 3b c0 2f 72 bd b2 d4 d6 bd
       -0.046562318 0.0022062657 -0.05912757 -0.10489787
000110 78 e2 bd bc 66 f5 01 3c 58 f9 e9 bd 52 1b e6 bd
       -0.023179278 0.007932043 -0.11424512 -0.1123568
000120 1d d5 0e bd 70 4c c7 bb e5 a0 a4 bd 4a d9 9a bd
       -0.03487121 -0.00608211 -0.08038501 -0.07560976
000130 25 e4 27 be a4 89 d8 bd a7 94 5a bd 8f b1 61 bc
       -0.16395624 -0.10573128 -0.053364422 -0.013775243
000140 bf 57 9f bb e0 0c c8 bd 1a 1b 70 bd c0 08 ea bd
       -0.004862755 -0.09768081 -0.058619596 -0.1142745
000150 b3 17 f1 bd 6e 60 d8 bd 00 7d 4a bd 3c 0c de bd
       -0.117720984 -0.105652675 -0.049435616 -0.10842177
000160 55 76 83 bd 6d 2f 07 bd 72 2b 8e bd 46 29 e8 bc
       -0.064190544 -0.033004213 -0.0694188 -0.028339993
000170 39 5e cd bd 82 a2 f8 bc 2d fa ce bd 76 e5 46 bd
       -0.10027737 -0.030350927 -0.10106311 -0.048558675
000180 b4 3a 09 be e0 58 06 bd ed f9 f3 bd 37 64 bb bd
       -0.134013 -0.0327996 -0.11912904 -0.09149974
000190 c9 50 79 bc be e7 d3 bc d7 26 3a bd 9a 9f a9 bd
       -0.015217015 -0.02586734 -0.045447197 -0.08282395
0001a0 d0 8a 02 be fb 07 73 bd 66 cc c8 bd 7f c0 88 bd
       -0.12748265 -0.059333783 -0.09804611 -0.06677341
0001b0 6a 8c fb bd 5b 5f 06 be 4c 48 36 bd 58 65 a7 bd
       -0.12282641 -0.13122313 -0.04450254 -0.08173627
0001c0 bd d2 8d bd 82 a8 af bd 24 f4 63 bd 24 de bf bd
       -0.06924961 -0.08577062 -0.055652753 -0.09368542
0001d0 8f 87 e5 bd 30 82 c7 bd ab f8 a7 bb 08 f2 17 bd
       -0.112074964 -0.09741628 -0.005126079 -0.037096053
0001e0 98 a7 8d bd 18 73 8f bc 1c c9 8d bc 5f d8 42 bd
       -0.069167316 -0.017510936 -0.01730781 -0.04756963
0001f0 c4 3f a4 bd 19 9b cc bd 16 0f 1e bd f9 62 90 bd
       -0.08019975 -0.0999052 -0.038588606 -0.070501275
000200 fb a9 8c bd 8a 99 a7 bd 29 c9 c6 bc 69 70 3d bd
       -0.06868359 -0.08183582 -0.024265843 -0.04624978
000210 1e 34 9d bd 53 09 b9 bd 02 8b ef bd 91 0a db bd
       -0.07675956 -0.090349816 -0.116964355 -0.10695375
000220 75 55 20 be fc e9 5f bd 53 a6 16 bd 77 31 0d be
       -0.156576 -0.054666504 -0.036779713 -0.137884
000230 89 81 cf bd cb cd d1 bd ba 2b fe bd 6f 9a d6 bd
       -0.10132129 -0.1024433 -0.12410684 -0.104786746
000240 eb 77 2f 3c 26 3a 83 bd 27 da e8 bc 9b 3a bf bd
       0.010709743 -0.06407575 -0.028424336 -0.0933735
000250 b3 27 4a be 91 85 d1 bc 91 3c 12 be ea e5 25 bd
       -0.19741707 -0.025576385 -0.14280917 -0.040502466
000260 04 de 3b bd 8f 2d d2 bd 93 18 c4 bd 3b eb 53 bd
       -0.045866027 -0.10262596 -0.09575 -0.051738005
000270 c0 e8 d4 bd 77 88 aa bd 8e e6 a3 bd 62 f2 94 bd
       -0.10395956 -0.0832681 -0.08002959 -0.07272793
000280 49 f3 a2 bd b4 a4 b5 bb 7d 50 64 3c 40 ff b6 bd
       -0.07956559 -0.005543316 0.0139352055 -0.08935404
000290 b0 55 2f bd 5b 1c c2 bd d0 5c 5f bd 18 7e 9f bd
       -0.042806327 -0.094780646 -0.054531872 -0.07787722
0002a0 47 f5 b9 bc a7 01 07 bd b5 aa 74 bd aa e8 85 bd
       -0.022699965 -0.03296056 -0.05973311 -0.06538518
0002b0 50 43 32 be 11 a6 cd bd 9d cc 5a bd 3c b0 a0 bd
       -0.1740849 -0.1004144 -0.05341779 -0.07846114
0002c0 1a 5e c9 bc 29 76 bf bb 21 0f ee bd dd dd 05 bd
       -0.024581004 -0.005842943 -0.11623979 -0.03268229
0002d0 ce bf 67 bd b8 7a 29 bd 59 15 cf bd ef 2c 5f bd
       -0.056579404 -0.0413768 -0.101114936 -0.05448621
0002e0 e1 15 9d bd fe 57 87 bd d2 4f aa bd 99 43 9b bd
       -0.07670189 -0.0660858 -0.08316006 -0.075812526
0002f0 5e b0 5e bc 21 43 f4 bc b1 f4 63 3b 38 95 ca bc
       -0.013591854 -0.029817166 0.0034783299 -0.024729356
000300 71 e5 f9 bc 6c b6 9c bd f5 05 0c be 30 ab dc bd
       -0.030504914 -0.07651982 -0.13674147 -0.10774839
000310 0a e9 c4 bd ab f1 ca bd 61 b5 b3 bd 41 7e d3 bc
       -0.09614761 -0.09909376 -0.0877483 -0.025817038
000320 49 3e 90 bd c9 37 01 bd d2 1a 16 be 4d 33 b6 bd
       -0.0704313 -0.03154734 -0.14658669 -0.088965036
000330 38 5b 91 bd a9 e7 d5 bd e4 95 36 bb d8 88 22 bd
       -0.07097477 -0.10444576 -0.0027860338 -0.039681286
000340 87 d3 46 bd 7a 99 10 bd 7c f6 a3 bc 59 4a 16 be
       -0.048541572 -0.035302617 -0.020014994 -0.14676799
000350 bc 24 d5 bc 01 df 5e bd 12 6b b2 bd b3 11 c1 bc
       -0.026018493 -0.05441189 -0.08711828 -0.02356801
000360 77 7a cd bd ff 27 bd bc 8b 2e f9 bc 02 29 58 bd
       -0.10033124 -0.02309036 -0.030417701 -0.052773483
000370 17 5d a2 bd e7 ef 05 be 54 99 85 bc ac 08 c8 bd
       -0.07927912 -0.13079797 -0.016308464 -0.09767279
000380 72 e8 fa bc e6 54 2c bd f0 7e ae bd d1 2d 27 bc
       -0.030628417 -0.042073153 -0.08520305 -0.010203795
000390 81 f4 fc bd 18 3e b8 bd b5 10 58 bd da 9f 95 bd
       -0.12351323 -0.089962184 -0.052750308 -0.0730588
0003a0 2b c1 35 3c 09 54 b7 bc 30 5d cc bd 89 c3 9f bc
       0.011093418 -0.022378938 -0.099787116 -0.019502418
0003b0 9c 3d 02 be e4 29 3d bd 8f 4a 84 bd 90 93 bf bd
       -0.12718815 -0.04618253 -0.064595334 -0.09354317
0003c0 0f d4 88 bd 94 5d e7 bd 8b fc 14 be df 08 5c bd
       -0.06681072 -0.112971455 -0.14549462 -0.053719398
0003d0 76 56 da 39 85 2a f3 bd 1e 9d 07 bd 41 51 a2 bd
       0.0004164462 -0.11873344 -0.033108823 -0.07925654
0003e0 4c e3 e7 bc 99 85 b1 bc 92 30 0f bd 3c 4d e0 bd
       -0.028306626 -0.02167015 -0.03495843 -0.10952231
0003f0 4f 3e c2 bd df e9 cc bd 25 bc bc bd ae 17 ba bd
       -0.09484541 -0.10005545 -0.09215573 -0.09086548

fc3.weight f4 [1, 256]
000000 20 54 38 3c 7b bb 0d 3c 99 64 fa 3b 7a a9 8e bd
       0.011250526 0.008650656 0.0076413867 -0.06965919
000010 8d 2b 51 bd 50 70 a3 3b b4 c2 38 bb c4 a4 87 3c
       -0.051066924 0.004987754 -0.0028192224 0.016558059
000020 fc dc ad 3b fa c6 40 3c 0d 27 c9 bb f0 44 ca 3b
       0.0053058844 0.01176619 -0.0061386884 0.006172769
000030 84 ad 61 bb d5 8f 2c bc 0a 75 43 bc 8d d4 32 3c
       -0.0034435699 -0.010532339 -0.01192976 0.010914934
000040 90 d5 34 3b 0d 84 64 bc 2f d4 b8 3b 39 bf c3 3c
       0.0027593113 -0.013947499 0.0056405286 0.023894893
000050 99 ed 6e 3c e6 ea 33 3c c1 7d 66 bd b2 fe 00 3c
       0.014583015 0.010981297 -0.056272272 0.007873224
000060 e5 6c c7 3b a8 f0 9f bb 03 2f fd 3b 19 32 8b bc
       0.0060859793 -0.0048809834 0.0077265515 -0.016991662
000070 7f f3 19 bc 13 6d e2 bb 1d c3 a7 bc d9 d0 da 3d
       -0.009396433 -0.0069099753 -0.02047878 0.10684366
000080 30 a7 b6 bc 34 2e c6 bb e4 27 11 3c ff a2 30 bd
       -0.022296518 -0.0060479883 0.008859608 -0.043124195
000090 82 82 27 bb 5e 56 0f bd 79 44 5b bc ae f7 8f bb
       -0.0025559966 -0.034994476 -0.013383024 -0.0043935394
0000a0 8b c9 a1 bc 36 0e 02 bd f1 9f 80 3b 25 ed 03 3c
       -0.019749423 -0.031751834 0.0039253165 0.008052145
0000b0 41 82 0d 3d 18 23 b4 bd 66 2b 53 bc 0e 54 be 3b
       0.034548048 -0.08795756 -0.012888765 0.00580836
0000c0 72 29 24 bc 18 e1 89 3b fd f0 1b 3d 71 23 89 3c
       -0.010019647 0.0042077415 0.03807162 0.016740533
0000d0 bd 8f 7e 3c e2 88 40 bc 48 c7 10 bc 8c d3 b6 bb
       0.0155372 -0.011751385 -0.008836575 -0.0055794176
0000e0 1b a4 02 3c ce fc 39 3c 59 5b c2 bb e4 69 94 bd
       0.007973696 0.011351777 -0.0059312996 -0.072467595
0000f0 a5 27 01 bd cf 98 cc 3c 6d c7 ff bb 3a f4 26 3c
       -0.03153195 0.024975209 -0.007805756 0.010190064
000100 e8 2d 0b bc 83 27 a1 bb e6 23 1b bc f7 87 7b bd
       -0.008494832 -0.0049180402 -0.009469008 -0.061408963
000110 0b bc 4b bb 2b 54 52 bc 48 49 e2 3d 33 e6 8a bc
       -0.0031087424 -0.01283745 0.110491335 -0.01695547
000120 23 e6 df 3b a4 d8 9b bb 3c eb 05 3b 76 49 d8 bb
       0.0068328544 -0.00475605 0.00204344 -0.006600554
000130 f0 a6 8f bd 72 52 ed bb 26 bf be bc 5a c5 ae bb
       -0.07014263 -0.0072424943 -0.023284506 -0.0053335847
000140 01 6c af 3b 09 ed ee bb c8 88 7a bb 8f 10 3c bb
       0.0053534512 -0.0072914404 -0.00382285 -0.0028696393
000150 7c 58 24 bc 74 44 1d bd e3 6a 87 bb 3d c6 1e bc
       -0.010030862 -0.03839536 -0.004132615 -0.009690818
000160 8e de a7 3c 7d 06 03 bc 68 6e 46 bd 35 c9 c9 3b
       0.020491865 -0.007997152 -0.048445135 0.006158019
000170 f3 80 1b 3c fe 4f 2f bc 42 3b e3 3b 9f ab 02 bd
       0.009491193 -0.010700224 0.0069345543 -0.031901952
000180 0f cf 59 bd bc d3 83 bc 32 7f 0c 3c cf aa 8f 3b
       -0.053175982 -0.016092174 0.008575248 0.0043843756
000190 a2 28 cf bb 77 62 29 3c 27 1a 2f bd 4d 01 a3 3d
       -0.0063219825 0.010338417 -0.04274955 0.079592325
0001a0 ae 98 07 3c 94 11 9f 3b 80 75 ac bb 62 e8 9d bc
       0.008276148 0.0048543904 -0.0052630305 -0.019275848
0001b0 a5 79 42 3d ab a2 91 bd 02 66 86 bc 8b 58 d5 bc
       0.04747929 -0.071111046 -0.016406063 -0.026043197
0001c0 f1 e2 b4 3b 54 9e 2c 3c 2d a7 ae 3b 64 c2 55 bd
       0.0055202176 0.010535795 0.0053299875 -0.05218734
0001d0 52 57 13 3f c9 20 7f bc 01 a4 24 bd 0a 5b af bb
       0.57555115 -0.015571781 -0.04019547 -0.005351429
0001e0 59 58 93 bb 33 08 17 bc ad 06 82 bc 85 46 a3 3b
       -0.004496616 -0.009218263 -0.015872324 0.004982772
0001f0 df b5 95 bb 4c 5e ab 3b f1 9c a7 bb b6 52 5f 3b
       -0.0045688 0.005229747 -0.0051151444 0.00340764
000200 e1 16 95 3c 04 d5 03 3c f0 9b a3 bb ac 4a cc 3b
       0.018199386 0.008046392 -0.0049929544 0.0062344875
000210 1b 67 4f 3c 20 89 57 3c b1 58 51 bc bf 5b 06 3e
       0.01265886 0.013155252 -0.012777493 0.13120936
000220 b8 77 2e bd c3 34 2c 3c 45 19 1e bc 79 f7 4c 3d
       -0.04259464 0.010510626 -0.009649579 0.050040696
000230 7c 0a 00 3c 0b ef f0 3b 97 f0 f9 3b 62 4e 3e bc
       0.007815 0.007352715 0.0076275575 -0.011615368
000240 73 4d 9a 3c 52 5e cb bb e2 ec db bb 80 40 87 3c
       0.018835759 -0.006206312 -0.0067115882 0.016510248
000250 2f 4e c6 3d d9 a4 8f 3b c9 48 2f 3d 01 8f 9d 3c
       0.09682881 0.004383665 0.042794023 0.019233229
000260 33 46 63 bc f5 b0 3c 3c 94 4f f5 bc 9f 66 41 bc
       -0.013871717 0.011516799 -0.029945172 -0.011804252
000270 0e c4 9f 3c dd 5e 99 3d 15 d2 1a bd 1b 56 35 3c
       0.019502666 0.07488797 -0.037798006 0.011067892
000280 a6 c1 75 bc f5 63 c5 bb d3 dd 87 bb 5e c1 a7 3c
       -0.014999783 -0.0060238787 -0.0041463166 0.020477947
000290 a8 e2 85 3b 82 19 ab 3b f6 45 a3 3b f8 c0 30 bc
       0.0040858574 0.0052215466 0.004982705 -0.010788195
0002a0 16 a8 82 bb 49 df 94 bb 2a 4e 79 3c 51 17 32 bd
       -0.0039873226 -0.004543219 0.01521639 -0.043479268
0002b0 fa d0 f1 bb a3 12 fe bc 0b 66 05 3c 9a 71 62 bb
       -0.0073796483 -0.031014746 0.008142005 -0.0034552575
0002c0 3a 55 9c 3b 95 25 00 3c 13 97 a5 bb 11 19 0c 3c
       0.004770902 0.00782146 -0.00505341 0.008550898
0002d0 78 a1 44 bb e7 2e 6e 3b 62 58 cc 3b 9e 9d 59 3c
       -0.003000347 0.0036343874 0.006236122 0.013282208
0002e0 2c 76 ad bb 47 c1 b0 3b 62 63 b0 3b df f4 a9 bb
       -0.005293628 0.005394134 0.005382941 -0.0051866616
0002f0 98 50 c9 bb 48 15 09 bc 29 e8 a5 ba 30 b9 97 bb
       -0.0061436407 -0.00836689 -0.001265769 -0.0046302304
000300 51 0b aa 3b 03 29 c4 3b 30 8e ef 3c 17 c7 05 3e
       0.0051893373 0.0059863343 0.029242605 0.13064228
000310 c1 72 1e 3c 8e c0 4c bd ad 9e 0c 3d 40 e8 88 3b
       0.009670914 -0.049988322 0.034331013 0.004178077
000320 66 3d 00 bc 67 46 42 bb 14 35 8b bd 96 f9 90 3b
       -0.0078271385 -0.0029644014 -0.06797233 0.004424284
000330 d3 71 f6 3b fe c5 75 bb a7 7d 86 bb 3a 43 cb bc
       0.007520893 -0.0037502046 -0.0041043344 -0.02481233
000340 b8 84 7d 3c ae 41 41 bc 02 07 aa 3c 0a 9f a2 bd
       0.015473537 -0.011795444 0.020755295 -0.079404905
000350 1d f4 fa bc 5c 68 c9 3b 1d dd 24 bc cc dc 93 3b
       -0.03063398 0.006146474 -0.010062483 0.004512405
000360 12 d0 5d 3c bf 56 16 bc 28 27 8f bb b6 8c 23 bc
       0.013538377 -0.009175955 -0.0043686815 -0.009982279
000370 7f d3 52 3c 83 ca 5c bd bd cb 16 bd 37 f7 dc bd
       0.012867807 -0.053904068 -0.036815394 -0.1078934
000380 23 ae 80 3c 98 32 23 bc 28 b9 2f 3c e2 4c 80 bb
       0.015708035 -0.009960793 0.010725297 -0.003915415
000390 27 53 e4 3c 39 4e b9 bb 2a 45 1d bc 47 80 3e 3b
       0.027871681 -0.005655077 -0.0095990095 0.0029068158
0003a0 19 0e 25 bb f8 32 ee bb 34 31 4b bc 53 29 d9 bb
       -0.0025185405 -0.0072692595 -0.012401868 -0.0066272407
0003b0 87 3a 30 3d d8 82 07 bc 33 ee 81 3c 6a b3 01 3c
       0.043024566 -0.008270942 0.015860653 0.007916311
0003c0 c5 0c 07 bc 68 0d e5 3c fb bf 30 3e a2 e9 ec bc
       -0.008242791 0.027960494 0.17260735 -0.028919999
0003d0 84 9a 12 bc 81 97 a2 3d 88 8c 01 3c 8e 9c 27 bc
       -0.008947972 0.07939053 0.00790704 -0.010230197
0003e0 9f 2a 5f 3b 0f 49 6c 3b 55 30 c8 3b 97 b7 da bc
       0.0034052504 0.0036054289 0.0061092773 -0.02669887
0003f0 8e ef 4e 3b aa 5a 9d 3c 86 b9 1f 3c 21 c5 1e 3b
       0.0031575891 0.019208271 0.009748822 0.0024226385

bn1.weight f4 [256]
000000 cd d8 2d 3f 6c 82 f4 3c fe bd b8 3e e2 3b 5f 3f
       0.67908937 0.029847346 0.36082453 0.8720075
000010 56 c5 ca 3d 61 70 50 3e 88 8b 99 3e fd 3e 0a 3f
       0.0990092 0.20355369 0.29989266 0.5400236
000020 7a 4a 37 3f dc e9 19 3f 6f c0 98 3e 1a 91 a8 3d
       0.7159802 0.60122466 0.29834315 0.08230801
000030 a7 7b 0b 3f 6d f7 33 3f 3f f6 d5 3d 8d 5b 18 3f
       0.54485554 0.70299417 0.10447358 0.59514695
000040 8e 74 18 3f 17 77 e2 3e cd 61 f8 3d 1c 52 a4 3e
       0.5955285 0.44231483 0.12128029 0.32093894
000050 28 51 86 3f b5 3b d5 3d 82 bc 3c 3f c0 bf b2 3d
       1.0493517 0.10411779 0.7372514 0.0872798
000060 98 bf 56 3f ad e2 12 3f e9 b1 62 3f 14 47 28 3e
       0.838861 0.5737713 0.8855272 0.16433364
000070 a5 2b 83 3e 7e f8 12 3f e1 cc 2d 3f 78 dd fa 3e
       0.25619236 0.5741042 0.67890745 0.48997092
000080 81 e2 68 3f 3b 88 6a 3e 71 d4 ae 3e e8 0b d6 3e
       0.9097062 0.2290353 0.34146455 0.4180596
000090 d2 70 17 3f 18 54 b4 3e 88 15 1a 3f 1a f4 47 3e
       0.59156525 0.35220408 0.60189104 0.19526711
0000a0 7c b8 65 3e 90 68 0d 3f 89 f8 0d 3e 75 9b f4 3e
       0.22433656 0.55237675 0.1386434 0.47774854
0000b0 b4 cd d0 3e c9 2e c1 3e 3b 34 ce 3d 6d 89 cd 3d
       0.4078194 0.37731007 0.10068556 0.100359775
0000c0 59 c2 44 3d 5c 0d 7f ba 69 a7 1f 3f 21 4d 90 3e
       0.048036907 -0.0009729469 0.6236482 0.28183845
0000d0 df fe 13 3f 71 d5 90 3e 5a ff 28 3f 65 1b 6d 3e
       0.5781078 0.28287843 0.66014636 0.23154981
0000e0 b9 bb cc 3d 45 89 25 3f 90 ef 24 3e 79 9a 8c 3e
       0.09996743 0.6466258 0.16107011 0.27461603
0000f0 3c 0e ce 3e e2 93 9e 3e 7c f7 cf 3d 94 e1 d1 3e
       0.40245235 0.309722 0.10154626 0.40992415
000100 89 b9 9c 3d b2 1a 05 3f e6 a6 0e 3d 77 7b 1f 3e
       0.076525755 0.5199386 0.034827136 0.15574442
000110 02 fd c1 3d 69 50 18 3f 53 e2 2e 3f eb b8 e2 3e
       0.094720855 0.59497696 0.68314093 0.44281706
000120 99 8e 44 3f 2a 23 43 3d 3c 58 bf 3e 46 eb 27 3f
       0.76780087 0.047640957 0.37372005 0.65593374
000130 10 f6 0f 3d a1 67 c6 3e f5 c7 8e 3d 9c fa f8 3e
       0.035146773 0.38750938 0.069717325 0.486287
000140 81 ff 30 3e c0 5a f6 3e 51 49 31 3f 91 6f 6c 3f
       0.17284967 0.48116112 0.69252497 0.92357737
000150 f9 53 16 3f e9 52 d4 3e b8 13 b2 3e b1 8f 12 3f
       0.5872188 0.41469505 0.3478067 0.57250506
000160 c0 98 15 3f c2 f1 04 3e a5 8f 8d 3d 34 bd 08 3f
       0.58436203 0.12982848 0.06912164 0.534137
000170 03 cb f2 3e 55 a2 1b 3f 2e 9a fa 3e ea 12 84 3e
       0.4742051 0.60794574 0.48945755 0.2579568
000180 19 65 9f 3e cc 6b e7 3e 3f 6c 26 3f fc 5f 2f 3f
       0.3113182 0.4519943 0.6500892 0.68505836
000190 b1 de 24 3f ab bd d5 3e 59 da 12 3f 39 aa e0 3e
       0.644023 0.41746268 0.5736442 0.4387987
0001a0 b7 1f 1a 3d fe 7a 57 3e e2 f3 8a 3e 9b e6 bb 3e
       0.037627902 0.21043012 0.27139193 0.36699376
0001b0 1c 7f e2 3d b6 30 c7 3e 0b ae de 3e 39 13 a1 3e
       0.110594004 0.3890435 0.4349216 0.31459978
0001c0 8f 01 96 3e 80 ba 6e 3e 26 08 16 3f 69 24 f0 3d
       0.29298064 0.23313332 0.58606184 0.11725695
0001d0 17 5a 74 3e 8e 6f fd 3d ef 40 d3 3d 18 c5 67 3e
       0.23862492 0.12374793 0.103151195 0.22633779
0001e0 7a 70 4b 3f 6a e5 1b 3e c6 fa 03 3f d8 19 0d 3f
       0.794685 0.15224233 0.51554525 0.5511756
0001f0 b4 76 45 3f 09 41 fd 3e d9 d7 d3 3e 45 0c f0 3e
       0.7713425 0.4946368 0.41375616 0.4688436
000200 27 69 05 3e 8c 69 2e 3f f0 8d 04 3f ed fb 5f 3e
       0.13028394 0.681298 0.5177908 0.21873446
000210 1a 16 3d 3e f2 3e 83 3e 13 09 34 3f 5a f6 2f 3f
       0.18465462 0.2563396 0.70326346 0.6873528
000220 c3 01 d4 3e 96 01 d3 3e 8b 35 cd 3e e2 f0 15 3f
       0.41407594 0.41212147 0.40079913 0.58570683
000230 3c 8f 7c 3f 1e 43 13 3d da f3 bd 3d a9 83 89 3f
       0.9865606 0.03595268 0.092750266 1.0743304
000240 14 b0 d1 3e 93 2a 98 3d b2 54 88 3f ba 1d d6 3e
       0.4095465 0.074299954 1.0650847 0.41819555
000250 9b 6c f9 3e 6f 56 59 3d 86 c0 aa 3e 32 01 24 3e
       0.48715672 0.053060945 0.3335001 0.16016081
000260 61 b4 a1 3e f0 13 7e 3e ba 0c 4b 3f 62 1c 20 3f
       0.3158293 0.24812293 0.79316294 0.6254331
000270 23 5a b6 3e 89 85 06 3f 0b 2a 21 3f eb e2 52 3f
       0.35615644 0.5254751 0.6295478 0.823775
000280 e2 5a 15 3f 7c 2a 4d 3e 19 f4 56 3d 00 68 ec 3e
       0.583418 0.20035738 0.052478883 0.46173096
000290 4d 0d b0 3e 5f ba 0b 3e d5 ee ad 3d e2 94 95 3d
       0.34385148 0.13645314 0.08492819 0.07303788
0002a0 12 8d 0b 3f 4a d9 74 3e 6f 3e 58 3e 9d b8 58 3e
       0.5451213 0.23911014 0.21117567 0.21164174
0002b0 42 76 83 3e 55 1c 5b 3f 97 ca 0d 3f 5e 4d 1a 3e
       0.2567616 0.85590106 0.5538725 0.15068576
0002c0 cf e9 88 3e 06 e9 8d 3e 97 1b a0 3d 4a 12 84 3d
       0.26740882 0.27716845 0.07817762 0.06448801
0002d0 8e 97 0e 3e e0 d0 16 3f b9 b6 4b 3d af fe b7 3d
       0.13925001 0.5891247 0.049734805 0.08984124
0002e0 5d be 0e 3f 3a ee 3d 3f 98 19 d6 3e c8 af 19 3f
       0.5575922 0.7419163 0.418164 0.60033846
0002f0 82 61 31 3e d2 df b8 3e 41 5b 8d 3d 74 5f b6 3e
       0.17322353 0.3610826 0.06902171 0.356197
000300 f4 a5 93 3d 15 b5 7d 3e 33 5a 14 3f ea 6b 3e 3f
       0.072093874 0.24776109 0.57950133 0.74383414
000310 73 b6 51 3f b8 3e 28 3f 8e 2c 80 3d b8 d3 0f 3f
       0.8191902 0.657207 0.06258498 0.5618243
000320 af cd 14 3f 71 07 fb 3e 4a 6a 94 3e 4e 43 db 3d
       0.5812635 0.49029115 0.28987342 0.10706197
000330 2f b3 90 3e fa 31 d1 3e d2 23 bf 3e 7f 36 02 3e
       0.28261706 0.40858442 0.37332016 0.12716101
000340 4b ca 54 3f c4 94 5a 3e 0e 14 04 3f 80 e0 ce 3e
       0.83121175 0.21345812 0.515931 0.40405655
000350 2c 69 4c 3f fb 82 ca 3e 2a 7a 61 3e 49 9a a4 3e
       0.7984798 0.39553055 0.22019258 0.3214896
000360 d0 59 3d 3f 3e d9 21 3f 73 cc 06 3f 0c bd 33 3f
       0.7396517 0.6322211 0.52655715 0.7021034
000370 e2 3c 3f 3f 7a ff c4 3e 21 55 2e 3f 2d 99 d6 3e
       0.74702275 0.38476163 0.68098646 0.4191374
000380 17 3d 83 3d a0 f6 39 3e 42 29 9b 3d dc 91 1b 3f
       0.06408136 0.18160486 0.07576229 0.6076944
000390 00 0c e2 3e f1 03 00 3f 18 e3 70 3e d6 a2 0d 3f
       0.4414978 0.50006014 0.2352413 0.5532659
0003a0 85 33 79 3e 23 b8 b7 3e 3f e3 9a 3e 09 9c 80 3f
       0.2433606 0.35882673 0.302515 1.0047618
0003b0 5c 44 f5 3d 8f de db 3e 7b 9a 1e 3f 5a e2 c7 3e
       0.11975929 0.42943236 0.6195447 0.3903988
0003c0 10 e3 86 3e 80 04 19 3f 7b 1d ee 3e 4c c5 2a 3f
       0.2634511 0.5977249 0.46506867 0.667073
0003d0 22 73 ef 3e 20 8c 08 3f 42 be c9 3e fd 81 50 3e
       0.46767527 0.53338814 0.39402968 0.20362087
0003e0 48 9a 1f 3f b4 4b e6 3e 6b 1a 95 3e 4b 85 70 3e
       0.6234479 0.44979632 0.29121718 0.23488347
0003f0 8a 82 b3 3e 67 62 e5 3e 2d 56 7e 3d 61 12 ca 3e
       0.3506053 0.44801638 0.062093902 0.39467147

bn1.bias f4 [256]
000000 bf 30 b1 3d 0b 4f ba bd e1 c5 c3 bb 69 f2 44 bd
       0.08651876 -0.090971075 -0.0059745167 -0.048082743
000010 d9 c5 62 3d 79 82 03 3d 11 f9 6e 3d 4d 82 69 3d
       0.055364463 0.03210685 0.058342997 0.05700903
000020 e4 0d c2 3d b7 cd cd 3d 0d b7 21 bc 44 0c 38 bd
       0.09475306 0.100490026 -0.009870303 -0.044933572
000030 3f 7f 82 3d 8f 8e 41 3d 46 4e ce bd 27 38 1a 3e
       0.063719265 0.047255095 -0.10073523 0.15060483
000040 46 4e 85 3e 4c 06 47 bd 0c 37 c0 bd 98 c6 ae bd
       0.2603628 -0.04858999 -0.09385499 -0.085339725
000050 8d 77 af bc 25 22 a9 bd ce fb f4 3c d3 a8 94 3c
       -0.021419311 -0.08258466 0.029905226 0.018146908
000060 f6 57 ff 3d 33 d5 46 3d cb a2 a5 3d 69 1c f2 3c
       0.12467949 0.048543166 0.08087691 0.029554563
000070 1d 77 85 3d b4 71 1c 3e d6 4b 2b 3e 59 56 03 3c
       0.0651686 0.1527775 0.16728148 0.008016192
000080 74 82 b8 3d b3 55 31 3d 9f a3 ba 3d 0e 03 3e bd
       0.09009257 0.04329462 0.091132395 -0.046389632
000090 43 cc e4 bc 35 c1 be bd 3f d8 82 bd fe 65 82 3c
       -0.02792943 -0.09314195 -0.06388902 0.015917774
0000a0 8b 8e f8 bc 85 62 5a 3d 37 7c d7 3d d4 ea 29 3d
       -0.030341407 0.05331661 0.10521739 0.041483715
0000b0 21 80 a1 bd 0f 4f 6a 3d 9d 4e 9e 3d 05 7f 07 3d
       -0.07885767 0.057204302 0.07729838 0.03308012
0000c0 cc d4 89 bd ca 8d ab bd fe a1 cc 3d 06 ff 6c 3c
       -0.06730041 -0.083766535 0.09991835 0.014465099
0000d0 2a 8d cf 3d e9 32 1b 3d 82 c6 ca 3d 91 f5 43 3d
       0.10134347 0.03789035 0.099011436 0.047841612
0000e0 0e 18 90 bd 97 ba f7 3c 11 dc d1 bc 13 4f 9e 3c
       -0.07035838 0.03024034 -0.025617631 0.019324815
0000f0 ee f0 97 3d bd 84 3e bb d9 5b c3 3d 11 67 87 bb
       0.074190006 -0.0029070817 0.09539003 -0.0041321595
000100 fa aa 76 3d 0e bc 43 3d e7 e2 af 3c db 76 fa bb
       0.06022165 0.047786765 0.0214705 -0.007643563
000110 af b1 69 3d df 94 5c 3d c6 48 08 3e 9f 8a 2b 3d
       0.057054218 0.053852912 0.13309011 0.041880246
000120 0e bc 4e 3e 6d ef d7 bc e1 3d 37 3e a4 05 16 3e
       0.20188925 -0.026359284 0.17894699 0.14650589
000130 17 3d c8 3d dc 69 6d 3d fd de 30 bd e8 eb 4c bc
       0.09777277 0.057962283 -0.04318141 -0.012507416
000140 5d 97 96 3d 5a b0 76 3e ad 0d f2 3d 38 b0 38 3e
       0.07353089 0.2409071 0.11819015 0.18035972
000150 74 60 b9 bc 1b 32 be 3c 0e 35 f3 3d 41 0a 86 bc
       -0.022629 0.023217252 0.11875354 -0.016362311
000160 a6 16 2a 3e 30 40 93 3d 12 36 ee 3c 76 f5 19 bd
       0.16610202 0.07189977 0.029078517 -0.037587605
000170 24 db dc 3d 5b e9 04 3e 0a 6b 36 3d 13 25 0f bd
       0.10783985 0.12979643 0.044535674 -0.034947466
000180 d7 27 0b 3e f0 cb 64 3e 2f 2f 52 bd 97 2f 6d bb
       0.13589416 0.22343421 -0.05131453 -0.0036191696
000190 0c 27 1a 3d 5f ed 15 3e 00 6f 93 3c 6b 84 0a 3d
       0.037634894 0.14641331 0.017997265 0.03381769
0001a0 23 b5 92 3d ee 29 1c 3d b0 3e 7e bd 73 3c 19 3e
       0.07163455 0.038125925 -0.062071502 0.14964466
0001b0 d0 34 ab 3d 71 9f 32 bd f9 e5 d8 3d b0 98 bd 3a
       0.083596826 -0.043609086 0.10590739 0.001446506
0001c0 5d 35 54 bd 9b 22 81 bd 76 9b ed 3d f0 14 05 3e
       -0.051808704 -0.063054286 0.116019174 0.12996268
0001d0 3d 52 4c bb 40 ac 8e be bd 83 21 3e 06 dd 66 3c
       -0.0031176948 -0.2786579 0.1577291 0.014090782
0001e0 72 80 b5 bc e9 27 2b 3b b0 8d 17 3e 09 e6 09 be
       -0.022155974 0.0026116318 0.14800143 -0.13466658
0001f0 83 07 cb 3c 12 67 a5 3b 30 6d 3e 3e 42 0c 05 3e
       0.024783855 0.0050476873 0.18596339 0.12992957
000200 f3 aa 83 3d 9b 0f de bc 57 4d e1 3c 5f 61 22 be
       0.0642909 -0.02710705 0.027502699 -0.15857457
000210 ae 88 9e 3d fd 90 87 3e 7e 65 f8 3d e1 bb 2e 3d
       0.07740913 0.26477805 0.12128733 0.042659644
000220 13 3e 65 3e 37 cc f4 3c 98 22 cc 3c b5 c6 e9 bd
       0.2238696 0.029882533 0.02491884 -0.114148535
000230 13 aa 0e 3e 57 77 29 bc 40 e1 ec bc 97 53 1f 3d
       0.13932066 -0.010343394 -0.028916001 0.038898077
000240 30 e0 bf 3d 15 76 1c bd 8d ef 81 3d 69 bf 10 bd
       0.09368932 -0.03819855 0.06344519 -0.035338793
000250 94 4f c0 3d cc 6d 21 3e 77 1b f0 3c f9 31 bd 3c
       0.09390178 0.1576454 0.029309971 0.023095118
000260 b4 27 a4 3d 8f aa b5 3d a9 c9 14 3e fb 9a c0 bc
       0.08015385 0.08870422 0.14530052 -0.0235114
000270 2b 94 12 3e 58 42 d0 3c 59 06 c0 bd 92 6d 2d 3d
       0.14314334 0.02542226 -0.09376211 0.042340823
000280 0c 57 0b bd 4c 91 b9 3d fb 17 11 3e 7d 03 94 bd
       -0.03401856 0.09060916 0.14169304 -0.07227228
000290 a5 a1 4d 3d 78 72 ab bd e4 00 7f 3d b5 1c 61 bd
       0.050202984 -0.083714426 0.06225671 -0.054959018
0002a0 1f 82 c8 3d 5c ae 2f be 96 92 7c 3d 78 d2 0d 3e
       0.09790444 -0.17156357 0.061663233 0.13849819
0002b0 96 d4 66 3e 15 7c 28 3e b3 35 21 3d 34 60 c7 bd
       0.22542033 0.16453584 0.039357852 -0.09735146
0002c0 c2 e0 c4 3c 10 9f 43 3d 09 da 1e 3c eb 83 90 3d
       0.024032954 0.047759116 0.009695538 0.07056411
0002d0 eb 1b 9d bb 49 0b 52 bd 34 54 c8 bd b3 a1 bd 3d
       -0.004794588 -0.051280294 -0.097816855 0.09259357
0002e0 31 67 92 bc 96 60 4e 3e 21 36 4f bd 76 26 6a bd
       -0.017871471 0.20154032 -0.05058873 -0.057165585
0002f0 51 4a aa 3d 3e ff cb bc 39 73 f4 bd 3f c0 1a 3e
       0.08314956 -0.024901982 -0.119360395 0.15112399
000300 b0 f6 17 3e 84 52 12 3e 54 07 53 3d e3 00 57 bd
       0.14840198 0.1428929 0.05152066 -0.05249108
000310 2e 5b 96 bc d6 cc b7 3d 65 fa f4 3d 2b ec 61 3d
       -0.018354025 0.08974616 0.119618215 0.055156868
000320 0c bc ee bc 68 01 ea 3d 0f e8 c2 bc 8a eb 80 3d
       -0.029142402 0.114260495 -0.023792295 0.062949255
000330 15 cb 2e 3d ca 3a e1 3d 5c 8b 29 3d cf 2b e7 3d
       0.042674143 0.10997541 0.04139267 0.11287653
000340 d5 f9 27 3d 89 ca 45 3d 7f 28 1e 3d 59 d5 3c 3e
       0.041009743 0.048288856 0.03861284 0.1844076
000350 e0 f1 ed bd 17 7d 93 3d 6e 54 aa 3d 22 43 26 3d
       -0.116183996 0.07201593 0.08316885 0.040591367
000360 65 38 43 bd 3a a4 fd 3d 2f c5 8e 3d 3d aa 36 3c
       -0.047661204 0.12384839 0.069712035 0.011148986
000370 96 cb e0 3d d0 17 4d bd e1 22 f5 3d b1 a1 47 3d
       0.10976331 -0.050071537 0.11969543 0.048738185
000380 c6 2b 3a bd 45 4d 0e 3e ef b4 9a 3d b7 68 0c 3e
       -0.0454519 0.13896663 0.075540416 0.1371182
000390 be fe 28 3e c0 69 4b 3c e6 ac f5 3d dc d4 bd 3c
       0.16503426 0.0124153495 0.119958684 0.023172788
0003a0 4b 41 85 3b 3d 8c f4 3d a1 5c 56 3e 1a dd cb 3d
       0.0040666214 0.11940811 0.20933773 0.09954281
0003b0 af 15 90 bd 73 15 3d 3d 79 60 88 3d 01 3d 68 3d
       -0.07035386 0.046163034 0.06659026 0.056698803
0003c0 65 62 a7 3d ac f9 8e 3c 2a 48 a3 bd 9c 9e 12 bb
       0.08173064 0.017453037 -0.079727486 -0.002237237
0003d0 38 17 74 3e 54 06 de 3d fb 28 bb 3d c6 81 82 3d
       0.23836982 0.10841051 0.09138676 0.063724086
0003e0 9a 85 2e 3e 4d a6 a0 3b e2 32 13 3d 6a d0 89 3d
       0.17043152 0.004902637 0.035937198 0.06729205
0003f0 1d 03 62 3d af 96 a3 3d 9a 3c bb bd 42 9e ef bc
       0.05517875 0.07987725 -0.09142418 -0.029250268
