p2_continuous-control/checkpoint_critic.pth (torch_old, 435425 bytes, 7 tensors)

fc1.weight f4 [256, 33]
1.58763e-40 1.2184e-40 9.942e-41 -3.07539e-40 1.56458e-40 -1.22779e-40 -1.731e-40 1.63665e-40
-1.41765e-40 1.96854e-40 1.32194e-40 -1.75832e-40 -1.22175e-40 -5.5606e-41 1.27354e-40 2.99088e-40
-4.693e-42 -1.39017e-40 -1.94329e-40 2.18303e-40 1.68192e-40 -4.332e-41 1.84283e-40 -1.28027e-40
7.8937e-41 -1.72838e-40 2.17654e-40 -5.2619e-41 1.16727e-40 -7.6962e-41 4.5255e-41 4.3258e-41
-1.705e-41 -2.30871e-40 9.0693e-41 2.61736e-40 1.17615e-40 1.1038e-40 4.3044e-41 -1.93242e-40
2.46554e-40 3.983e-41 1.3869e-40 9.427e-42 -9.6432e-41 -2.23146e-40 2.01947e-40 1.37413e-40
1.0965e-40 1.20024e-40 9.2207e-41 -8.0324e-41 2.54588e-40 -1.5057e-40 -1.91272e-40 -6.9038e-41
8.717e-41 2.70727e-40 -1.05456e-40 -2.32184e-40 2.18692e-40 -1.71351e-40 -2.21247e-40 -1.43336e-40
5.6384e-41 -1.12143e-40 -9.8356e-41 -1.43514e-40 1.09511e-40 -1.02448e-40 1.74752e-40 -5.9964e-41
-1.54967e-40 1.52195e-40 -1.0477e-40 2.5498e-40 1.25978e-40 -1.85261e-40 1.32979e-40 -2.12106e-40
2.32432e-40 -1.53694e-40 -5.472e-42 2.42859e-40 -1.08346e-40 2.31324e-40 1.79928e-40 6.2854e-41
-8.4268e-41 -1.14178e-40 -7.3801e-41 -8.8723e-41 6.4413e-41 6.1205e-41 6.7466e-41 1.99783e-40
1.4857e-41 -7.2768e-41 -1.39258e-40 -1.95831e-40 1.07684e-40 -2.17025e-40 1.82617e-40 -1.59664e-40
-1.08699e-40 1.95156e-40 -1.67564e-40 -1.16298e-40 9.4195e-41 1.87725e-40 1.1093e-40 -6.7529e-41
1.1366e-40 1.1366e-41 -2.38414e-40 2.3757e-40 1.9256e-40 1.8672e-41 -1.6293e-40 1.24683e-40
1.89841e-40 -1.34066e-40 -1.77683e-40 9.8663e-41 -3.57e-41 -1.28412e-40 -1.75618e-40 2.3337e-40
8.7522e-41 8.3063e-41 -9.0681e-41 -9.7406e-41 -1.85951e-40 1.576e-41 2.24059e-40 1.839e-41
-3.15095e-40 1.57633e-40 -1.24239e-40 -4.1368e-41 -6.1226e-41 1.53641e-40 1.33987e-40 -2.13671e-40
-1.6502e-41 1.72204e-40 -1.30796e-40 1.28708e-40 -2.26276e-40 -2.20103e-40 -9.129e-41 3.4451e-41
5.7965e-41 2.63666e-40 1.43508e-40 -2.19226e-40 -1.384e-41 1.78661e-40 -1.78046e-40 -9.984e-42
9.4191e-41 -1.99967e-40 -2.23752e-40 -1.27856e-40 -2.9502e-41 1.40584e-40 4.5182e-41 -1.92896e-40
7.902e-42 2.7809e-41 2.21786e-40 -2.31827e-40 -1.28282e-40 -4.4877e-41 -2.66841e-40 1.20439e-40
1.18623e-40 1.56393e-40 2.1286e-41 -2.09689e-40 2.84206e-40 -9.9197e-41 4.6184e-41 1.54597e-40
-1.38221e-40 -9.0384e-41 -1.31642e-40 2.3458e-41 1.15555e-40 -1.21267e-40 -1.45678e-40 1.16332e-40
4.9855e-41 -1.83642e-40 -1.13934e-40 2.39715e-40 9.5122e-41 7.6511e-41 4.6257e-41 1.69322e-40
-5.932e-42 -1.05043e-40 5.3158e-41 1.80549e-40 -5.2563e-41 2.72288e-40 1.80594e-40 -1.05634e-40
2.05324e-40 -1.6632e-40 -1.94605e-40 1.2082e-40 -1.43762e-40 1.56071e-40 1.77664e-40 1.64594e-40
2.5778e-41 2.09256e-40 1.06141e-40 -1.425e-41 6.8552e-41 -2.36468e-40 5.2484e-41 2.02318e-40
3.0701e-41 5.8777e-41 -1.53393e-40 -1.06867e-40 1.45728e-40 1.4668e-40 2.06404e-40 -2.00807e-40
3.38209e-40 9.299e-42 -1.64015e-40 2.71538e-40 -9.1367e-41 -2.38411e-40 -1.98767e-40 -7.99e-43
3.592e-41 2.51051e-40 -1.491e-42 2.9041e-40 -1.29217e-40 -1.27738e-40 1.75073e-40 -4.198e-42
-6.132e-41 -2.24125e-40 2.73608e-40 8.0621e-41 7.1281e-41 1.15387e-40 1.02424e-40 -1.7378e-41
00000000: 91ba 0100 a453 0100 2415 0100 4b59 0380
00000010: 24b4 0100 4256 0180 88e2 0180 3bc8 0100
00000020: 2f8b 0180 c024 0200 8170 0100 26ea 0180
00000030: 9354 0180 029b 0080 0363 0100 bc41 0300
00000040: 150d 0080 8683 0180 b61d 0280 8a60 0200
00000050: dad4 0100 c278 0080 b501 0200 e364 0180
00000060: 0bdc 0000 cde1 0180 bb5e 0200 ae92 0080
00000070: 6345 0100 8ad6 0080 277e 0000 9678 0000
00000080: 872f 0080 9383 0280 d1fc 0000 9dd9 0200
00000090: dd47 0100 b233 0100 fd77 0000 ae1a 0280
000000a0: 4baf 0200 086f 0000 9c82 0100 471a 0000
000000b0: d00c 0180 0a6e 0280 f232 0200 0d7f 0100
000000c0: a931 0100 944e 0100 0901 0100 e9df 0080
000000d0: b0c5 0200 baa3 0180 3015 0280 73c0 0080
000000e0: fff2 0000 adf2 0200 f825 0180 3c87 0280
000000f0: a061 0200 a8dd 0180 bf68 0280 908f 0180
00000100: 2d9d 0000 9c38 0180 2d12 0180 0f90 0180
00000110: 4631 0100 951d 0180 23e7 0100 28a7 0080
00000120: fcaf 0180 42a8 0100 0e24 0180 c8c6 0200
00000130: 2d5f 0100 6f04 0280 b172 0100 444f 0280
00000140: ed87 0200 70ac 0180 410f 0080 fea4 0200
00000150: 062e 0180 d684 0200 91f5 0100 36af 0000
00000160: e8ea 0080 483e 0180 bacd 0080 53f7 0080
00000170: 8fb3 0000 9daa 0000 11bc 0000 ea2c 0200
00000180: 6a29 0000 d9ca 0080 3284 0180 e621 0280
00000190: 2e2c 0100 fa5c 0280 10fd 0100 14bd 0180
000001a0: 022f 0180 0420 0200 1ad3 0180 3144 0180
000001b0: 9406 0100 4d0b 0200 3a35 0100 3ebc 0080
000001c0: d63c 0100 af1f 0000 9a98 0280 4096 0200
000001d0: c718 0200 0d34 0000 2fc6 0180 915b 0100
000001e0: 3311 0200 b975 0180 4fef 0180 0813 0100
000001f0: 8463 0080 f665 0180 8de9 0180 8a8a 0200
00000200: faf3 0000 8ce7 0000 c8fc 0080 870f 0180
00000210: 5b06 0280 ef2b 0000 9670 0200 4433 0000
00000220: 5b6e 0380 6bb7 0100 545a 0180 5173 0080
00000230: acaa 0080 4aac 0100 8075 0100 a153 0280
00000240: 002e 0080 09e0 0100 9b6c 0180 c966 0100
00000250: c476 0280 8f65 0280 7bfe 0080 0960 0000
00000260: 95a1 0000 fede 0200 0b90 0100 1d63 0280
00000270: 9526 0080 09f2 0100 52f0 0180 d51b 0080
00000280: 9106 0100 6d2d 0280 bb6f 0280 6964 0180
00000290: 3d52 0080 e487 0100 f37d 0000 b719 0280
000002a0: 0716 0000 854d 0000 406a 0200 3d86 0280
000002b0: 9965 0180 197d 0080 d8e7 0280 bc4f 0100
000002c0: ac4a 0100 f6b3 0100 563b 0000 8748 0280
000002d0: 4018 0300 8514 0180 be80 0000 f4ae 0100
000002e0: 4e81 0180 f4fb 0080 f76e 0180 6441 0000
000002f0: 1f42 0100 0b52 0180 1796 0180 4944 0100
00000300: fa8a 0000 ebff 0180 9a3d 0180 3a9c 0200
00000310: 2909 0100 48d5 0000 f280 0000 00d8 0100
00000320: 8910 0080 d124 0180 2f94 0000 4cf7 0100
00000330: 8692 0080 07f7 0200 6cf7 0100 7726 0180
00000340: 5c3c 0200 a2cf 0180 7b1e 0280 cc50 0100
00000350: c090 0180 10b3 0100 41ef 0100 d2ca 0100
00000360: dc47 0000 5247 0200 e127 0100 b927 0080
00000370: 18bf 0000 2d93 0280 4e92 0000 fb33 0200
00000380: 9555 0000 d9a3 0000 99ab 0180 e729 0180
00000390: 3b96 0100 e298 0100 5f3f 0200 c52f 0280
000003a0: caae 0300 ec19 0000 35c9 0180 f0f4 0200
000003b0: b2fe 0080 9898 0280 152a 0280 3a02 0080
000003c0: 2164 0000 d4bb 0200 2804 0080 8c29 0300
000003d0: 3468 0180 1564 0180 08e8 0100 b40b 0080
000003e0: efaa 0080 c570 0280 b5fa 0200 bde0 0000
000003f0: b4c6 0000 a741 0100 841d 0100 7130 0080

fc1.bias f4 [256]
-1.49552e-40 -5.7003e-41 -6.0388e-41 -1.19549e-40 1.17653e-40 2.007e-42 1.47893e-40 -1.8004e-41
2.88128e-40 2.85303e-40 -4.2248e-41 1.7714e-40 -1.7847e-41 -1.46053e-40 -4.2429e-41 -6.2634e-41
8.989e-41 5.6313e-41 -5.236e-41 -2.52077e-40 -1.07805e-40 1.14859e-40 -3.32045e-40 1.19052e-40
-1.77701e-40 -1.50637e-40 8.4567e-41 -1.62419e-40 -3.1263e-40 -1.24274e-40 3.0128e-41 -1.31114e-40
-8.6477e-41 9.646e-41 -1.28834e-40 -1.13083e-40 1.25142e-40 -2.35533e-40 6.2697e-41 -2.8256e-41
1.6542e-40 1.92928e-40 -1.79219e-40 9.437e-41 -3.52e-42 -2.23336e-40 -8.6389e-41 2.26612e-40
-1.46235e-40 -1.20327e-40 -2.54665e-40 2.55342e-40 -1.582e-41 -1.67916e-40 8.6118e-41 1.3351e-40
2.20308e-40 1.61469e-40 1.39401e-40 9.868e-41 -2.13628e-40 -2.17046e-40 -6.0882e-41 -2.01822e-40
1.06087e-40 -5.204e-41 2.678e-42 2.26283e-40 1.06752e-40 -3.3857e-41 2.42699e-40 1.14877e-40
-1.71044e-40 -6.803e-42 -2.35802e-40 1.50369e-40 1.23792e-40 -2.12794e-40 -3.5363e-41 -1.24295e-40
-8.719e-42 1.86647e-40 3.6843e-41 -9.3353e-41 2.6201e-41 -4.8559e-41 1.75347e-40 1.10436e-40
-2.19424e-40 9.1412e-41 -2.49898e-40 -2.71185e-40 -7.4635e-41 5.414e-41 -2.96396e-40 -1.08046e-40
-1.24936e-40 2.1999e-40 -2.42014e-40 -7.791e-42 1.18548e-40 7.68e-43 -3.797e-41 9.0363e-41
1.03088e-40 8.628e-41 -2.87073e-40 1.55313e-40 -1.59818e-40 -5.5206e-41 2.52651e-40 1.23707e-40
1.35018e-40 -2.09218e-40 -1.48599e-40 1.8774e-40 8.1933e-41 7.86e-43 2.4526e-40 3.9044e-41
-1.2179e-40 -1.73576e-40 7.2988e-41 8.3114e-41 -7.7195e-41 1.15115e-40 1.96974e-40 -1.6733e-41
-2.3138e-40 -2.38135e-40 1.7415e-41 -2.00625e-40 -3.12382e-40 1.24511e-40 -4.62e-43 1.40721e-40
-1.45169e-40 -2.0401e-40 -1.36924e-40 1.56688e-40 8.2179e-41 1.75423e-40 -1.76237e-40 3.887e-41
-2.77575e-40 -2.2089e-41 3.0177e-41 1.8585e-40 -1.82844e-40 3.6232e-41 -1.997e-42 1.47836e-40
8.5972e-41 1.52076e-40 1.1547e-40 1.6955e-40 1.3928e-40 -3.1096e-40 1.15945e-40 -1.48843e-40
2.60231e-40 -1.5269e-41 8.786e-41 -8.661e-42 1.939e-41 -1.30144e-40 -1.0346e-40 2.27427e-40
6.7419e-41 -3.345e-41 -1.43501e-40 2.56934e-40 1.9293e-41 -6.8675e-41 1.76271e-40 -2.20943e-40
-2.3337e-40 1.75007e-40 -6.2623e-41 2.31427e-40 -9.9992e-41 -1.9845e-40 2.297e-42 1.07094e-40
2.9179e-40 2.1284e-41 9.0862e-41 -1.98285e-40 -1.41767e-40 1.93008e-40 -5.388e-42 3.115e-41
2.20307e-40 -1.909e-41 2.15986e-40 2.21159e-40 5.3118e-41 1.5166e-40 -1.38598e-40 -1.15474e-40
1.65507e-40 2.01039e-40 -2.409e-40 -7.1955e-41 2.07249e-40 1.3269e-41 -1.1557e-41 -2.517e-41
-1.58523e-40 2.5745e-41 5.7655e-41 -2.39912e-40 2.01755e-40 -1.58448e-40 -3.0237e-41 1.2498e-41
1.59874e-40 -2.14848e-40 2.16459e-40 -1.60241e-40 2.17847e-40 -1.06472e-40 -3.3368e-41 1.10036e-40
3.0258e-41 1.72613e-40 1.08933e-40 3.514e-41 -3.1238e-41 1.41035e-40 1.56295e-40 -2.2451e-40
1.449e-40 8.1471e-41 -3.09381e-40 8.191e-41 -8.8067e-41 1.23383e-40 4.2898e-41 -4.698e-41
-2.36501e-40 1.86894e-40 -1.98057e-40 -2.8977e-40 8.439e-42 2.564e-41 9.4686e-41 1.47274e-40
1.76834e-40 6.0194e-41 1.72588e-40 1.15984e-40 3.2202e-41 4.1138e-41 -1.26298e-40 1.26888e-40
00000000: e4a0 0180 e79e 0080 56a8 0080 414d 0180
00000010: f847 0100 9805 0000 449c 0100 3032 0080
00000020: 2f23 0300 4f1b 0300 c575 0080 cbed 0100
00000030: c031 0080 2397 0180 4676 0080 99ae 0080
00000040: 94fa 0000 fa9c 0000 f591 0080 b0be 0280
00000050: 842c 0180 2e40 0100 9b9d 0380 de4b 0100
00000060: 5cef 0180 eaa3 0180 bdeb 0000 c2c4 0180
00000070: 7c67 0380 6d5a 0180 fc53 0000 7e6d 0180
00000080: 10f1 0080 e40c 0100 2367 0180 3b3b 0180
00000090: d85c 0100 9290 0280 c6ae 0000 c44e 0080
000000a0: 20cd 0100 ce19 0200 97f3 0180 1107 0100
000000b0: d009 0080 926e 0280 d1f0 0080 b477 0200
000000c0: a597 0180 6c4f 0180 e7c5 0280 cac7 0200
000000d0: 1a2c 0080 15d4 0180 10f0 0000 2c74 0100
000000e0: 2166 0200 1cc2 0100 9884 0100 1413 0100
000000f0: 8253 0280 095d 0280 b7a9 0080 9932 0280
00000100: ba27 0100 1191 0080 7707 0000 c976 0200
00000110: 9529 0100 615e 0080 8ca4 0200 3b40 0100
00000120: cddc 0180 f712 0080 5291 0280 2ba3 0100
00000130: 1559 0100 2f51 0280 9462 0080 7c5a 0180
00000140: 4e18 0080 4c08 0200 b466 0000 3b04 0180
00000150: 0a49 0000 5d87 0080 cce8 0100 da33 0100
00000160: aa63 0280 d2fe 0000 9db8 0280 f4f3 0280
00000170: 0dd0 0080 ec96 0000 3b3a 0380 302d 0180
00000180: 455c 0180 3e65 0200 a3a2 0280 b815 0080
00000190: 774a 0100 2402 0000 d869 0080 e5fb 0000
000001a0: 5e1f 0100 83f0 0000 3e20 0380 f3b0 0100
000001b0: 82bd 0180 e499 0080 4ac0 0200 d858 0100
000001c0: 6078 0100 3747 0280 3c9e 0180 580b 0200
000001d0: 65e4 0000 3102 0000 afab 0200 d76c 0000
000001e0: 8053 0180 dce3 0180 76cb 0000 b0e7 0000
000001f0: 30d7 0080 e540 0100 1525 0200 a52e 0080
00000200: fe84 0280 d397 0280 8c30 0000 432f 0280
00000210: cb66 0380 165b 0100 4a01 0080 4688 0100
00000220: ac94 0180 b238 0280 b07d 0180 c8b4 0100
00000230: 15e5 0000 02e9 0100 47eb 0180 5b6c 0000
00000240: c405 0380 933d 0080 1f54 0000 1306 0200
00000250: b2fd 0180 0065 0000 9105 0080 1b9c 0100
00000260: a8ef 0000 eda7 0100 e241 0100 a3d8 0100
00000270: 4284 0100 d462 0380 3543 0100 ea9e 0180
00000280: 6bd5 0200 902a 0080 ebf4 0000 2518 0080
00000290: 0d36 0000 ca6a 0180 6820 0180 f979 0200
000002a0: f0bb 0000 3f5d 0080 0690 0180 3acc 0200
000002b0: c835 0000 70bf 0080 5feb 0100 e667 0280
000002c0: 8a8a 0280 d9e7 0100 91ae 0080 2085 0200
000002d0: bd16 0180 3329 0280 6706 0000 892a 0100
000002e0: 642d 0300 553b 0000 49fd 0000 bd28 0280
000002f0: 308b 0180 071a 0200 050f 0080 d556 0000
00000300: 2066 0200 3735 0080 155a 0200 8068 0200
00000310: 1294 0000 c4a6 0100 5b82 0180 e541 0180
00000320: 5ecd 0100 6a30 0200 889f 0280 95c8 0080
00000330: ba41 0200 fd24 0000 3720 0080 2a46 0080
00000340: e6b9 0180 c447 0000 b8a0 0000 c79c 0280
00000350: 6932 0200 b0b9 0180 4a54 0080 d722 0000
00000360: aabd 0100 e956 0280 665b 0200 b0be 0180
00000370: 455f 0200 cd28 0180 045d 0080 bc32 0100
00000380: 5954 0000 2de1 0100 a92f 0100 f561 0000
00000390: 1457 0080 2689 0100 b0b3 0100 d871 0280
000003a0: ec93 0100 1ce3 0000 6e5e 0380 55e4 0000
000003b0: 7ff5 0080 f157 0100 9577 0000 f682 0080
000003c0: 4593 0280 fc08 0200 1a28 0280 c327 0380
000003d0: 8617 0000 7947 0000 f207 0100 8a9a 0100
000003e0: f1ec 0100 cca7 0000 1be1 0100 5143 0100
000003f0: c459 0000 ad72 0000 1160 0180 b661 0100

fc2.weight f4 [256, 260]
-1.03475e-40 1.81544e-40 1.08864e-40 -1.27675e-40 -1.12879e-40 5.287e-42 1.29123e-40 -1.253e-41
1.20603e-40 4.7532e-41 -1.60429e-40 1.41541e-40 -2.22134e-40 1.01656e-40 -1.59515e-40 -1.80919e-40
-1.54789e-40 -1.30179e-40 1.14957e-40 2.09599e-40 -2.48906e-40 -7.3878e-41 -4.226e-41 1.80707e-40
2.33927e-40 1.58411e-40 1.56615e-40 -1.38377e-40 2.52674e-40 -1.06971e-40 -6.3542e-41 -1.62053e-40
-5.478e-41 -2.19295e-40 1.20299e-40 -2.19309e-40 1.3919e-41 -5.4466e-41 2.8057e-40 1.69463e-40
-2.05208e-40 -2.68325e-40 -1.41198e-40 1.6536e-40 1.12021e-40 -1.90708e-40 -2.7833e-41 1.7673e-41
1.14661e-40 -3.3715e-41 9.3378e-41 1.61732e-40 3.7579e-41 -2.3547e-40 1.64458e-40 -2.7499e-41
1.71516e-40 -2.27455e-40 -5.1178e-41 1.4619e-40 -1.53334e-40 -3.12984e-40 -8.0126e-41 -2.7534e-41
2.22114e-40 9.664e-41 -1.85957e-40 3.493e-41 1.7853e-40 1.60934e-40 8.3335e-41 -1.07096e-40
-1.43689e-40 1.36763e-40 -2.24133e-40 1.78978e-40 -2.16223e-40 -1.3728e-40 -2.26982e-40 -1.452e-40
-1.28032e-40 2.33866e-40 1.2399e-40 -2.1773e-41 -1.8179e-41 2.22556e-40 2.3697e-40 2.1328e-40
-1.3305e-41 -2.14638e-40 -1.67095e-40 1.18365e-40 7.5634e-41 1.91119e-40 -2.22619e-40 1.84987e-40
1.5394e-40 -2.33364e-40 -1.80699e-40 1.15482e-40 7.7751e-41 -1.09636e-40 -1.46031e-40 -2.49e-41
-7.2684e-41 -6.3486e-41 -2.53367e-40 1.5136e-40 1.76614e-40 1.41171e-40 -2.12538e-40 2.754e-41
9.1652e-41 1.75204e-40 -3.6396e-41 -8.4074e-41 -1.53619e-40 -2.97e-41 -9.3291e-41 -1.90414e-40
1.92311e-40 3.0878e-41 -1.74149e-40 -1.54073e-40 1.85275e-40 1.259e-40 1.37357e-40 -7.8135e-41
2.30211e-40 6.4624e-41 -2.55035e-40 2.42925e-40 1.016e-42 -2.16569e-40 -1.35335e-40 2.43844e-40
-6.9586e-41 2.6389e-41 -1.20768e-40 -6.4924e-41 -6.3381e-41 6.5188e-41 2.25064e-40 -1.86404e-40
-7.4284e-41 -2.96724e-40 1.22489e-40 4.4892e-41 -1.7177e-40 1.9195e-41 -1.88552e-40 -4.4374e-41
1.27337e-40 -2.6384e-40 -1.25209e-40 1.7952e-40 2.32906e-40 2.71958e-40 -7.8356e-41 -1.27283e-40
1.01929e-40 -1.6721e-40 -9.5346e-41 1.65062e-40 -1.4026e-41 -1.72398e-40 -1.78055e-40 1.19001e-40
2.04527e-40 -1.37624e-40 9.3869e-41 1.9437e-40 1.50226e-40 6.7847e-41 1.3516e-40 -2.33269e-40
2.7056e-41 -1.51343e-40 2.17109e-40 -1.16351e-40 -9.703e-41 -8.1651e-41 8.2423e-41 2.04158e-40
-1.89042e-40 -1.01256e-40 9.0642e-41 -3.531e-42 1.39012e-40 9.8972e-41 -1.45319e-40 -2.65152e-40
1.74106e-40 1.84299e-40 -6.2396e-41 3.5323e-41 1.551e-42 -1.1664e-40 2.81186e-40 -1.01576e-40
-1.7829e-40 -2.23496e-40 8.8858e-41 2.965e-41 -1.11838e-40 1.38326e-40 1.3238e-40 -8.134e-41
-9.6988e-41 -1.27287e-40 1.70123e-40 3.581e-41 -5.7239e-41 -3.432e-42 1.62112e-40 5.0259e-41
-1.2377e-40 1.78794e-40 1.3607e-40 1.98987e-40 -6.7796e-41 -1.84765e-40 8.3799e-41 -1.66145e-40
-1.60655e-40 2.33255e-40 -1.44349e-40 -1.19305e-40 2.265e-41 -9.5995e-41 -1.57116e-40 1.4551e-40
2.75815e-40 1.8577e-40 -5.9205e-41 -2.51148e-40 3.0515e-41 -2.08487e-40 -8.6694e-41 2.4834e-40
-1.0605e-41 -2.20242e-40 1.33919e-40 -3.858e-41 -1.00784e-40 1.16e-40 -3.06514e-40 1.17483e-40
-2.16307e-40 -2.37844e-40 -1.09149e-40 2.115e-40 2.20775e-40 -3.7712e-41 -4.945e-42 -6.395e-41
00000000: 7220 0180 12fa 0100 782f 0100 e863 0180
00000010: a93a 0180 bd0e 0000 f167 0100 ee22 0080
00000020: 3150 0100 8084 0000 36bf 0180 8f8a 0100
00000030: 386b 0280 601b 0100 aabc 0180 54f8 0180
00000040: 7daf 0180 e36a 0180 7440 0100 4748 0200
00000050: d9b5 0280 f1cd 0080 ce75 0080 bdf7 0100
00000060: 188c 0200 96b9 0100 94b4 0100 bd81 0180
00000070: 5ac0 0200 312a 0180 21b1 0080 bdc3 0180
00000080: b498 0080 4e63 0280 584f 0100 5863 0280
00000090: cd26 0000 d497 0080 1d0e 0300 65d8 0100
000000a0: 093c 0280 fbeb 0280 9a89 0180 f5cc 0100
000000b0: 4538 0100 9e13 0280 964d 0080 4431 0000
000000c0: a13f 0100 fc5d 0080 4d04 0100 d8c2 0100
000000d0: c168 0000 6590 0280 71ca 0100 a84c 0080
000000e0: 1ede 0100 0d7a 0280 aa8e 0080 8597 0100
000000f0: 6fab 0180 7968 0380 5cdf 0080 c14c 0080
00000100: 2a6b 0200 650d 0100 5f06 0280 5f61 0000
00000110: abf1 0100 9ec0 0100 4ee8 0000 8a2a 0180
00000120: 8c90 0180 3d7d 0100 cb70 0280 ebf2 0100
00000130: be5a 0280 ae7e 0180 bc78 0280 c294 0180
00000140: e764 0180 ec8b 0200 a259 0100 b23c 0080
00000150: ad32 0080 656c 0200 9394 0200 8a52 0200
00000160: 1725 0080 5356 0280 cbd1 0180 f449 0100
00000170: d6d2 0000 c314 0200 926c 0280 ab03 0200
00000180: 1fad 0100 868a 0280 b7f7 0180 eb41 0100
00000190: bdd8 0000 9f31 0180 1397 0180 6945 0080
000001a0: 9dca 0080 f9b0 0080 49c2 0280 eea5 0100
000001b0: 54ec 0100 8789 0100 7850 0280 c54c 0000
000001c0: 7dff 0000 66e8 0100 7565 0080 5dea 0080
000001d0: 3aac 0180 cb52 0080 0f04 0180 cc12 0280
000001e0: 1618 0200 1356 0000 75e5 0180 7ead 0180
000001f0: 7904 0200 f55e 0100 e57e 0100 cfd9 0080
00000200: bc81 0200 25b4 0000 efc6 0280 2da5 0200
00000210: d502 0000 b55b 0280 4279 0180 bda7 0200
00000220: fac1 0080 9049 0000 a750 0180 fbb4 0080
00000230: aeb0 0080 b8b5 0000 6373 0200 9e07 0280
00000240: 13cf 0080 253b 0380 7355 0100 247d 0000
00000250: d3de 0180 8235 0000 9b0d 0280 b27b 0080
00000260: f762 0100 7bdf 0280 085d 0180 6ef4 0100
00000270: 3f89 0200 1cf6 0200 6dda 0080 d062 0180
00000280: 231c 0100 1dd2 0180 c909 0180 20cc 0100
00000290: 1927 0080 93e0 0180 58f0 0180 ba4b 0100
000002a0: 233a 0200 a47f 0180 ab05 0100 d31d 0200
000002b0: c5a2 0100 21bd 0000 c578 0100 428a 0280
000002c0: 6c4b 0000 e2a5 0180 365d 0200 5744 0180
000002d0: 7b0e 0180 9ce3 0080 c3e5 0000 1c39 0200
000002e0: f90e 0280 431a 0180 acfc 0000 d809 0080
000002f0: 8283 0100 e513 0100 1795 0180 23e3 0280
00000300: 56e5 0100 c001 0200 efad 0080 7762 0000
00000310: 5304 0000 2545 0180 d50f 0300 271b 0180
00000320: 00f1 0180 046f 0280 b3f7 0000 a752 0000
00000330: c237 0180 9981 0100 0671 0100 bee2 0080
00000340: 5d0e 0180 d362 0180 3cda 0100 d363 0000
00000350: 8f9f 0080 9109 0080 e7c3 0100 1a8c 0000
00000360: 0559 0180 68f2 0100 4f7b 0100 b22a 0200
00000370: fdbc 0080 0d03 0280 99e9 0000 25cf 0180
00000380: d7bf 0180 388a 0200 6392 0180 934c 0180
00000390: 243f 0000 980b 0180 fab5 0180 9f95 0100
000003a0: dc00 0300 da05 0200 0aa5 0080 19bc 0280
000003b0: 1055 0000 2d45 0280 abf1 0080 45b4 0200
000003c0: 901d 0080 f265 0280 5075 0100 8c6b 0080
000003d0: f218 0180 5c43 0100 7056 0380 7f47 0100
000003e0: fa5a 0280 0397 0280 4330 0180 934d 0200
000003f0: 6e67 0200 2069 0080 c90d 0080 44b2 0080

fc2.bias f4 [256]
-4.9345e-41 -2.63625e-40 -3.7695e-41 1.033e-40 -2.0459e-41 6.6772e-41 4.8149e-41 -7.4905e-41
9.2196e-41 2.59471e-40 -9.6306e-41 -2.31514e-40 1.82616e-40 -1.54102e-40 -5.8372e-41 8.3777e-41
5.35e-41 -1.75301e-40 -6.6186e-41 -1.21448e-40 1.062e-40 -1.78031e-40 1.55907e-40 2.50451e-40
-1.27562e-40 9.526e-42 -2.27952e-40 5.1994e-41 -2.01823e-40 2.2407e-41 -5.605e-42 -2.1071e-40
3.1417e-41 -7.6704e-41 -1.19496e-40 -2.63694e-40 1.32591e-40 -3.702e-42 -1.35033e-40 -1.99839e-40
2.312e-41 1.85425e-40 -2.81554e-40 1.40836e-40 -9.4827e-41 -8.703e-41 1.71623e-40 -5.0838e-41
1.4162e-40 -1.036e-42 2.13833e-40 -8.464e-41 -5.9523e-41 -1.46863e-40 7.8683e-41 -1.22329e-40
-1.11037e-40 -3.9829e-41 5.809e-41 -2.43795e-40 1.5336e-40 1.17108e-40 1.41846e-40 1.99651e-40
1.7333e-40 -2.5477e-41 -1.89467e-40 -1.49221e-40 2.36172e-40 1.7832e-41 -8.7222e-41 -8.8991e-41
-1.29672e-40 2.4211e-40 -7.822e-42 1.82173e-40 2.77377e-40 2.95286e-40 -5.2893e-41 9.037e-42
8.3405e-41 -1.61113e-40 -5.6006e-41 2.75518e-40 -8.2839e-41 -5.0967e-41 4.7414e-41 7.6346e-41
9.439e-42 1.46277e-40 5.0525e-41 -8.6257e-41 2.73769e-40 3.1436e-40 -1.81123e-40 6.2691e-41
8.6717e-41 -2.72602e-40 -1.07786e-40 -1.92702e-40 -2.74506e-40 2.53049e-40 2.95961e-40 3.37e-42
-4.8402e-41 -2.26647e-40 -5.2432e-41 4.5755e-41 -2.18454e-40 -5.3399e-41 8.49e-42 2.77335e-40
-1.63314e-40 3.6135e-41 1.17402e-40 1.11105e-40 7.4298e-41 -2.27309e-40 1.14668e-40 -3.07785e-40
6.8277e-41 -2.1649e-41 -1.11279e-40 1.42516e-40 1.36159e-40 -2.9616e-41 -5.3555e-41 -9.4242e-41
4.4807e-41 2.33675e-40 -2.81811e-40 -8.9578e-41 -1.5393e-41 -2.6207e-40 7.5744e-41 -1.12816e-40
-1.9792e-40 1.99075e-40 1.11084e-40 -2.60965e-40 5.0573e-41 -2.37997e-40 -1.85919e-40 1.72154e-40
-9.4513e-41 -9.4384e-41 2.30938e-40 -6.7848e-41 3.044e-40 -2.2476e-40 -1.5469e-40 -2.181e-41
-3.6833e-41 1.09247e-40 -2.82278e-40 1.4831e-41 -1.38424e-40 -1.30545e-40 -1.96758e-40 -1.02876e-40
6.2278e-41 1.17362e-40 -1.16833e-40 -2.75907e-40 1.6961e-41 2.1755e-41 -1.2193e-41 2.56836e-40
2.62313e-40 -2.37233e-40 -7.9047e-41 -2.7126e-40 -1.10756e-40 -9.5702e-41 3.8953e-41 5.3176e-41
2.11316e-40 -6.0323e-41 -1.3521e-41 -2.44196e-40 -6.124e-42 -2.86e-42 -1.3958e-41 2.42018e-40
1.66483e-40 1.40852e-40 3.2691e-41 -1.217e-40 -2.45423e-40 -7.928e-41 -2.99369e-40 6.558e-42
-1.17573e-40 1.20398e-40 -1.41656e-40 -1.01387e-40 -2.38689e-40 -1.034e-42 -8.6045e-41 -9.5381e-41
7.7859e-41 5.1831e-41 1.00232e-40 1.02284e-40 2.67658e-40 2.49322e-40 1.16554e-40 -2.75616e-40
1.4098e-41 -2.26006e-40 -1.12643e-40 -6.7924e-41 -5.6758e-41 2.562e-42 -2.74272e-40 -5.0494e-41
5.8501e-41 1.57733e-40 1.9777e-41 7.4267e-41 -7.6284e-41 2.15403e-40 1.09738e-40 -2.835e-41
2.26107e-40 -1.72005e-40 1.065e-40 -1.73219e-40 1.73304e-40 1.6954e-41 5.3465e-41 -1.9545e-41
1.52862e-40 1.71857e-40 4.6443e-41 -7.0593e-41 -2.98129e-40 8.7643e-41 -2.64278e-40 2.02406e-40
-1.64063e-40 -3.12256e-40 1.2317e-41 2.03477e-40 -1.16811e-40 6.579e-41 8.0251e-41 -1.64144e-40
-3.13162e-40 7.1601e-41 1.4438e-41 2.18863e-40 -5.6105e-41 -9.0639e-41 -2.36539e-40 -1.42385e-40
00000000: 8e89 0080 e1de 0280 1469 0080 f51f 0100
00000010: 0839 0080 22ba 0000 3886 0000 ced0 0080
00000020: 0101 0100 4dd3 0200 760c 0180 5e85 0280
00000030: 0ffd 0100 93ad 0180 b8a2 0080 89e9 0000
00000040: 2395 0000 abe8 0180 80b8 0080 8c52 0180
00000050: 0b28 0100 47f0 0180 9bb2 0100 28ba 0200
00000060: 9763 0180 8e1a 0000 707b 0280 f090 0000
00000070: 9a32 0280 763e 0000 a00f 0080 604b 0280
00000080: 9457 0000 d2d5 0080 1b4d 0180 12df 0280
00000090: 9c71 0100 520a 0080 6b78 0180 122d 0280
000000a0: 7340 0000 e404 0200 dc10 0380 9888 0100
000000b0: 5708 0180 9bf2 0080 6ade 0100 b78d 0080
000000c0: c78a 0100 e302 0080 1454 0200 f1eb 0080
000000d0: eda5 0080 6599 0180 56db 0000 0155 0180
000000e0: 8735 0180 076f 0080 eea1 0000 9aa7 0280
000000f0: 81ab 0100 7346 0100 698b 0100 8c2c 0200
00000100: 2ce3 0100 0547 0080 2810 0280 f89f 0180
00000110: 5a92 0200 b531 0000 24f3 0080 12f8 0080
00000120: 7969 0180 e7a2 0200 ce15 0080 d3fb 0100
00000130: 3705 0300 2337 0300 7293 0080 3119 0000
00000140: 80e8 0000 1ec1 0180 1f9c 0080 0800 0300
00000150: ece6 0080 138e 0080 2c84 0000 d2d4 0000
00000160: 501a 0000 c397 0100 d88c 0000 73f0 0080
00000170: 28fb 0200 4f6c 0300 e6f8 0180 c2ae 0000
00000180: bbf1 0000 e7f7 0280 772c 0180 2d19 0280
00000190: 36fd 0280 66c1 0200 0539 0300 6509 0000
000001a0: ed86 0080 cd77 0280 2992 0080 8c7f 0000
000001b0: f660 0280 db94 0080 ab17 0000 1905 0300
000001c0: 41c7 0180 bb64 0000 4547 0100 b735 0100
000001d0: 1dcf 0000 a579 0280 a63f 0100 fb59 0380
000001e0: 54be 0000 593c 0080 3336 0180 478d 0100
000001f0: 8e7b 0100 8f52 0080 4a95 0080 b506 0180
00000200: e77c 0000 648b 0200 9311 0380 b5f9 0080
00000210: e92a 0080 8bda 0280 25d3 0000 7c3a 0180
00000220: b827 0280 f12a 0200 a835 0100 77d7 0280
00000230: fa8c 0000 7097 0280 4406 0280 e5df 0100
00000240: 7707 0180 1b07 0180 c383 0200 22bd 0080
00000250: 8b50 0300 8a72 0280 36af 0180 cc3c 0080
00000260: ad66 0080 8930 0100 e012 0380 5829 0000
00000270: df81 0180 e86b 0180 7b24 0280 c71e 0180
00000280: 9bad 0000 2847 0100 af45 0180 1e01 0380
00000290: 482f 0000 a53c 0000 fd21 0080 f4cb 0200
000002a0: 39db 0200 4f95 0280 5adc 0080 2af4 0280
000002b0: be34 0180 c70a 0180 966c 0000 3c94 0000
000002c0: 104d 0200 28a8 0080 b125 0080 b8a8 0280
000002d0: 1211 0080 f907 0080 e926 0080 a6a2 0200
000002e0: 16d0 0100 a388 0100 215b 0000 4053 0180
000002f0: 24ac 0280 00dd 0080 8542 0380 4812 0000
00000300: bf47 0180 9f4f 0100 e18a 0180 a01a 0180
00000310: 5e99 0280 e202 0080 dcef 0080 e209 0180
00000320: 0ad9 0000 7c90 0000 6817 0100 201d 0100
00000330: 1fea 0200 02b7 0200 e844 0100 4e00 0380
00000340: 4d27 0000 0376 0280 013a 0180 58bd 0080
00000350: 389e 0080 2407 0000 8ffc 0280 c28c 0080
00000360: 14a3 0000 b2b7 0100 2137 0000 07cf 0000
00000370: a6d4 0080 7558 0200 e831 0100 074f 0080
00000380: 4b76 0200 7bdf 0180 e128 0100 dde2 0180
00000390: 1ae3 0100 432f 0000 0a95 0000 7c36 0080
000003a0: 1eaa 0100 11df 0100 7781 0000 c9c4 0080
000003b0: 103f 0380 50f4 0000 b3e0 0280 3a34 0200
000003c0: 57c9 0180 7166 0380 5622 0000 3637 0200
000003d0: 9f45 0180 65b7 0000 b5df 0000 91c9 0180
000003e0: f868 0380 98c7 0000 3f28 0000 1a62 0200
000003f0: 669c 0080 aafc 0080 6093 0280 e98c 0180

fc3.weight f4 [128, 256]
2.09777e-40 7.3278e-41 1.75786e-40 -8.4517e-41 4.4051e-41 -5.7263e-41 9.2504e-41 -1.04006e-40
-9.692e-41 1.75909e-40 6.8348e-41 5.31e-43 1.7878e-40 -4.0915e-41 2.84968e-40 -2.9616e-41
3.01554e-40 -3.7738e-41 -2.14952e-40 2.34746e-40 -1.1981e-40 1.77353e-40 -2.27536e-40 -9.6289e-41
-8.0577e-41 -2.04176e-40 1.40943e-40 -1.5452e-41 -2.4542e-40 1.85538e-40 -1.11859e-40 1.08871e-40
8.995e-42 -1.9034e-40 4.109e-41 9.8311e-41 -2.61e-41 -6.4125e-41 -2.81711e-40 -8.1019e-41
1.39044e-40 1.98742e-40 2.23097e-40 2.50945e-40 6.4107e-41 2.32942e-40 2.54259e-40 7.0362e-41
-2.66394e-40 1.7444e-40 1.8643e-41 -1.1523e-40 1.12313e-40 1.37106e-40 -2.23493e-40 -1.18669e-40
2.93401e-40 1.21536e-40 -1.73655e-40 1.48496e-40 2.38812e-40 -1.99408e-40 1.20946e-40 1.28848e-40
-1.97771e-40 3.6438e-41 -2.2757e-41 -5.3287e-41 5.3703e-41 1.24067e-40 1.454e-41 8.7326e-41
-4.1456e-41 2.4464e-40 2.56188e-40 1.0851e-40 2.018e-42 4.5964e-41 1.01423e-40 -1.23562e-40
1.8933e-40 -5.273e-41 6.1752e-41 2.14603e-40 2.06512e-40 -2.47447e-40 1.4197e-41 -2.19583e-40
-2.08114e-40 2.61971e-40 -7.6773e-41 3.953e-41 1.42997e-40 -2.43317e-40 1.89073e-40 2.74e-41
9.424e-42 6.1422e-41 1.32972e-40 1.38055e-40 2.15255e-40 3.11867e-40 1.2856e-41 -1.98933e-40
-5.8117e-41 -9.2622e-41 -1.61584e-40 -5.7837e-41 1.15718e-40 -2.08463e-40 1.91315e-40 2.06058e-40
1.87682e-40 -1.63603e-40 3.4682e-41 -5.5826e-41 2.43107e-40 -5.382e-42 2.1064e-40 1.057e-40
1.03117e-40 -3.11556e-40 2.204e-41 3.691e-42 2.17573e-40 2.79872e-40 1.77006e-40 2.83955e-40
4.4745e-41 2.29725e-40 -1.74923e-40 1.5997e-41 -2.79755e-40 2.31572e-40 1.0528e-41 2.06281e-40
1.79106e-40 3.1162e-41 2.22051e-40 8.9086e-41 5.6725e-41 8.9204e-41 9.823e-41 2.87416e-40
-1.10083e-40 2.803e-40 -6.6804e-41 3.4433e-41 -9.8276e-41 1.96988e-40 1.85093e-40 -5.8961e-41
-1.5127e-40 -1.37165e-40 1.10106e-40 1.31552e-40 -6.0057e-41 2.72052e-40 1.08552e-40 1.06196e-40
1.66135e-40 -1.71143e-40 9.6499e-41 -1.0012e-41 3.05343e-40 1.12606e-40 -1.43838e-40 1.70891e-40
-2.29076e-40 2.084e-42 1.12542e-40 1.5982e-41 2.19293e-40 -2.39228e-40 -1.2717e-40 -2.2977e-41
1.781e-42 -7.6107e-41 -1.8984e-40 -2.46156e-40 -1.30625e-40 -1.51855e-40 2.81134e-40 -8.4015e-41
6.5975e-41 -1.31623e-40 -5.4857e-41 -1.8366e-40 -1.28716e-40 2.71653e-40 9.0391e-41 -1.13952e-40
-1.3077e-41 2.41658e-40 2.8303e-41 -8.504e-42 9.3803e-41 1.8818e-40 1.41017e-40 2.35763e-40
8.2235e-41 -2.35321e-40 -1.63914e-40 1.14189e-40 2.46574e-40 5.9063e-41 1.8327e-40 9.6067e-41
-2.32292e-40 -3.4472e-41 -5.2602e-41 -7.661e-42 -1.85205e-40 5.5497e-41 1.60125e-40 -1.2202e-40
-3.6662e-41 1.8006e-40 -1.42118e-40 -1.0174e-40 2.8565e-41 1.70891e-40 -2.29428e-40 -2.25704e-40
-2.34688e-40 1.64393e-40 2.63303e-40 2.19979e-40 -9.4721e-41 -1.64937e-40 7.49e-41 2.56757e-40
-5.876e-41 6.8529e-41 -2.0055e-40 2.18111e-40 -3.5477e-41 -2.59037e-40 -1.94776e-40 3.03304e-40
-1.50551e-40 -2.24503e-40 -1.77706e-40 9.5534e-41 1.09954e-40 1.61051e-40 2.30123e-40 -4.1477e-41
1.49144e-40 1.37654e-40 2.161e-40 1.04146e-40 1.65683e-40 9.3751e-41 6.001e-41 4.3154e-41
00000000: c648 0200 45cc 0000 05ea 0100 99eb 0080
00000010: cc7a 0000 a09f 0080 dd01 0100 ed21 0180
00000020: 2c0e 0180 5dea 0100 87be 0000 7b01 0000
00000030: 5ef2 0100 0e72 0080 601a 0300 8f52 0080
00000040: 9c48 0300 3369 0080 3357 0280 608e 0200
00000050: fb4d 0180 63ee 0100 477a 0280 6a0c 0180
00000060: 9ee0 0080 2939 0280 e488 0100 132b 0080
00000070: 22ac 0280 3405 0200 d137 0180 7d2f 0100
00000080: 1319 0000 9712 0280 8b72 0000 0d12 0100
00000090: c248 0080 c1b2 0080 4c11 0380 d9e1 0080
000000a0: 9983 0100 032a 0200 e76d 0200 88bb 0200
000000b0: b4b2 0000 5989 0200 c5c4 0200 24c4 0000
000000c0: 99e6 0280 45e6 0100 f833 0000 3741 0180
000000d0: 1539 0100 327e 0100 026f 0280 cd4a 0180
000000e0: e231 0300 cb52 0100 14e4 0180 f29d 0100
000000f0: b699 0200 de2b 0280 2651 0100 2d67 0100
00000100: 4e27 0280 9365 0000 703f 0080 8b94 0080
00000110: b495 0000 d959 0100 8828 0000 6ef3 0000
00000120: 9073 0080 f5a9 0200 26ca 0200 7b2e 0100
00000130: a005 0000 2180 0000 ba1a 0100 7158 0180
00000140: c60f 0200 fd92 0080 24ac 0000 3a56 0200
00000150: ac3f 0200 c8b1 0280 9327 0000 1c64 0280
00000160: 2344 0280 45da 0200 03d6 0080 326e 0000
00000170: 9e8e 0100 45a6 0280 0f0f 0200 614c 0000
00000180: 451a 0000 38ab 0000 ac72 0100 d780 0100
00000190: 0b58 0200 5c65 0300 d623 0000 8b2a 0280
000001a0: 02a2 0080 3102 0180 6ec2 0180 3aa1 0080
000001b0: 9342 0100 1c45 0280 4f15 0200 683e 0200
000001c0: 2e0b 0200 0fc8 0180 ae60 0000 9f9b 0080
000001d0: afa5 0200 010f 0080 2e4b 0200 a626 0100
000001e0: 731f 0100 7e64 0380 703d 0000 4a0a 0000
000001f0: 815e 0200 2b0c 0300 6ced 0100 8d17 0300
00000200: bb7c 0000 6180 0200 9de7 0180 982c 0000
00000210: d80b 0380 8785 0200 591d 0000 073f 0200
00000220: 46f3 0100 de56 0000 fd6a 0200 56f8 0000
00000230: 209e 0000 aaf8 0000 d311 0100 3321 0300
00000240: de32 0180 5d0d 0300 39ba 0080 fc5f 0000
00000250: f411 0180 1f25 0200 f703 0200 5ca4 0080
00000260: aea5 0180 5c7e 0180 ee32 0100 b76e 0100
00000270: 6aa7 0080 5ff6 0200 992e 0100 0828 0100
00000280: 1ecf 0100 14dd 0180 000d 0100 e91b 0080
00000290: 2c53 0300 e639 0100 f690 0180 60dc 0100
000002a0: 927e 0280 cf05 0000 b939 0100 8d2c 0000
000002b0: 4d63 0200 df9a 0280 8062 0180 0d40 0080
000002c0: f704 0000 28d4 0080 3211 0280 2fae 0280
000002d0: 216c 0180 4fa7 0180 b00f 0300 33ea 0080
000002e0: e9b7 0000 e96e 0180 eb98 0080 f8ff 0180
000002f0: cf66 0180 42f5 0200 f9fb 0000 a73d 0180
00000300: 7424 0080 a5a1 0200 e64e 0000 b517 0080
00000310: 7c05 0100 920c 0200 1989 0100 3691 0200
00000320: 3de5 0000 fb8f 0280 edc8 0180 503e 0100
00000330: 59af 0200 a5a4 0000 e2fe 0100 cc0b 0100
00000340: 8987 0280 1860 0080 a292 0080 5b15 0080
00000350: 4704 0280 b49a 0000 5dbe 0100 2454 0180
00000360: 3366 0080 eff5 0100 2b8c 0180 9c1b 0180
00000370: a14f 0000 60dc 0100 8d7f 0280 2c75 0280
00000380: 378e 0280 43ca 0100 fbdd 0200 3665 0200
00000390: 0b08 0180 c7cb 0180 cad0 0000 bccb 0200
000003a0: cda3 0080 08bf 0000 0d2f 0280 0160 0200
000003b0: e562 0080 17d2 0280 f51e 0280 7d4d 0300
000003c0: ada3 0180 d371 0280 5fef 0180 4f0a 0100
000003d0: 8232 0100 f2c0 0100 7d81 0200 9f73 0080
000003e0: c19f 0100 b97f 0100 665a 0200 5122 0100
000003f0: dbcd 0100 5705 0100 49a7 0000 4c78 0000

fc3.bias f4 [128]
-4.2759183e-07 9.706912e-18 -9.0866954e-27 1.8054021e-37 1.7599335e-19 7.116982e-05 -1.0002922e-07 -1.1368817e-13
-4.728587e-20 -9.385522e-15 -4.7275217e-16 -1.2527865e-35 -0.00025285754 -9.195162e-23 -5.4864e-41 1.3649642e-19
-3.978475e-09 3.3354952e-28 2.2334786e-12 -2.5169e-41 -3.349588e-39 -0.0017559347 1.2873697e-10 -2.6561469e-09
8.2515e-41 -0.0002240817 2.57305e-27 2.8425997e-23 -7.441956e-14 4.90338e-14 -2.069985e-33 2.4635394e-11
-3.7552e-41 1.10159e-40 1.2822057e-13 9.8181855e-30 -7.77051e-40 8.502527e-30 5.7745014e-14 -3.0700306e-14
-4.0563326e-21 1.1856733e-07 1.0999483e-12 -3.9583465e-08 -0.0001459328 7.5948264e-33 6.832679e-30 -3.6470484e-33
-3.0535879e-15 -1.6264788e-09 -2.7532565e-20 1.4349356e-10 1.3282102e-26 2.119818e-23 5.0601514e-14 -1.0349609e-23
-8.4983e-41 -2.8940762e-18 -1.004078e-39 -2.7479332e-21 -1.1460076e-22 8.415e-42 4.9234273e-05 -3.0964e-41
1.6618863e-17 1.5897919e-14 -8.092e-42 7.476991e-17 -3.185373e-05 -3.38875e-40 -4.3985e-41 -5.025057e-16
1.8828133e-13 0.00065885216 -6.9060912e-18 -7.8087e-41 -1.0790201e-14 1.4502833e-37 -7.069504e-18 1.9299e-40
4.7737e-41 4.7506985e-26 -1.1490404e-21 1.0433033e-29 -3.103825e-38 -1.2086277e-16 -2.1456546e-17 -7.179748e-35
-3.173605e-25 -1.8740986e-13 -2.280156e-21 3.384605e-22 2.6463653e-07 -2.684605e-23 2.6368886e-07 -1.176166e-39
-5.361832e-38 -4.4946e-40 4.0652424e-09 -1.1635549e-38 2.9681282e-21 2.18928e-40 9.763573e-35 -1.24452e-40
5.3965346e-18 -6.565275e-15 6.834008e-14 5.6956146e-37 -4.7292e-41 -1.2594312e-14 -8.837643e-06 -5.98235e-28
-2.8845667e-38 2.2070133e-27 5.0405513e-31 -1.7293333e-26 7.704823e-17 1.1580249e-31 -1.5651763e-13 3.88015e-40
-1.7091539e-21 -1.87213e-40 -3.6830683e-27 -8.943392e-24 -6.338826e-06 -2.0012658e-32 -5.4068e-41 -1.3114727e-17
00000000: c68f e5b4 990f 3323 05fb 3394 15bd 7502
00000010: bac6 4f20 0241 9538 a5cf d6b3 6200 00aa
00000020: 1c4d 5f9f 1513 29a8 f442 08a6 1838 8585
00000030: f791 84b9 4c53 de9a f098 0080 8325 2120
00000040: 09b3 88b1 8169 d311 c62a 1d2c 2946 0080
00000050: 4a79 2480 6427 e6ba 3c8c 0d2f 6e87 36b1
00000060: 05e6 0000 79f7 6ab9 a7db 4b13 ae75 091a
00000070: f593 a7a9 1fd4 5c29 b6f7 2b89 fab1 d82d
00000080: ae68 0080 1433 0100 105d 102a ef22 470f
00000090: 1a76 0880 a573 2c0f bc07 8229 0b43 0aa9
000000a0: 713e 999d 149f fe33 d0cd 9a2b 7b02 2ab3
000000b0: 8a05 19b9 06bd 1d0a 4c95 0a0f 127e 9789
000000c0: c108 5ca7 a38a dfb0 d404 029f d9c5 1d2f
000000d0: 218a 8314 2704 cd19 93e3 6329 c830 4899
000000e0: e6ec 0080 8e8b 55a2 f6ee 0a80 c2a0 4f9d
000000f0: 388b 0a9b 7517 0000 e680 4e38 5156 0080
00000100: 2e48 9923 1b32 8f28 8f16 0080 5d68 ac24
00000110: af9a 05b8 a5b0 0380 9d7a 0080 60d6 10a6
00000120: 66fc 532a d2b6 2c3a 30ca fea2 add9 0080
00000130: 0561 42a8 ff66 4502 ca68 02a3 fa19 0200
00000140: 1285 0000 423e 6b15 59a3 ad9c 689b 530f
00000150: 02fd 2881 6558 0ba5 d6e6 c5a3 d5de be86
00000160: c76f c496 3701 53aa a248 2c9d 3a96 cc1b
00000170: 5e13 8e34 cdd1 019a 1f91 8d34 acce 0c80
00000180: 84f6 9181 e9e4 0480 40ae 8b31 2db3 7e80
00000190: f343 601d 4862 0200 b8c7 0107 ec5a 0180
000001a0: d418 c722 f989 eca7 60e3 9929 cdcf 4103
000001b0: d583 0080 03e1 62a8 6345 14b7 9796 3d92
000001c0: fe0c 1d81 8cdb 2e13 4393 230d cf43 ab94
000001d0: 3fa9 b124 fa51 160c 2339 30aa a139 0400
000001e0: d823 019d e009 0280 c0e6 9193 88fd 2c99
000001f0: 1ab2 d4b6 c5d2 cf8a b896 0080 8cec 71a3

fc4.weight f4 [1, 128]
3.746968e-07 -2.8898207e-17 9.194942e-27 -3.7463053e-37 1.7297817e-19 -6.163306e-05 6.9598045e-08 -1.1518732e-13
-6.951324e-20 -6.8194496e-15 -2.5753554e-17 1.2526337e-35 -0.00025289226 -7.3566966e-23 4.279e-41 8.3689595e-21
4.5937094e-09 3.1054604e-28 -9.289534e-12 -1.2338e-41 3.349859e-39 0.0017559347 1.4582376e-10 2.688803e-09
1.3691e-40 0.00017623884 -2.5788111e-27 -1.187269e-24 -2.2920058e-13 -3.2628837e-14 -2.2172182e-33 2.4396204e-11
-2.6196e-41 8.5596e-41 1.279986e-13 9.829642e-30 7.56146e-40 8.502454e-30 -7.02448e-14 2.1398587e-14
1.1902928e-21 -1.2430458e-07 1.1006167e-12 3.0364966e-08 0.00014591224 -1.3857966e-32 1.1576224e-29 -9.10167e-34
3.0540163e-15 1.3150431e-09 -7.808577e-21 1.4389841e-10 -2.4806147e-26 2.0834787e-23 1.1648821e-14 1.0349613e-23
-3.5461e-41 2.8340815e-18 5.82172e-40 2.7211871e-21 1.1461807e-22 1.1664e-41 -5.4902714e-05 1.274e-42
1.6618184e-17 -1.5431162e-14 -3.0911e-41 -7.475614e-17 2.5543037e-05 -1.28639e-40 5.7698e-41 5.022023e-16
-2.1254905e-13 0.00065895973 7.086216e-18 -9.6383e-41 1.07827404e-14 1.8353964e-37 1.5322953e-17 2.10659e-40
8.3203e-41 -5.262245e-26 1.1748443e-21 -1.0386609e-29 1.2473234e-38 4.1301194e-17 1.7936495e-18 6.896754e-35
3.0592292e-25 1.8740784e-13 -3.487215e-21 2.8081108e-22 -2.0898424e-08 2.6814925e-23 -1.8876574e-07 1.192128e-39
5.386332e-38 -4.39768e-40 -2.6895322e-09 1.189008e-38 2.9676884e-21 2.1937e-40 9.764524e-35 -1.34677e-40
1.2164467e-17 6.661163e-15 6.83051e-14 5.6890794e-37 5.4729e-41 -1.2482885e-14 -8.850591e-06 4.934414e-28
3.0606763e-38 -2.2198469e-27 5.0709176e-31 1.5314308e-26 7.716438e-17 9.205885e-32 1.3555232e-13 4.7594e-40
1.7260646e-21 -6.8556e-41 1.2548094e-27 9.922096e-24 2.6959542e-06 1.5090212e-32 8.0433e-41 1.684022e-17
00000000: f029 c934 fb44 05a4 e51f 3614 d8f5 fe82
00000010: 7237 4c20 ff40 81b8 ee75 9533 7cb0 01aa
00000020: 2d22 a49f 52b2 f5a7 dc88 eda3 ef33 8505
00000030: a096 84b9 bfdf b19a 4877 0000 ce15 1e1e
00000040: b2d6 9d31 fad4 c411 586c 23ad 6522 0080
00000050: 0b7a 2400 6427 e63a bd55 202f ecc5 3831
00000060: a67d 0100 c1cc 3839 8150 4c93 92b8 b797
00000070: 4907 81aa 7df2 12a9 0433 3889 5e97 d62d
00000080: 0649 0080 9bee 0000 161d 102a 6b5e 470f
00000090: d43b 0800 4473 2c0f 5f2d 9ea9 c8bd c028
000000a0: 39df b31c 9578 05b4 e5e5 9a2b a26a 0233
000000b0: 0500 1939 cbe8 8f8a 31cb 6a0f 393a 9788
000000c0: a810 5c27 f7bc b430 f67f 139e cd37 1e2f
000000d0: 0eab f594 6f80 c919 b4d8 5128 cd30 4819
000000e0: da62 0080 491e 5122 dc56 0600 6a9b 4d1d
000000f0: 9390 0a1b 8420 0000 5747 66b8 8d03 0000
00000100: 9446 9923 d6fd 8aa8 2b56 0080 3c60 aca4
00000110: 4145 d637 9866 0180 d7a0 0000 fdbf 1026
00000120: 184f 6faa 0abe 2c3a b5b7 0223 ad0c 0180
00000130: 9d3e 4228 3bd2 7902 4d54 8d23 3b4b 0200
00000140: f0e7 0000 7149 8295 9689 b11c 5baa 528f
00000150: 4dd2 8700 d877 3e24 1559 0422 e058 b706
00000160: 6c5b bd16 a200 532a 46be 839d 69bd a91b
00000170: 1f84 b3b2 45ab 011a 88af 4ab4 2bfb 0c00
00000180: 41a1 9201 e5c9 0480 c0d2 38b1 b578 8100
00000190: 713b 601d 8463 0200 f4ca 0107 6d77 0180
000001a0: 1265 6023 62fe ef27 36cf 9929 df96 4103
000001b0: 9098 0000 25df 60a8 007d 14b7 b960 1c12
000001c0: 9aa3 2601 d8df 2f93 898f 240d 62aa 9714
000001d0: cfed b124 9aff ee0b 4c9e 182a ba2e 0500
000001e0: f26a 021d 1bbf 0080 1ed5 c612 d7eb 3f19
000001f0: 24ec 3436 aab4 9c0a 37e0 0000 d852 9b23
