p2_continuous-control/checkpoint_actor.pth (torch_old, 39701 bytes, 4 tensors)

fc1.weight f4 [256, 33]
0	0xbcd09554	-0.02546183
1	0xbcd0751b	-0.025446465
2	0xb7872c18	-1.6113787e-05
3	0x3d1d4c55	0.038402874
4	0x3c8e88b6	0.017399173
5	0xbc378503	-0.011201146
6	0xbb28630a	-0.0025693798
7	0xbcf5d0d2	-0.0300068
8	0xbadb5055	-0.0016732315
9	0xbd118654	-0.035528496
10	0xbc5c428c	-0.0134436
11	0xbcad572f	-0.021159736
12	0xbcda9d66	-0.026686382
13	0x3d90c282	0.070683494
14	0xbdc329a8	-0.0952943
15	0xbc8ba108	-0.01704456
16	0x3c51763c	0.012784537
17	0xbcadca5a	-0.021214653
18	0x3d3f3af3	0.046687078
19	0x3c0ed14b	0.0087168915
20	0xbd1e3afc	-0.03863047
21	0xbdae3921	-0.0850699
22	0xbd71ca03	-0.059030544
23	0x3bd06294	0.0063594077
24	0x3d9f52c8	0.07779461
25	0x3d49aa1e	0.049234502
26	0x3d0c521f	0.034258004
27	0xbd4f1073	-0.050552797
28	0xbcea1012	-0.028572116
29	0x3c86fdb8	0.016478404
30	0xbcacfce9	-0.02111669
31	0x3c4547f0	0.012041077
32	0xbc73448a	-0.014847884
33	0x3d37618d	0.044770766
34	0xbbae4359	-0.005318087
35	0xbdadce09	-0.08486564
36	0x3d1fa2e0	0.03897369
37	0xbb4f30f5	-0.0031614874
38	0xbd2f5bcd	-0.042812157
39	0x3d1e43d3	0.0386389
40	0x3d9b4d67	0.07583123
41	0xbce4c67c	-0.027926676
42	0xbd0499b2	-0.032373138
43	0xbd762fa8	-0.060104042
44	0xbcc95b41	-0.024579646
45	0x3d8c0549	0.068369456
46	0xbd026ff0	-0.031845033
47	0xbd260b07	-0.04053786
48	0xbc86c864	-0.016452976
49	0xbd3c65d4	-0.04599555
50	0xbd008795	-0.0313793
51	0xbd70e908	-0.058815986
52	0x3d234388	0.039859325
53	0x3d8930fb	0.066987954
54	0xbcd647cb	-0.02615728
55	0xbd81a3d3	-0.06330075
56	0xbdb65541	-0.0890298
57	0xbd287333	-0.041125488
58	0x3dd16c1e	0.102257
59	0x3b9f6eb0	0.00486549
60	0xbd3fa589	-0.046788726
61	0xbcfbbe32	-0.03073034
62	0xbd1a65e4	-0.037694827
63	0x3de93218	0.11386508
64	0xbd336346	-0.043795846
65	0xbd304c48	-0.043041497
66	0x3c4198f3	0.011816251
67	0xbd9594e1	-0.07303787
68	0x3c507f49	0.01272566
69	0x3d0ca1ef	0.03433412
70	0x3d09ec77	0.033672776
71	0x3cc5ec82	0.024160627
72	0x3d13989f	0.036034223
73	0xbd1cbd7b	-0.03826664
74	0x3cb8c568	0.022555068
75	0x3cc341b2	0.023835037
76	0x3de48619	0.111583896
77	0x3dab53bd	0.08365581
78	0x3cf651f5	0.030068377
79	0xbc632c40	-0.0138655305
80	0xbd0ec010	-0.034851134
81	0x3d34c8a1	0.044136647
82	0xbd6acb36	-0.057322703
83	0x3cfe16de	0.031016763
84	0x3cb78d45	0.02240623
85	0x3b80e4e6	0.003933537
86	0xbd78d6df	-0.060751792
87	0x3c919041	0.017768981
88	0xbd742e99	-0.05961475
89	0x3da24abb	0.0792441
90	0x3d088b68	0.033336073
91	0xbc8d49e6	-0.017247152
92	0x3dd66639	0.10468716
93	0xbdbf0ee0	-0.09329009
94	0xbd8703fd	-0.065925576
95	0x3b614340	0.003437236
96	0x3dcb0cbf	0.099145405
97	0xbd221e00	-0.03957939
98	0xbd16e945	-0.036843557
99	0xbc8a8c3c	-0.016912572
100	0xbd48d24c	-0.04902868
101	0x3db74143	0.089479946
102	0x3d8413fb	0.064491235
103	0x3d35cc89	0.044384513
104	0x3ca5f0dc	0.020256452
105	0xbd4007f0	-0.04688257
106	0x3d25fd9d	0.040525068
107	0x3b1efc08	0.002425911
108	0x3dbe7fdb	0.0930173
109	0x3b0c3fdb	0.0021400366
110	0x3d0e1a5e	0.034693114
111	0x3bb68eba	0.0055712136
112	0x3d84415e	0.0645778
113	0x3c541edf	0.012946813
114	0x3da9ef7b	0.082976304
115	0x3d87e3e1	0.06635261
116	0x3c9712d2	0.018441591
117	0xbd42da9b	-0.04757176
118	0xbd557415	-0.052112658
119	0xbd99fa94	-0.07518497
120	0xbdb48150	-0.08813727
121	0x3d8e856d	0.06959043
122	0x3d1e7540	0.038686037
123	0xbc4202d4	-0.011841495
124	0xbd824243	-0.06360295
125	0x3d463330	0.04838866
126	0xbdba8dec	-0.09109101
127	0xbcd6be37	-0.026213748
128	0x3cf27be0	0.029600084
129	0x3d5762b0	0.05258435
130	0x3d4c058e	0.049809985
131	0x3d96a955	0.07356516
132	0x3da5b8b1	0.08091868
133	0xbdb5b104	-0.08871654
134	0xbdc23469	-0.09482653
135	0x3cc5310e	0.024071243
136	0x3d4a993f	0.049462553
137	0xbd456a25	-0.04819693
138	0x3b3f01d4	0.0029145377
139	0x3d442800	0.04788971
140	0xbd9361c8	-0.07196385
141	0x3d86158e	0.0654708
142	0x3dd7a88a	0.10530193
143	0xbc006daf	-0.007838651
144	0x3d340d9c	0.04395829
145	0x3d5e6cd4	0.054303005
146	0xbcd609d4	-0.026127733
147	0xbdfd47a7	-0.12367182
148	0x3d1203b1	0.03564805
149	0x39dd8675	0.00042252583
150	0x3d136ccd	0.035992432
151	0x3a9c891e	0.001194272
152	0xbd7a1cba	-0.061062552
153	0xbcc76ab6	-0.024342876
154	0xbcd45114	-0.025917567
155	0x3dae484e	0.08509885
156	0x3d662132	0.056184
157	0x3dd36f01	0.10323907
158	0xbd125ff4	-0.03573604
159	0xbe15b0da	-0.14618245
160	0x3cc87626	0.0244704
161	0x3c81faa8	0.015866593
162	0x3dfb4fb9	0.12271065
163	0x3c713c58	0.01472386
164	0xbcd80949	-0.026371615
165	0x3d41d98b	0.047326606
166	0xbda28825	-0.07936124
167	0x3c8d8618	0.017275855
168	0x3c6aa01f	0.014320402
169	0xbcff80d7	-0.031189365
170	0x3d43c049	0.0477908
171	0x3c9e0466	0.019289207
172	0x3d850a4d	0.06496105
173	0xbc6d952e	-0.014500899
174	0x3d33eb2d	0.043925453
175	0xbc866e8c	-0.016410135
176	0x3c5729c7	0.013132519
177	0x3d1b3238	0.03788969
178	0x3ca82cd6	0.020529192
179	0xbd75c05a	-0.059997894
180	0x3ca9e9f0	0.020741433
181	0xbc88622d	-0.016648376
182	0xbd3ac1c0	-0.04559493
183	0x3d1ce202	0.038301475
184	0x3d22bbd9	0.039729927
185	0xbb65632d	-0.003500174
186	0xbd7ab0a7	-0.061203625
187	0x3d6b8e53	0.057508778
188	0xbc4c925f	-0.012486069
189	0x3c94a2f0	0.0181441
190	0x3d45ad75	0.048261125
191	0x3b9308ec	0.0044871476
192	0xbcb45c9b	-0.022016814
193	0xbd038032	-0.03210468
194	0x3d735f6c	0.059417173
195	0x3d79ccde	0.060986392
196	0xbc00b760	-0.00785622
197	0xbd9e5333	-0.07730713
198	0x3cbac36e	0.022798266
199	0xbcaf6cca	-0.02141418
200	0x3c5f3e29	0.01362566
201	0x3d8b0f52	0.067900315
202	0xbd14eaae	-0.03635662
203	0x3cf2d7fa	0.029644001
204	0x3b385ff0	0.0028133355
205	0x3c222c16	0.009898206
206	0xbcfa3914	-0.030544795
207	0xbcf0415c	-0.02932804
208	0x3d926ded	0.07149873
209	0x3d3019b7	0.042993274
210	0x3d4f5f04	0.050627723
211	0x3d59e1b7	0.053193774
212	0xbd549d35	-0.051907737
213	0x3ca252d3	0.019814884
214	0x3ae78fdc	0.0017666775
215	0xbd141c8a	-0.03616003
216	0xbd01ce12	-0.031690665
217	0x3cee8e6a	0.029120643
218	0x3d6ea107	0.058259036
219	0xbb0ff2c2	-0.0021964763
220	0x3d4470ff	0.047959324
221	0x3d80b6da	0.06284876
222	0x3cdd7b9d	0.027036482
223	0x3c649eb5	0.013953854
224	0xbcf38f61	-0.029731454
225	0xbd066434	-0.032810405
226	0xbd14a14e	-0.036286645
227	0xbcc23f18	-0.023711726
228	0x3d8df4b7	0.06931441
229	0x3d5aab4e	0.053386025
230	0x3bd40d5a	0.006471318
231	0x3cbbef57	0.022941275
232	0xbc9b1997	-0.0189331
233	0xbb1aa7dd	-0.002359859
234	0x3cadfd8a	0.02123906
235	0x3d8e3b4c	0.06944904
236	0x3c8999ac	0.01679691
237	0xbce7b1f7	-0.028283102
238	0x3c60d5ac	0.013722818
239	0x3d21841f	0.03943264
240	0xbcb00451	-0.021486433
241	0x3d7b0784	0.061286464
242	0x3d65f51b	0.056141954
243	0x3c3c557b	0.0114949895
244	0x3d76df94	0.060271814
245	0xbcd68fea	-0.02619167
246	0xbdb98cc9	-0.09060056
247	0x3d0c9959	0.03432593
248	0x3d783a69	0.06060258
249	0xbc8f19aa	-0.017468292
250	0x3ccbad86	0.024863016
251	0x3d63b3f6	0.055591546
252	0xbd13ca11	-0.036081377
253	0xbb8700ae	-0.004119954
254	0x3d287a46	0.041132234
255	0x3bf3f166	0.0074445484

fc1.bias f4 [256]
0	0x3b3a1a7e	0.0028397138
1	0xbc01d81c	-0.00792506
2	0x3e5c9255	0.21540196
3	0x3aa0549e	0.0012232249
4	0x3e271610	0.1631701
5	0x3cb6be81	0.022307636
6	0xbe09dae9	-0.13462414
7	0x3daa41b2	0.08313312
8	0x3e1d09f8	0.15335834
9	0x3e536b5f	0.20646428
10	0xbda467af	-0.080275886
11	0x3e529f6c	0.20568627
12	0xbc9e2c34	-0.019308187
13	0x3e4465ac	0.1917941
14	0x3e69bb82	0.22825435
15	0x3e7a3140	0.2443285
16	0x3e0399ab	0.12851588
17	0x3d8cf641	0.06882907
18	0xbd5ecadb	-0.054392677
19	0xbd613048	-0.054977685
20	0x3e25486c	0.16140908
21	0xbcd4ddef	-0.025984732
22	0x3e157acc	0.14597625
23	0x3e63aa74	0.22232991
24	0x3d3df485	0.04637577
25	0x3da93d06	0.082635924
26	0x3e7f689d	0.2494225
27	0x3d80d054	0.062897354
28	0x3dccf42a	0.10007508
29	0xbd788949	-0.0606778
30	0x3cacc6b7	0.021090848
31	0xbabd4622	-0.0014440457
32	0x3e01ce19	0.12676276
33	0xbd9a0133	-0.0751976
34	0xbd151170	-0.036393583
35	0x3e352e6d	0.17693491
36	0xbd4d5b94	-0.050136164
37	0xbd59892c	-0.053109333
38	0x3e61de9b	0.22057573
39	0x3e0800d5	0.13281567
40	0xbd82521f	-0.063633196
41	0x3dae717b	0.085177384
42	0x3e67141c	0.22566265
43	0x3e582749	0.21108736
44	0x3e5f7552	0.21822098
45	0x3d32dc83	0.043667328
46	0x3e68f166	0.22748336
47	0x3d4b476c	0.04962866
48	0x3e61769a	0.22017899
49	0x3e47f738	0.195279
50	0xbda6c3e0	-0.08142829
51	0x3e27e11f	0.1639447
52	0xbcf4f031	-0.029899688
53	0x3c9f4828	0.019443586
54	0x3cf61da7	0.030043436
55	0x3e3121da	0.1729807
56	0x3d260769	0.04053441
57	0x3e34615c	0.17615265
58	0xbdc89e27	-0.0979579
59	0x3e004f0f	0.12530158
60	0x3c1402cc	0.00903387
61	0x3a954420	0.0011388101
62	0x3da3a630	0.07990682
63	0x3d3cb117	0.046067324
64	0xbb5bc494	-0.0033533918
65	0xbdaca343	-0.08429577
66	0x3e4c1a6f	0.19931959
67	0x3d975ea6	0.073911
68	0x3e0b4307	0.13599788
69	0xbd5ae106	-0.053437255
70	0x3e390faa	0.18072382
71	0xbd9170ba	-0.07101579
72	0xbdb84acf	-0.089986436
73	0x3dea810e	0.114503965
74	0x3e04c3f9	0.12965383
75	0x3e1abcba	0.15111056
76	0xbd6c6b07	-0.057719257
77	0x3d8db0de	0.069185
78	0xbd932858	-0.07185429
79	0x3e099876	0.13437065
80	0x3e66bfa6	0.22534046
81	0x3dd29842	0.10282947
82	0xbd1ed989	-0.038781676
83	0x3dd5b98c	0.10435781
84	0x3df4ba17	0.11949556
85	0x3e2661fd	0.16248317
86	0xbe0c64f5	-0.13710387
87	0x3ba6a7ad	0.0050859065
88	0xbd14e731	-0.036353294
89	0x3e38a045	0.18029888
90	0x3dd245c4	0.10267213
91	0x3e2485e4	0.160667
92	0x3df19023	0.1179507
93	0x3e503bf2	0.20335367
94	0x3cc417df	0.023937164
95	0x3d8b3263	0.0679672
96	0x3d49f58a	0.04930643
97	0xbe0e7d89	-0.13915075
98	0x3d0a0a65	0.03370132
99	0x3e00a253	0.12561922
100	0x3dcf1664	0.101116925
101	0x3e1451e7	0.14484368
102	0x3d84c220	0.06482339
103	0x3e00ce6a	0.1257874
104	0x3de6eae7	0.11275273
105	0x3d81973b	0.06327673
106	0x3ca2e139	0.019882785
107	0x3dcb1002	0.099151626
108	0x3d029e4d	0.03188925
109	0x3da36a0f	0.079792134
110	0x3e4a9aa2	0.1978555
111	0x3c656d83	0.01400316
112	0xbda240f0	-0.07922542
113	0xbd9e6b2a	-0.07735284
114	0x3de73433	0.11289253
115	0x3c8f5055	0.01749436
116	0xbc8a95a8	-0.016917065
117	0x3d1dcc07	0.038524654
118	0x3e26e286	0.1629735
119	0x3d1ef59d	0.038808454
120	0x3e2799cc	0.16367263
121	0x3e60fa0c	0.21970385
122	0x3ca5b262	0.020226661
123	0x3e4f7d2d	0.20262595
124	0x3e68eb4a	0.22746006
125	0x3e1d9698	0.15389478
126	0xbd98f5b8	-0.07468742
127	0x3d18a06b	0.03726236
128	0xbd3cf3c8	-0.046130925
129	0xbdf7b384	-0.12094787
130	0xbad78837	-0.0016443793
131	0xbdb169ad	-0.08662734
132	0x3e47830f	0.19483589
133	0xbbcb3b59	-0.006202143
134	0x3bec7eec	0.0072172787
135	0x3e09884e	0.13430902
136	0x3d49b292	0.049242564
137	0xbc6c57cc	-0.014425229
138	0xbd23b449	-0.039966855
139	0x3d834af3	0.0641078
140	0x3d860c5f	0.06545328
141	0x3d19125f	0.037371036
142	0x3e190e20	0.14946795
143	0x3d8d9a19	0.069141574
144	0xbd1f2d06	-0.038861297
145	0xbac735fc	-0.0015198584
146	0x3d1bc1e7	0.038026717
147	0x3e264340	0.16236591
148	0x3e625268	0.22101748
149	0xbdbe4b81	-0.09291745
150	0xbdaa44cd	-0.08313904
151	0x3d93eb93	0.072226666
152	0x3e16707b	0.14691345
153	0x3cd14507	0.02554561
154	0x3dfad634	0.12247887
155	0x3d71c1a7	0.059022572
156	0x3d4e2d32	0.05033607
157	0x3e01264c	0.12612265
158	0x3ce33adc	0.027738027
159	0xbdb8e4da	-0.09028025
160	0x3d7f4ca6	0.062328957
161	0xbd16538e	-0.036700778
162	0x3e0ebc91	0.1393912
163	0x3e45cf00	0.19317245
164	0x3e0ff25f	0.14057301
165	0x3d0472a2	0.032335885
166	0xbd5827ac	-0.05277221
167	0x3d486d91	0.048932616
168	0xbc65b863	-0.014021012
169	0x3d8cbab5	0.06871549
170	0x3e319583	0.1734219
171	0x3e58915a	0.21149197
172	0xbd1b53df	-0.037921783
173	0x3df16e85	0.11788658
174	0x3d936491	0.07196916
175	0x3de353ad	0.11099944
176	0xbd9c52b9	-0.076329656
177	0xbd32b4cc	-0.043629453
178	0x3d0cf2d3	0.034411263
179	0xbc599df8	-0.013282292
180	0x3c811dfd	0.01576137
181	0x3d9f1c68	0.0776909
182	0x3d4aed6f	0.04954284
183	0xbcdace61	-0.026709737
184	0x3da70d35	0.08156816
185	0x3d9a5fae	0.07537781
186	0x3e3263ba	0.17420855
187	0xbc5e5604	-0.013570312
188	0xbd97e581	-0.07416821
189	0x3e543f4e	0.20727274
190	0xbbda2558	-0.0066572838
191	0x3dea231c	0.11432478
192	0x3e536feb	0.20648162
193	0x3d20caf1	0.03925604
194	0x3c8553a5	0.016275236
195	0xbd581507	-0.05275443
196	0x3e1b5909	0.15170683
197	0x3df3d3d7	0.119056396
198	0xbdbb8168	-0.09155542
199	0x3e3b8412	0.183121
200	0x3e5767fb	0.21035759
201	0x3e803022	0.25036722
202	0x3de4c6ef	0.11170756
203	0x3e7717db	0.24130194
204	0x3da16ac1	0.0788169
205	0xbcf07f27	-0.029357506
206	0xbd0535f0	-0.032522142
207	0xbd7d093d	-0.06177639
208	0x3df74a01	0.12074662
209	0x3e1433f4	0.14472944
210	0xbd2a4e46	-0.041578554
211	0x3d88b442	0.066750064
212	0xbcafa183	-0.02143932
213	0x3e3b9fe5	0.18322714
214	0xbdb044b6	-0.086068556
215	0x3df81a90	0.121144414
216	0x3c0498b7	0.008093051
217	0xbd33b7fa	-0.043876626
218	0xbd349295	-0.044085104
219	0x3e567f25	0.2094694
220	0x3ddd1ed1	0.107968934
221	0xbddd45b9	-0.10804314
222	0x3e278447	0.16359054
223	0xbdc535a1	-0.096293695
224	0x3e55dc1b	0.20884745
225	0xbdeebe3e	-0.116573796
226	0x3bf97ccf	0.0076137553
227	0xbe09ba4e	-0.13449976
228	0x3bbf0ec5	0.005830618
229	0x3e54dae8	0.20786631
230	0x3e0dead5	0.13859113
231	0x3d997232	0.07492484
232	0xbda8f502	-0.082498565
233	0x3e3c196c	0.18369073
234	0x3dc39081	0.09549046
235	0x3cf956c0	0.030436873
236	0x3e372bb3	0.17887764
237	0x3e249ea8	0.16076148
238	0xbdad17d3	-0.0845181
239	0x3d8bb13f	0.068209164
240	0xbdb2d9ce	-0.08732949
241	0xbdb50a49	-0.08839852
242	0x3d7635e2	0.06010998
243	0x3d245e60	0.040129066
244	0x3dea7bab	0.11449369
245	0xbccf62c9	-0.02531566
246	0x3db987a3	0.09059074
247	0x3e5df6b8	0.21676147
248	0x3d737cd5	0.05944522
249	0x3e6b1ef2	0.22961023
250	0x3d9498b9	0.07255692
251	0xbcaaf2b7	-0.020867689
252	0x3d181bb8	0.03713581
253	0x3e095623	0.13411765
254	0xbda49cf3	-0.08037748
255	0xbce8f5f2	-0.028437588

fc2.weight f4 [4, 256]
0	0x3c859f09	0.016311185
1	0x3caa95d5	0.020823399
2	0x3cc4445b	0.023958376
3	0x3ceebaf2	0.029141877
4	0x3cd7ed70	0.026358336
5	0x3c536d00	0.012904406
6	0x3c6228da	0.013803685
7	0x3c921fad	0.01783737
8	0x3d013170	0.031541288
9	0x3c910fb0	0.017707676
10	0x3ccb1c7f	0.024793861
11	0x3cd4ad3c	0.02596151
12	0x3c6d1e47	0.014472551
13	0x3cb11d37	0.021620376
14	0x3c93e0ec	0.018051587
15	0x3cb6e9de	0.022328313
16	0x3c82f650	0.015986592
17	0x3c7ad4ca	0.015309522
18	0x3c5053d0	0.012715295
19	0x3c7c1f17	0.015388272
20	0x3ce773c9	0.028253453
21	0x3cc4e9d5	0.024037281
22	0x3cf399c8	0.029736415
23	0x3ca4c327	0.020112587
24	0x3d0337b2	0.032035537
25	0x3c849fc7	0.016189469
26	0x3cc9270a	0.024554748
27	0x3c2bc6d0	0.010484412
28	0x3cc07a2c	0.023495756
29	0x3c1219d1	0.008917288
30	0x3ca1cd45	0.0197512
31	0x3c4f58c6	0.012655443
32	0x3ca1d771	0.01975605
33	0x3c772b0e	0.015085949
34	0x3cd6fe41	0.026244285
35	0x3c8e146b	0.01734372
36	0x3ca8e19b	0.02061539
37	0x3c92da1e	0.017926272
38	0x3cca42a0	0.024689972
39	0x3c95d9fa	0.018292416
40	0x3cb9bc79	0.022672879
41	0x3c95483b	0.018222919
42	0x3cde6c7c	0.027151339
43	0x3cb314cb	0.0218605
44	0x3caf627d	0.021409268
45	0x3cafae7b	0.021445503
46	0x3d043128	0.03227344
47	0x3c8453b2	0.01615319
48	0x3cb4e2c0	0.02208078
49	0x3ce7dfd2	0.028304968
50	0x3c8662ca	0.016404528
51	0x3cd216b7	0.025645597
52	0x3c45f524	0.012082372
53	0x3c47284f	0.012155606
54	0x3cbef364	0.023309417
55	0x3cd831fd	0.026391024
56	0x3cc8317a	0.024437655
57	0x3ce939b2	0.028469894
58	0x3ca3a92b	0.019978127
59	0x3cc14db5	0.023596624
60	0x3c9d3bf7	0.019193633
61	0x3cae1648	0.021250859
62	0x3ccd4bf6	0.025060635
63	0x3c546c87	0.012965328
64	0x3c71a307	0.014748341
65	0x3c9124ba	0.017717708
66	0x3c2475ac	0.010037821
67	0x3cd78035	0.026306251
68	0x3cd6e2fe	0.026231285
69	0x3c291a37	0.0103211915
70	0x3c828ec1	0.015937211
71	0x3c46a42b	0.012124102
72	0x3cc44669	0.023959355
73	0x3c08d7e7	0.008352256
74	0x3cc29dde	0.023756918
75	0x3c929d1a	0.017897177
76	0x3c19f5ef	0.009397014
77	0x3c7e86c2	0.015535058
78	0x3c4ae44d	0.012383533
79	0x3ccde770	0.025134772
80	0x3cc1469f	0.023593245
81	0x3c95db53	0.018293058
82	0x3cad9a25	0.021191666
83	0x3ce3eb19	0.027822064
84	0x3cae422c	0.021271788
85	0x3c83c14d	0.016083384
86	0x3c893d1b	0.01675277
87	0x3cd68213	0.026185071
88	0x3c6d751d	0.014493254
89	0x3c562bbb	0.01307195
90	0x3d0a9879	0.033836816
91	0x3ccb7f3d	0.024840945
92	0x3c690bcc	0.014224004
93	0x3ca29b78	0.019849524
94	0x3b37b585	0.0028031778
95	0x3c998e91	0.018744739
96	0x3ca96ed8	0.020682737
97	0x3bc70768	0.006073881
98	0x3cc8ff0f	0.024535684
99	0x3c1568b2	0.0091192
100	0x3c178d8b	0.009250055
101	0x3cb67db2	0.022276733
102	0x3c163e5e	0.009170143
103	0x3cb98866	0.022648048
104	0x3d0f1da0	0.034940362
105	0x3c8847cd	0.0166358
106	0x3cb37f96	0.021911424
107	0x3cc1e82d	0.02367028
108	0x3c120d45	0.0089142965
109	0x3cbba24b	0.022904536
110	0x3c38ede7	0.011287189
111	0x3c8d5767	0.01725359
112	0x3cb2819d	0.02179032
113	0x3c8e3218	0.017357871
114	0x3c69150a	0.0142262075
115	0x3c8e4b06	0.017369758
116	0x3caa8acd	0.020818138
117	0x3d01cf33	0.03169174
118	0x3c6ae64e	0.0143371355
119	0x3c9ec415	0.019380609
120	0x3c793670	0.015210733
121	0x3cbf8cac	0.023382507
122	0x3c91a45d	0.01777857
123	0x3cd7d2e2	0.026345674
124	0x3ca680c2	0.020325068
125	0x3ccf1f62	0.02528352
126	0x3c2ec550	0.01066716
127	0x3cc2958b	0.023752948
128	0x3c7266da	0.01479503
129	0x3c9be408	0.019029632
130	0x3cde58bb	0.02714192
131	0x3cc57bc8	0.024106875
132	0x3c98613a	0.018601049
133	0x3cb466f6	0.022021752
134	0x3c459681	0.012059809
135	0x3cc53fa2	0.024078194
136	0x3c4805b1	0.012208388
137	0x3cd3d44a	0.025858063
138	0x3c5b2f61	0.013377995
139	0x3ce436ec	0.02785822
140	0x3c9918ab	0.01868852
141	0x3c67fafa	0.014158959
142	0x3cae3aa4	0.021268196
143	0x3cb2f43a	0.021844972
144	0x3ce4961d	0.02790361
145	0x3c96657a	0.018358935
146	0x3cac0193	0.020996844
147	0x3c4989b4	0.012300897
148	0x3cddf04d	0.027092123
149	0x3ce9e365	0.028550813
150	0x3cf063f7	0.029344542
151	0x3ca6831f	0.020326195
152	0x3c9df22b	0.019280514
153	0x3c956589	0.018236892
154	0x3d13db5c	0.03609787
155	0x3ca03acf	0.019559292
156	0x3d1654b7	0.036701884
157	0x3c57a562	0.013161989
158	0x3cb1f8e0	0.021725118
159	0x3c2720ad	0.010200662
160	0x3ccd2b54	0.025045075
161	0x3c5f2e07	0.013621814
162	0x3c76be73	0.015060055
163	0x3c75d951	0.015005426
164	0x3c422cb7	0.011851481
165	0x3cae8046	0.0213014
166	0x3c468a21	0.012117893
167	0x3d200390	0.039065897
168	0x3cecb42c	0.028894506
169	0x3ce72a4b	0.028218409
170	0x3c47745b	0.012173737
171	0x3c7843de	0.0151529
172	0x3c31caa6	0.010851538
173	0x3c6ec86c	0.0145741515
174	0x3ce9b92e	0.028530683
175	0x3cc7aa66	0.024373244
176	0x3cecd803	0.028911596
177	0x3c7f9dbe	0.0156015735
178	0x3ca36af2	0.019948456
179	0x3c851976	0.016247492
180	0x3c95684a	0.018238205
181	0x3c1a2706	0.009408718
182	0x3c7a81a9	0.015289702
183	0x3d00b90f	0.031426486
184	0x3ca82b32	0.02052841
185	0x3c4e021c	0.012573745
186	0x3c8c8b76	0.017156344
187	0x3cd06ffb	0.025444021
188	0x3c2c32d2	0.010510163
189	0x3cbf2909	0.023334997
190	0x3cdaaf71	0.026694985
191	0x3c641b82	0.013922574
192	0x3cb46ee5	0.022025535
193	0x3ce95cf3	0.028486704
194	0x3c1b4010	0.009475723
195	0x3c7be836	0.015375188
196	0x3cc30e4b	0.023810526
197	0x3c7b6998	0.015345
198	0x3c910b2f	0.017705528
199	0x3cba87b0	0.022769779
200	0x3c4b7592	0.012418168
201	0x3ce5c233	0.028046703
202	0x3cba3407	0.022729887
203	0x3cad5364	0.021157928
204	0x3c9284f3	0.01788566
205	0x3cb7f566	0.022455882
206	0x3ce958b1	0.028484674
207	0x3c98c3b3	0.018648004
208	0x3c929d27	0.017897202
209	0x3cae5e3d	0.02128517
210	0x3c568f27	0.013095654
211	0x3cae83d7	0.0213031
212	0x3c95c022	0.018280093
213	0x3d01717f	0.03160238
214	0x3c5b02a5	0.01336733
215	0x3cd56cef	0.02605292
216	0x3c8fcdd1	0.017554196
217	0x3c6ea4cb	0.014565657
218	0x3c07b417	0.008282683
219	0x3c41e11d	0.011833456
220	0x3d0285bf	0.03186583
221	0x3c4c126a	0.012455562
222	0x3cd82756	0.026385944
223	0x3c86f152	0.016472492
224	0x3ce77bca	0.02825727
225	0x3c0516de	0.008123128
226	0x3ca69976	0.020336848
227	0x3c2f0cde	0.01068422
228	0x3cd32772	0.025775645
229	0x3cb9249b	0.022600463
230	0x3c843c1a	0.01614194
231	0x3c993802	0.018703464
232	0x3c6e6d00	0.014552355
233	0x3c82d611	0.015971215
234	0x3cf23882	0.02956796
235	0x3c9860fc	0.018600933
236	0x3cdfdf24	0.027328081
237	0x3cb9d31d	0.022683674
238	0x3c572bc3	0.013132992
239	0x3cb51ad0	0.022107512
240	0x3c1e3745	0.009656732
241	0x3c44957c	0.0119985305
242	0x3c73c85f	0.014879315
243	0x3c7e55b9	0.015523368
244	0x3cb7bb71	0.022428246
245	0x3cd42a8b	0.025899192
246	0x3c7fcd17	0.015612862
247	0x3cfaa660	0.030596912
248	0x3c57ce55	0.013171752
249	0x3cb1db37	0.021710975
250	0x3cfd7072	0.030937407
251	0x3da4028b	0.080082975
252	0x3cc4fd90	0.02404669
253	0x3cad0339	0.0211197
254	0x3c41f6d4	0.011838634
255	0x3ccd78cd	0.025082016

fc2.bias f4 [4]
0	0xbb11e636	-0.002226246
1	0xbd46719b	-0.048448186
2	0x3c86de30	0.01646337
3	0xbbe3e222	-0.0069544474
